checkpoints/best_model_1.pt (torch, 864272 bytes, 20 tensors)

weight f4 [64, 3, 1]
0.47512916 0.13109875 -0.023157522 0.45754388 0.20114566 0.2102313 0.43503827 -0.08241942
-0.40576756 -0.17296559 0.5101664 -0.52704924 -0.40337136 0.18074062 0.49292535 -0.20426297
-0.1843538 0.3849364 0.1918013 -0.06726743 -0.23403728 0.0727124 -0.49353787 -0.191238
0.49326998 -0.25196218 -0.48870656 0.10032708 -0.0029510062 0.11917197 -0.32156092 -0.07355969
-0.4290171 -0.048346754 -0.4977739 0.10865147 -0.38209757 -0.15330933 -0.3773508 -0.26861772
0.5360131 0.39166093 -0.5159433 0.01356142 -0.3325883 -0.071984135 -0.29261628 -0.18318407
-0.12048815 0.0029534684 0.48574597 0.29564604 0.008516565 -0.5280112 0.2305349 -0.2619057
0.5374054 0.057877436 0.592493 -0.3205557 0.45719042 -0.47400647 0.38751772 0.16993038
0.0042052963 0.06471779 0.35359696 -0.28148797 -0.072883986 0.44992998 0.42584553 0.37725472
0.20002331 0.543543 0.20302422 0.27096707 0.26226526 0.13841996 -0.23874234 -0.020095445
-0.1085753 -0.3112542 0.17832805 -0.5584695 0.2758512 0.22338808 0.47881198 0.028367497
0.2351466 0.025419323 0.33501115 -0.37064627 -0.41384014 0.114685066 0.4073066 0.38129598
0.33843687 0.4003902 0.38338077 0.5084092 -0.055990435 -0.22653945 0.27674973 0.5480682
-0.096111186 0.46031132 -0.15138201 -0.46804708 0.020073812 -0.33369794 -0.24293129 0.36155823
0.02009678 0.23489805 0.30560386 -0.34452972 -0.048614476 -0.053975172 -0.27929237 0.33378246
-0.08428079 -0.49901447 0.38276538 0.3224388 -0.32293424 0.16566645 0.5384897 -0.15887022
0.20849243 -0.19428322 0.531013 0.13948882 0.21248324 -0.4736157 -0.20368703 -0.50050765
-0.3628809 0.42750022 -0.17541575 -0.19296142 0.35229006 0.42974144 0.437486 0.31057486
-0.08154733 -0.035877682 0.33615887 0.46703255 0.09401359 -0.44342744 -0.27338368 0.088325284
-0.08728237 0.2669234 -0.009350737 -0.2314179 0.05188057 -0.21882382 -0.38914493 -0.38678622
-0.3076774 0.57131994 -0.12784874 -0.19935134 -0.08960339 -0.076846816 -0.13688762 -0.19192901
-0.23190038 -0.45503056 -0.018130016 -0.5556463 -0.2669664 0.5008204 -0.19833678 -0.43616793
-0.26286018 0.053625785 0.48837397 -0.15214846 -0.06345981 0.021812558 0.23583214 -0.44007945
-0.41478097 -0.5512597 -0.18261026 -0.29186746 -0.5407487 0.17291024 0.570913 -0.05641664
00000000: 2144 f33e c03e 063e d8b4 bdbc 3143 ea3e
00000010: 21f9 4d3e e046 573e 56bd de3e 83cb a8bd
00000020: c4c0 cfbe e41d 31be 449a 023f b3ec 06bf
00000030: b186 cebe 1214 393e b660 fc3e 502a 51be
00000040: 3ec7 3cbe 6216 c53e 8f67 443e 82c3 89bd
00000050: 78a7 6fbe 3dea 943d ffb0 fcbe e5d3 43be
00000060: e28d fc3e 3001 81be bf37 fabe 4978 cd3d
00000070: ab65 41bb 6f10 f43d a2a3 a4be 76a6 96bd
00000080: 21a8 dbbe 3f07 46bd 38dc febe a984 de3d
00000090: 4ba2 c3be 1ffd 1cbe 2034 c1be 4388 89be
000000a0: 2838 093f c887 c83e dc14 04bf b830 5e3c
000000b0: 0349 aabe 6b6c 93bd cdd1 95be 9b94 3bbe
000000c0: 7ec2 f6bd fa8e 413b b2b3 f83e eb5e 973e
000000d0: 1089 0b3c be2b 07bf 5711 6c3e 8118 86be
000000e0: 6693 093f e410 6d3d 9fad 173f e01f a4be
000000f0: dd14 ea3e fab0 f2be b968 c63e 3b02 2e3e
00000100: 95cc 893b c38a 843d a90a b53e 311f 90be
00000110: 3344 95bd 395d e63e 6d08 da3e 8827 c13e
00000120: e9d2 4c3e a225 0b3f 95e5 4f3e 32bc 8a3e
00000130: a247 863e f6bd 0d3e df78 74be 349f a4bc
00000140: ba5c debd b65c 9fbe a19b 363e dbf7 0ebf
00000150: 5e3c 8d3e d8bf 643e d826 f53e f462 e83c
00000160: 45ca 703e 2f3c d03c 9586 ab3e 59c5 bdbe
00000170: dbe2 d3be 01e0 ea3d 7e8a d03e 3a39 c33e
00000180: 9947 ad3e f2ff cc3e 7c4a c43e 1b27 023f
00000190: 3a56 65bd f5f9 67be 24b2 8d3e 334e 0c3f
000001a0: f1d5 c4bd edad eb3e e303 1bbe dea3 efbe
000001b0: d671 a43c 75da aabe fbc2 78be 291e b93e
000001c0: 01a2 a43c 1d89 703e 1c78 9c3e 3366 b0be
000001d0: f91f 47bd 1215 5dbd 69ff 8ebe 89e5 aa3e
000001e0: 689b acbd d37e ffbe d3f9 c33e b316 a53e
000001f0: a357 a5be 77a4 293e 76da 093f e0ae 22be
00000200: 0a7f 553e 2ef2 46be 78f0 073f 28d6 0e3e
00000210: 3595 593e c27d f2be 5593 50be 4521 00bf
00000220: 86cb b9be 4fe1 da3e 30a0 33be ae97 45be
00000230: 5d5f b43e 1207 dc3e 2afe df3e ab03 9f3e
00000240: 4902 a7bd 7af4 12bd 041d ac3e e41e ef3e
00000250: 328a c03d ec08 e3be f2f8 8bbe e3e3 b43d
00000260: 19c1 b2bd 2faa 883e d533 19bc d0f8 6cbe
00000270: b880 543d 5a13 60be 013e c7be d808 c6be
00000280: e487 9dbe 0642 123f c8ea 02be c222 4cbe
00000290: fb81 b7bd dd61 9dbd 452c 0cbe 0a89 44be
000002a0: 4b77 6dbe c4f9 e8be 6685 94bc d63e 0ebf
000002b0: d2af 88be c435 003f cc18 4bbe 6751 dfbe
000002c0: 9c95 86be b6a6 5b3d 270c fa3e cecc 1bbe
000002d0: 38f7 81bd 40b0 b23c fb7d 713e 1852 e1be
000002e0: 2c5e d4be 5b1f 0dbf 2ffe 3abe a76f 95be
000002f0: 826e 0abf 620f 313e 5b27 123f 2215 67bd

weight f4 [64]
0.99216837 1.0033749 1.0006205 0.9686237 0.9859387 0.9807116 0.9797273 1.010906
0.9819844 1.0104578 0.98270315 1.0001689 0.98819745 0.98352677 1.0233394 0.9909797
1.032884 1.074248 1.0052247 0.9938401 0.9914111 1.0250427 1.005161 0.981952
1.0020657 0.98366666 0.9939386 0.97762746 0.9901956 0.99025744 0.9971046 0.98828566
0.98921454 0.99627715 0.9923507 0.9867156 1.0106277 0.9950798 1.005161 1.0063595
0.98782533 0.99476284 0.9913041 0.9839427 0.9920859 1.0000142 0.9872837 0.97738576
0.9868243 0.9822599 0.97676873 0.98678964 1.0016886 0.9931694 1.0088403 1.0053018
1.0009927 1.0087669 1.0102587 0.9804205 0.9889083 1.0074606 0.9766604 0.9833536
00000000: bffe 7d3f 976e 803f 5514 803f b9f7 773f
00000010: 7b66 7c3f ea0f 7b3f 69cf 7a3f 5e65 813f
00000020: 5463 7b3f ae56 813f 6f92 7b3f 8905 803f
00000030: 82fa 7c3f 69c8 7b3f c9fc 823f d8b0 7d3f
00000040: 8b35 843f f580 893f 34ab 803f 4e6c 7e3f
00000050: 1ecd 7d3f 9934 833f 1ea9 803f 3561 7b3f
00000060: b043 803f 94d1 7b3f c372 7e3f cb45 7a3f
00000070: 757d 7d3f 8381 7d3f 3f42 7f3f 4a00 7d3f
00000080: 2a3d 7d3f 050c 7f3f b20a 7e3f 6599 7c3f
00000090: 405c 813f 8dbd 7e3f 1ea9 803f 63d0 803f
000000a0: 1fe2 7c3f c7a8 7e3f 1bc6 7d3f abe3 7b3f
000000b0: 57f9 7d3f 7700 803f a0be 7c3f f435 7a3f
000000c0: 84a0 7c3f 6375 7b3f 840d 7a3f 3f9e 7c3f
000000d0: 5537 803f 5a40 7e3f ae21 813f bbad 803f
000000e0: 8720 803f 461f 813f 2850 813f d6fc 7a3f
000000f0: 1829 7d3f 78f4 803f 6a06 7a3f 10bd 7b3f

bias f4 [64]
-0.014185885 0.0068557626 -0.005890366 -0.027107479 -0.009651128 -0.011059131 -0.014623409 0.0023814945
-0.015509793 0.03146063 0.0040234933 0.01028496 0.009409068 -0.009120046 0.038862597 -0.0033346238
0.047163416 0.09862218 0.0073548555 0.0056172283 0.005688008 0.016021196 -0.0029549405 -0.011209094
-0.0044490406 -0.015446444 0.006078835 -0.018393217 0.014952618 -0.014498887 0.009872485 0.004830945
-0.017097354 -0.010275765 0.004933447 -0.017643968 0.0058668824 -0.013416784 0.007952582 -0.009190103
-0.017693572 -0.012826367 -0.010527134 -0.013995486 -0.013850213 -0.008176907 -0.014612779 -0.009929425
0.0037489801 -0.0040425416 -0.008866229 0.014226628 -0.0037847795 -0.004891991 0.016772034 -0.008342559
-0.0060714907 -0.0010704768 0.006195141 -0.012874101 -0.009324089 -0.0015400015 -0.018624961 -0.0033381616
00000000: ea6b 68bc 4ea6 e03b f903 c1bb 8110 debc
00000010: c41f 1ebc 5b31 35bc 0697 6fbc d912 1c3b
00000020: c91c 7ebc dddc 003d 82d7 833b 4082 283c
00000030: 7e28 1a3c 3f6c 15bc 632e 1f3d b489 5abb
00000040: 6d2e 413d 6dfa c93d 0001 f13b ba10 b83b
00000050: 7862 ba3b e23e 833c ada7 41bb 59a6 37bc
00000060: 42c9 91bb 1513 7dbc f730 c73b 5fad 96bc
00000070: d3fb 743c bd8c 6dbc 34c0 213c e74c 9e3b
00000080: c00f 8cbc af5b 28bc c1a8 a13b 158a 90bc
00000090: fa3e c03b 12d2 5bbc 8c4b 023c 1692 16bc
000000a0: 1cf2 90bc af25 52bc 007a 2cbc 534d 65bc
000000b0: 01ec 62bc 6ff8 05bc 706a 6fbc 07af 22bc
000000c0: 73b1 753b 4c77 84bb a943 11bc cd16 693c
000000d0: 100a 78bb ff4c a0bb 8165 893c 3baf 08bc
000000e0: 5bf3 c6bb 3e4f 8cba 9c00 cb3b e5ed 52bc
000000f0: 10c4 18bc e0d9 c9ba 6093 98bc 0fc5 5abb

running_mean f4 [64]
10984.642 16999.71 -7042.9004 42412.68 15150.687 -15398.683 -5566.013 -41435.973
-21211.266 -239.74347 -6502.218 -41521.133 -12989.211 44774.82 1023.9264 -24553.22
64.776054 426.4196 -21650.475 49313.49 -39328.234 391.38278 -23563.848 35677.047
45487.824 21883.305 -1709.9423 14762.422 18846.94 19677.717 -31286.836 34147.73
33378.14 -4621.592 45682.688 -12618.416 -27860.75 1673.2706 -28924.252 -23148.043
-41393.938 -26888.018 -13331.679 44325.97 -39461.793 -30237.541 -16152.578 36617.816
-2904.6572 7810.5244 7234.3237 -879.9491 -18381.516 -25436.367 -16875.764 -11422.886
-37985.527 -21968.201 -36605.266 40841.918 1808.9482 -34883.906 -24387.188 47679.176
00000000: 91a2 2b46 6ccf 8446 3417 dcc5 aeac 2547
00000010: bfba 6c46 bb9a 70c6 1bf0 adc5 f9db 21c7
00000020: 88b6 a5c6 54be 6fc3 be31 cbc5 2231 22c7
00000030: d8f4 4ac6 d2e6 2e47 4afb 7f44 71d2 bfc6
00000040: 578d 8142 b535 d543 f324 a9c6 7da1 4047
00000050: 3ca0 19c7 ffb0 c343 b217 b8c6 0c5d 0b47
00000060: d3af 3147 9cf6 aa46 27be d5c4 b0a9 6646
00000070: e13d 9346 6fbb 9946 ac6d f4c6 bb63 0547
00000080: 2462 0247 bc6c 90c5 b072 3247 aa29 45c6
00000090: 80a9 d9c6 a928 d144 81f8 e1c6 16d8 b4c6
000000a0: f0b1 21c7 0910 d2c6 b74e 50c6 f825 2d47
000000b0: cb25 1ac7 153b ecc6 5062 7cc6 d109 0f47
000000c0: 848a 35c5 3214 f445 9712 e245 befc 5bc4
000000d0: 089b 8fc6 bcb8 c6c6 87d7 83c6 8b7b 32c6
000000e0: 8761 14c7 67a0 abc6 44fd 0ec7 eb89 1f47
000000f0: 581e e244 e843 08c7 6086 bec6 2d3f 3a47

running_var f4 [64]
4.9169316e+07 1.1761785e+08 2.0131904e+07 7.323622e+08 9.3091624e+07 9.67525e+07 1.253832e+07 6.986786e+08
1.8278118e+08 26063.002 1.7262982e+07 7.013996e+08 6.858882e+07 8.148397e+08 466037.16 2.4521718e+08
16182.397 100747.016 1.9094654e+08 9.8958074e+08 6.2930406e+08 64650.3 2.2587715e+08 5.174879e+08
8.415954e+08 1.9467662e+08 1.1878148e+06 8.893632e+07 1.4431283e+08 1.5754219e+08 3.9825658e+08 4.740436e+08
4.5259798e+08 8.645236e+06 8.490694e+08 6.4499252e+07 3.154595e+08 1.1540796e+06 3.4052704e+08 2.1809888e+08
6.971014e+08 2.9418195e+08 7.248756e+07 7.9890394e+08 6.3293485e+08 3.7247898e+08 1.0643594e+08 5.4522854e+08
3.4683162e+06 2.4995796e+07 2.1263448e+07 317504.7 1.372562e+08 2.6354171e+08 1.1604312e+08 5.2982864e+07
5.86931e+08 1.964652e+08 5.451021e+08 6.789692e+08 1.3483345e+06 4.9476208e+08 2.4139107e+08 9.2502394e+08
00000000: e990 3b4c 9756 e04c 2098 994b d79b 2e4e
00000010: e58e b14c 6e8a b84c d051 3f4b f593 264e
00000020: 5050 2e4d 019e cb46 c3b4 834b 093a 274e
00000030: a2d2 824c de45 424e a58e e348 7adb 694d
00000040: 97d9 7c46 82c5 c447 cf19 364d 37ef 6b4e
00000050: ac09 164e 4d8a 7c47 ca69 574d e9c1 f64d
00000060: e8a6 484e 79a8 394d 36ff 9049 f0a1 a94c
00000070: a0a0 094d 733e 164d 4ee7 bd4d a60a e24d
00000080: c7d0 d74d 74ea 034b 156f 4a4e 8d0b 764c
00000090: 3d6c 964d fde0 8c49 3e60 a24d ccfe 4f4d
000000a0: b133 264e e246 8c4d 5142 8a4c 3a79 3e4e
000000b0: 47e7 164e a09c b14d ac02 cb4c 1cfe 014e
000000c0: 71b0 534a eab3 be4b 2c3a a24b 1608 9b48
000000d0: d0e5 024d 3d55 7b4d ae55 dd4c 141d 4a4c
000000e0: 6def 0b4e 235d 3b4d 64f6 014e fee0 214e
000000f0: 7497 a449 c3eb eb4d 5e35 664d fb8a 5c4e

weight f4 [128, 64, 1]
0.0063286354 -0.040333852 0.013216136 -0.06575767 0.009094245 -0.082354136 0.072048664 -0.10750083
0.021303352 0.041072015 0.10779118 0.11050073 -0.114958815 -0.09446803 0.04800656 0.07448308
-0.0066027856 -0.1293723 0.111453585 0.056317855 -0.12112589 0.08093711 0.05723039 0.07814482
-0.07819042 0.022569481 -0.014215308 -0.117705576 0.045007315 0.014439021 -0.1223185 0.09660159
0.116792955 0.009764696 0.1132884 0.090568766 0.05827164 -0.12054723 0.11541924 -0.0001724697
0.01899877 0.08299407 0.05926558 -0.03579233 -0.12343546 -0.07687088 -0.083179176 0.064399794
0.013882301 0.027321976 -0.052448973 -0.05915517 -0.07539624 0.0029643935 -0.0365219 -0.113951296
-0.02809289 -0.12394159 -0.10445116 -0.07785679 0.06519163 0.034405906 -0.04981199 0.018712128
0.0031577211 0.06939303 0.09283845 -0.017815523 0.108060926 0.003558345 0.04126021 0.012846035
0.08819348 -0.034127034 0.11600399 0.11883426 0.14515166 0.09582193 -0.060007256 -0.091667034
-0.027595771 -0.025942745 -0.04926162 -0.08430075 -0.017910244 -0.05847994 -0.083972305 0.03587825
0.036335543 0.11032359 0.15031649 -0.12478371 0.022807153 0.1152073 0.12217159 -0.12117653
0.110267624 0.057085056 -0.020966912 -0.0012963203 0.073941484 -0.05656443 -0.08222831 -0.08004431
0.056282822 0.10316716 -0.046602514 -0.011529758 0.0068034665 0.11962616 0.0091265105 -0.07946256
0.0035178328 -0.010419413 -0.015465091 -0.057141118 0.13428374 0.08556539 0.05231289 -0.04440025
0.060335528 -0.014253013 0.04309323 -0.09275121 0.11178479 0.060667988 -0.044665296 0.016855309
0.01977109 0.008648361 -0.055663265 -0.049227457 0.114541896 -0.06291214 0.09635358 -0.06708396
-0.13468035 0.0622767 -0.12265368 -0.10942028 0.078819826 0.115203544 0.047157135 0.060637977
0.08569048 0.06062289 -0.017209927 0.00011088172 0.036806278 0.04423365 -0.029814122 0.070372924
-0.070640236 0.029142244 0.09641125 -0.12451015 -0.1120639 -0.001618398 -0.03329907 -0.036118124
-0.00750484 0.00970642 -0.027081424 0.029667988 -0.04697719 0.0576073 -0.0039667203 0.046883505
-0.04744667 0.056632586 -0.11853719 0.023718735 -0.14176571 -0.03904477 -0.09757446 -0.1044277
-0.080808274 0.048239134 -0.068054564 0.013256443 -0.030674415 0.03406213 -0.124389715 -0.020986443
-0.10344914 -0.08762849 -0.057208292 0.086233616 -0.12749214 -0.011653865 -0.13605697 0.0006547195
-0.101056434 0.122287445 -0.08917996 0.046892148 -0.033363357 0.048435654 0.042376656 -0.072013564
-0.065348156 0.010826349 0.0797829 0.12951705 -0.035124168 0.0700836 -0.073224895 -0.07320056
0.11259863 -0.12645523 0.09682346 0.035915527 -0.09538402 0.07061834 -0.016216163 -0.047255296
-0.101493396 0.04022602 -0.10638149 0.09296937 0.09016909 -0.03606144 0.09696183 -0.024752064
-0.07579189 -0.0025687732 0.07934781 -0.0532985 0.05872359 0.048923273 -0.03787667 -0.0072367634
0.04321011 -0.032647315 -0.10310572 0.07018541 0.072493285 -0.06349221 -0.0750574 -0.052974764
0.10951592 -0.08778466 0.078352235 0.05252817 0.027964775 -0.054749217 -0.09059616 -0.10821956
-0.07775142 -0.07717065 -0.031348985 -0.046873555 -0.005217919 -0.012546063 0.113304675 -0.07722545
00000000: 7160 cf3b 1c35 25bd 7e88 583c f5ab 86bd
00000010: 0700 153c 49a9 a8bd 408e 933d 6529 dcbd
00000020: 5e84 ae3c 213b 283d 9fc1 dc3d 354e e23d
00000030: 876f ebbd 7478 c1bd 87a2 443d 968a 983d
00000040: 2e5c d8bb 2c7a 04be c741 e43d 8dad 663d
00000050: da10 f8bd 5bc2 a53d 6a6a 6a3d 640a a03d
00000060: 4d22 a0bd a2e3 b83c 53e7 68bc 9f0f f1bd
00000070: 9759 383d a591 6c3c 1f82 fabd 0ed7 c53d
00000080: 2531 ef3d 1afc 1f3c c003 e83d 1e7c b93d
00000090: 3eae 6e3d 77e1 f6bd ec60 ec3d fcd8 34b9
000000a0: 4fa3 9b3c ccf8 a93d 77c0 723d fa9a 12bd
000000b0: bbcb fcbd 7b6e 9dbd d859 aabd 0ae4 833d
000000c0: 9772 633c 56d2 df3c bcd4 56bd b14c 72bd
000000d0: 5869 9abd 4546 423b fd97 15bd 4c5f e9bd
000000e0: 0f23 e6bc 17d5 fdbd 7dea d5bd 6173 9fbd
000000f0: 3083 853d 35ed 0c3d a807 4cbd 2d4a 993c
00000100: c5f1 4e3b ef1d 8e3d 1622 be3d dcf1 91bc
00000110: 0c4f dd3d 1f33 693b 7700 293d 2d78 523c
00000120: c99e b43d cac8 0bbd 8093 ed3d 605f f33d
00000130: a3a2 143e 4a3e c43d 2bca 75bd edbb bbbd
00000140: 8710 e2bc e185 d4bc 8dc6 49bd dfa5 acbd
00000150: 81b8 92bc a988 6fbd acf9 abbd 12f5 123d
00000160: 94d4 143d 56f1 e13d 91ec 193e 9a8e ffbd
00000170: 11d6 ba3c cef1 eb3d 1935 fa3d 672b f8bd
00000180: fed3 e13d 05d2 693d cdc2 abbc 4be9 a9ba
00000190: a26e 973d 1bb0 67bd 5167 a8bd 45ee a3bd
000001a0: d188 663d 4e49 d33d 47e2 3ebd 4fe7 3cbc
000001b0: 9def de3b 8ffe f43d 5c87 153c 44bd a2bd
000001c0: 718b 663b 30b6 2abc 4b61 7dbc ce0c 6abd
000001d0: ad81 093e e83c af3d 0a46 563d 09dd 35bd
000001e0: 6322 773d 7885 69bc 8782 303d 59f4 bdbd
000001f0: 6def e43d ff7e 783d f5f2 36bd 2514 8a3c
00000200: fbf6 a13c dbb1 0d3c 2aff 63bd bba2 49bd
00000210: f194 ea3d 14d8 80bd 0755 c53d 5163 89bd
00000220: a5e9 09be da15 7f3d da31 fbbd bd17 e0bd
00000230: 4a6c a13d d6ef eb3d d727 413d 875f 783d
00000240: 7e7e af3d b54f 783d d5fb 8cbc 2c89 e838
00000250: 2ec2 163d 582e 353d bf3c f4bc ae1f 903d
00000260: d4ab 90bd b7bb ee3c 4373 c53d 2dff febd
00000270: c281 e5bd 6d20 d4ba 9b64 08bd 99f0 13bd
00000280: 29eb f5bb ad07 1f3c ddd9 ddbc 480a f33c
00000290: 276b 40bd a2f5 6b3d 43fb 81bb eb08 403d
000002a0: 7057 42bd 92f7 673d a0c3 f2bd cb4d c23c
000002b0: 082b 11be 69ed 1fbd 1ed5 c7bd 31de d5bd
000002c0: cf7e a5bd 6696 453d 3160 8bbd 8d31 593c
000002d0: e948 fbbc bb84 0b3d 09c0 febd c3eb abbc
000002e0: 25dd d3bd 9176 b3bd 3e53 6abd 409b b03d
000002f0: 4d8d 02be daef 3ebc 8552 0bbe 7ba1 2b3a
00000300: adf6 cebd d771 fa3d fca3 b6bd fb11 403d
00000310: 04a8 08bd 7764 463d 2593 2d3d d97b 93bd
00000320: 41d5 85bd 0061 313c 3865 a33d 1ea0 043e
00000330: 5cde 0fbd fe87 8f3d eff6 95bd 2dea 95bd
00000340: 1c9a e63d 7b7d 01be 614b c63d 291c 133d
00000350: b258 c3bd 59a0 903d c2d7 84bc c58e 41bd
00000360: c5db cfbd 0ac4 243d 8ade d9bd ba66 be3d
00000370: 92aa b83d 29b5 13bd ed93 c63d d7c4 cabc
00000380: c738 9bbd dd58 28bb 1b81 a23d 874f 5abd
00000390: 2688 703d c563 483d 9124 1bbd 5f22 edbb
000003a0: 16fd 303d 31b9 05bd 1729 d3bd 5ebd 8f3d
000003b0: 5c77 943d 3408 82bd b2b7 99bd 11fc 58bd
000003c0: e249 e03d 72c8 b3bd 2377 a03d c727 573d
000003d0: 6216 e53c b740 60bd 7b8a b9bd 37a2 ddbd
000003e0: 233c 9fbd a50b 9ebd cb67 00bd 7cfe 3fbd
000003f0: 14fb aabb 018e 4dbc 480c e83d 6028 9ebd

weight f4 [128]
1.0209839 0.97341436 0.96719474 1.0081031 0.9661651 0.9567881 0.9652644 0.99906486
0.98682827 0.9678951 0.9588452 0.977084 0.97265 0.96959674 1.016858 1.0416415
0.9917243 0.962942 0.9910224 0.99929565 0.9596549 0.98453164 0.9854019 0.9570532
0.9771315 0.98652196 1.0243239 1.0553793 0.9778613 0.9590912 0.97609335 0.96201205
0.9803993 0.9792125 1.0063276 0.99439603 0.9588193 0.9852565 1.0121963 1.003013
0.9843681 1.0443568 0.9495222 0.98537624 0.9654613 1.0122529 0.986082 0.9749235
0.97455394 1.0123582 0.96824616 0.97198224 0.99866843 0.99798256 1.0017297 0.99864244
1.0127757 0.961557 0.9546142 0.97789603 0.9660562 1.1064812 1.0338781 0.9757309
0.9791588 0.9825415 0.9768648 0.97617316 0.970774 0.98217595 0.964632 1.021123
0.997633 0.9902622 1.0308752 0.96181804 0.97401285 0.9602832 1.0755053 1.0125054
0.94827724 0.98978597 1.0270118 0.97236407 0.9599599 1.0195898 1.0049626 0.94335115
0.98096836 1.0067468 0.9709499 0.99842125 0.97061163 0.954019 0.9798765 1.0625316
0.96555877 0.9686038 0.9719157 0.98894286 0.9836756 0.9862328 0.97931284 1.0206541
0.9986227 0.95723754 1.0061033 0.99156004 0.9836165 0.95021564 0.9667083 0.99280095
0.9828992 0.9846235 0.97662634 0.96403384 0.9716663 1.039889 0.9741918 1.0167034
1.0906438 0.98813504 1.0216526 1.0769401 1.0302755 1.0000007 0.9812996 0.9742854
00000000: 9aaf 823f af31 793f 139a 773f 8609 813f
00000010: 9956 773f 11f0 743f 911b 773f b7c2 7f3f
00000020: c7a0 7c3f f9c7 773f e176 753f 2d22 7a3f
00000030: 97ff 783f 7e37 783f 6728 823f 8254 853f
00000040: a5e1 7d3f 5e83 763f a5b3 7d3f d7d1 7f3f
00000050: f2ab 753f 440a 7c3f 4d43 7c3f 7001 753f
00000060: 4a25 7a3f b48c 7c3f 0c1d 833f ab16 873f
00000070: 1e55 7a3f 0087 753f 41e1 793f 6c46 763f
00000080: 73fb 7a3f acad 7a3f 58cf 803f bd90 7e3f
00000090: 2f75 753f c539 7c3f a68f 813f bb62 803f
000000a0: 8cff 7b3f 7cad 853f e313 733f 9e41 7c3f
000000b0: 7928 773f 8191 813f df6f 7c3f 9694 793f
000000c0: 5e7c 793f f494 813f fbde 773f d4d3 783f
000000d0: bca8 7f3f c97b 7f3f ae38 803f 08a7 7f3f
000000e0: a2a2 813f 9928 763f 9961 743f 6557 7a3f
000000f0: 764f 773f 2da1 8d3f 1e56 843f 80c9 793f
00000100: 27aa 7a3f d787 7b3f d013 7a3f 7ce6 793f
00000110: a584 783f e26f 7b3f 1ff2 763f 29b4 823f
00000120: e064 7f3f d381 7d3f b8f3 833f b539 763f
00000130: e858 793f 1fd5 753f 28aa 893f c799 813f
00000140: 4cc2 723f 9d62 7d3f 1f75 833f daec 783f
00000150: efbf 753f eb81 823f 9da2 803f 767f 713f
00000160: be20 7b3f 14dd 803f 2c90 783f 8998 7f3f
00000170: 017a 783f 973a 743f 30d9 7a3f 0901 883f
00000180: dc2e 773f 6bf6 773f 78cf 783f 5c2b 7d3f
00000190: 2ad2 7b3f c179 7c3f 3fb4 7a3f cba4 823f
000001a0: bda5 7f3f 850d 753f fec7 803f e1d6 7d3f
000001b0: 4ace 7b3f 5541 733f 327a 773f 3428 7e3f
000001c0: 489f 7b3f 4910 7c3f 2f04 7a3f ecca 763f
000001d0: 1fbf 783f 151b 853f a264 793f 5623 823f
000001e0: 379a 8b3f 6bf6 7c3f 83c5 823f 2cd9 893f
000001f0: 11e0 833f 0600 803f 7336 7b3f c56a 793f

bias f4 [128]
0.015368039 -0.030941451 -0.0065443525 0.030569557 -0.022525748 -0.059467964 -0.03573242 0.0020508738
0.0053573633 -0.028344752 -0.039978262 -0.009972555 -0.024048533 -0.032551825 0.01347006 0.02731625
-0.012080276 -0.035475317 -0.01733403 -0.006218286 -0.023831012 -0.011499236 0.0021800157 -0.027697355
-0.027338587 -0.006433272 0.028028935 0.011526192 0.009094674 -0.020619972 -0.016565373 -0.014283011
-0.04311244 0.004868703 0.014340916 0.0005902058 -0.030804602 -0.009850561 -0.021621665 0.004229961
-0.003907437 0.011561509 -0.027068213 -0.011677228 -0.009124477 0.0019269122 -0.0058130464 -0.028160151
-0.018415596 -0.045959868 -0.04938371 -0.034586884 0.00062068115 -0.0064949887 -0.044506226 0.020107295
0.019724773 -0.034438755 -0.011232322 -0.027207172 -0.018269999 0.04505799 0.036845222 -0.006791733
-0.019574827 0.02612774 -0.016989775 -0.016363893 -0.002619941 -0.00967065 -0.01792767 -0.0037613509
0.006789674 -0.029073384 0.019660689 -0.027944421 -0.018159483 -0.025885064 0.07714843 0.011648144
-0.031233031 -0.015343156 0.01541691 -0.03151279 -0.018545642 0.006880166 -0.00011914474 -0.045041543
-0.0013564333 -0.016977886 -0.03685925 -0.011801932 -0.012685262 -0.039130896 -0.022271853 0.07569133
-0.039878476 -0.018385611 -0.033446167 -0.011859575 -0.016436186 -0.002303281 -0.009845565 0.035134986
-0.0040317234 -0.02842559 -0.0094269905 -0.016820503 -0.026970252 -0.058394566 -0.01057267 0.004923292
0.0010133943 -0.023068594 -0.020072186 -0.014059063 -0.028098566 0.035135414 -0.02480657 -0.001647965
0.06649871 -0.005873927 -0.017706027 0.10267019 -0.0035073634 -0.013181432 -0.025195764 -0.033877637
00000000: 3aca 7b3c ed78 fdbc 0272 d6bb 026d fa3c
00000010: eb87 b8bc ae94 73bd 285c 12bd f467 063b
00000020: d28c af3b 4133 e8bc 3fc0 23bd ed63 23bc
00000030: 6e01 c5bc 1055 05bd 87b1 5c3c 54c6 df3c
00000040: 5aec 45bc 914e 11bd 1800 8ebc c4c2 cbbb
00000050: 4139 c3bc 4b67 3cbc 98de 0e3b 90e5 e2bc
00000060: 2cf5 dfbc 32ce d2bb f09c e53c 5ad8 3c3c
00000070: d401 153c 37eb a8bc 1bb4 87bc 4a03 6abc
00000080: ab96 30bd a489 9f3b 29f6 6a3c 0ab8 1a3a
00000090: ef59 fcbc 3f64 21bc eb1f b1bc 7c9b 8a3b
000000a0: f509 80bb 7c6c 3d3c 28be ddbc d851 3fbc
000000b0: d57e 15bc 7290 fc3a 5e7b bebb 1eb0 e6bc
000000c0: 4edc 96bc 6a40 3cbd 9346 4abd faaa 0dbd
000000d0: 35b5 223a ead3 d4bb 294c 36bd 0eb8 a43c
000000e0: d995 a13c a70f 0dbd c607 38bc 93e1 debc
000000f0: f7aa 95bc ba8e 383d 04eb 163d 308d debb
00000100: 635b a0bc d809 d63c 242e 8bbc 920d 86bc
00000110: 51b3 2bbb a571 1ebc 0ddd 92bc ff80 76bb
00000120: ea7b de3b 4e2b eebc 740f a13c b3eb e4bc
00000130: 32c3 94bc ea0c d4bc ffff 9d3d dbd7 3e3c
00000140: 6adc ffbc dc61 7bbc 3597 7c3c 8e13 01bd
00000150: 08ed 97bc 0473 e13b 58dd f9b8 7b7d 38bd
00000160: 59ca b1ba 3515 8bbc baf9 16bd e45c 41bc
00000170: d8d5 4fbc b847 20bd 7673 b6bc 0e04 9b3d
00000180: 9d57 23bd 6c9d 96bc d9fe 08bd aa4e 42bc
00000190: 2ea5 86bc a5f2 16bb 4b4f 21bc b4e9 0f3d
000001a0: 8c1c 84bb c8dc e8bc aa73 1abc 27cb 89bc
000001b0: b8f0 dcbc 242f 6fbd fe38 2dbc 9153 a13b
000001c0: dfd3 843a 59fa bcbc 6d6e a4bc fc57 66bc
000001d0: f72e e6bc 27ea 0f3d 2637 cbbc 8800 d8ba
000001e0: 7a30 883d 127a c0bb 3b0c 91bc c044 d23d
000001f0: cbdb 65bb eff6 57bc 5967 cebc 47c3 0abd

running_mean f4 [128]
-0.116108514 0.45239952 -0.42787024 -0.15173802 -0.39414603 0.23884746 0.39762768 -0.3189725
0.25319335 -0.351756 -0.11040547 -0.361481 0.507527 -0.11194365 -0.13201794 -0.13187033
-0.026973303 -0.16637057 0.42799333 0.6705992 -0.5388021 -0.2960099 -0.6952528 -0.51990753
0.039189167 -0.18562424 -0.09844974 -0.080767505 -0.7756392 -0.41708285 -0.35937217 -0.53615576
0.28039873 -0.2630858 -0.115353495 0.5160393 -0.35218298 0.53301793 -0.13500607 -0.14828053
0.06865574 -0.24169755 -0.38657722 -0.22298257 -0.46754977 -0.16539359 -0.226929 0.2086469
-0.7276913 0.19793417 -0.30746624 0.77660733 0.71144336 0.26069066 -0.07264582 -0.09796771
0.4452411 -0.34120885 -0.46176052 0.19093212 -0.45939988 -0.17613417 -0.1736604 -0.54543865
0.3116967 -0.2573008 0.31242454 -0.06413406 -0.41478604 0.19377291 -0.86414313 0.3727877
0.45060652 0.76206386 -0.17366065 0.3395481 0.056033127 -0.3621051 -0.17850089 -0.28687227
-0.14202343 0.49234933 -0.083990134 0.06629431 -0.5492565 -0.35453832 0.002208784 -0.0369773
0.4674186 -0.2553143 -0.12945727 0.32917622 0.36467558 -0.6016779 0.14214711 -0.15803193
-0.10549139 -0.27113196 0.08616553 -0.16188115 0.10210265 -0.35045156 -0.13705502 -0.13547091
-0.10908843 -0.4385904 0.37828377 0.2707286 0.21004342 0.06419938 -0.5199101 -0.16788302
-0.2911864 0.42601284 0.035646934 -0.3272183 -0.2005308 0.014473336 -0.3883452 -0.032781042
-0.09303998 -0.24468799 -0.14331512 -0.14099361 -0.12550159 0.14248176 0.82988137 0.35752058
00000000: 4dca edbd e9a0 e73e cf11 dbbe 3661 1bbe
00000010: 82cd c9be 6e94 743e db95 cb3e 5d50 a3be
00000020: 8fa2 813e 5d19 b4be 431c e2bd 0a14 b9be
00000030: 4aed 013f b642 e5bd b62f 07be 0409 07be
00000040: 1ef7 dcbc 0c5d 2abe f121 db3e 64ac 2b3f
00000050: efee 09bf 9c8e 97be 16fc 31bf a918 05bf
00000060: d284 203d 4814 3ebe 04a0 c9bd 6f69 a5bd
00000070: 4a90 46bf e28b d5be a1ff b7be 8141 09bf
00000080: 6c90 8f3e 2fb3 86be 743e ecbd 271b 043f
00000090: 5451 b4be dd73 083f 083f 0abe dad6 17be
000000a0: 619b 8c3d 907f 77be 73ed c5be 8b55 64be
000000b0: af62 efbe f05c 29be 1360 68be 88a7 553e
000000c0: fa49 3abf 41af 4a3e 376c 9dbe bdcf 463f
000000d0: 2721 363f 3f79 853e 55c7 94bd 4ba3 c8bd
000000e0: a4f6 e33e edb2 aebe e06b ecbe b683 433e
000000f0: 7636 ebbe 845c 34be 08d4 31be dea1 0bbf
00000100: b696 9f3e eebc 83be 1cf6 9f3e b858 83bd
00000110: d65e d4be 686c 463e 7c38 5dbf 08de be3e
00000120: e6b5 e63e 9e16 433f 19d4 31be 40d9 ad3e
00000130: fe82 653d d765 b9be f0c8 36be ece0 92be
00000140: 976e 11be 3615 fc3e 0503 acbd 50c5 873d
00000150: 139c 0cbf 0c86 b5be 3fc1 103b 8275 17bd
00000160: 7e51 ef3e 8eb8 82be 7290 04be c989 a83e
00000170: c2b6 ba3e 9007 1abf 038f 113e 1fd3 21be
00000180: df0b d8bd cfd1 8abe 8e77 b03d 2cc4 25be
00000190: 321b d13d 636e b3be 2758 0cbe e3b8 0abe
000001a0: c169 dfbd ec8e e0be 69ae c13e f09c 8a3e
000001b0: 9f15 573e f77a 833d d418 05bf 87e9 2bbe
000001c0: 6216 95be 5b1e da3e 8502 123d 2889 a7be
000001d0: f257 4dbe 9221 6d3c 2fd5 c6be 6a45 06bd
000001e0: bf8b bebd 7d8f 7abe 33c1 12be a160 10be
000001f0: 7d83 00be bde6 113e 1b73 543f f00c b73e

running_var f4 [128]
0.053268243 0.5517119 0.6577353 0.091747575 0.25518128 0.5331484 0.18001367 0.075463645
0.07594177 0.30092087 0.124486 0.3846901 0.47211662 0.40385622 0.027044138 0.045132462
0.1067776 0.13965563 0.30419514 1.545719 0.885398 0.035638407 1.536671 0.55316037
0.08961773 0.13453582 0.08818305 0.024826912 1.2480963 0.5374626 0.29793066 0.8431332
0.097784735 0.22769202 0.13221201 0.43096194 0.25460836 0.11112957 0.25995675 0.08059736
0.105910815 0.15641989 0.15162152 0.06487831 1.0850111 0.024738992 0.18507591 0.23278774
0.82784754 0.021457728 0.20792682 0.65757656 0.9446589 0.54298174 0.08584449 0.09612437
0.53214896 0.553407 0.43969738 0.06471637 0.51622903 0.049859915 0.06586968 0.54967326
0.22694927 0.0259792 0.1562563 0.1989647 0.37285388 0.07095372 1.5290755 0.30427313
0.24538508 0.9599846 0.05843897 0.3500491 0.3353438 0.42445776 0.052876275 0.12943459
0.20991975 0.40813184 0.07377638 0.19167438 1.0574446 0.10536549 0.061785847 0.12865683
0.36171862 0.115805715 0.12458705 0.44772756 0.2039569 0.85344934 0.77378714 0.08396973
0.035963133 0.14872727 0.09570922 0.067809954 0.08888583 0.2167833 0.11218842 0.04283554
0.007229116 0.72323024 0.2617272 0.10917675 0.11101441 0.23615472 0.57117033 0.066549934
0.43395272 0.21694842 0.28173462 0.17777118 0.15872627 0.06914373 0.616232 0.037228175
0.07363805 0.16817847 0.04156445 0.06449134 0.05863621 0.15159322 0.97758234 0.26119512
00000000: cd2f 5a3d fe3c 0d3f 5761 283f 27e6 bb3d
00000010: 1fa7 823e 6a7c 083f 8155 383e af8c 9a3d
00000020: 5c87 9b3d 4d12 9a3e 84f2 fe3d 1af6 c43e
00000030: 45b9 f13e 3ec6 ce3e ab8b dd3c d1dc 383d
00000040: 37ae da3d e301 0f3e 77bf 9b3e 1fda c53f
00000050: 71a9 623f 94f9 113d a3b1 c43f eb9b 0d3f
00000060: 8089 b73d c2c3 093e 5199 b43d cf61 cb3c
00000070: 9fc1 9f3f 2697 093f 5e8a 983e 94d7 573f
00000080: 5d43 c83d 1928 693e 9662 073e 0ba7 dc3e
00000090: 075c 823e e697 e33d 0d19 853e 3b10 a53d
000000a0: c5e7 d83d 892c 203e ac42 1b3e ebde 843d
000000b0: a5e1 8a3f 6da9 ca3c 8a84 3d3e e95f 6e3e
000000c0: d1ed 533f 1ec8 af3c c5ea 543e f056 283f
000000d0: 2ad5 713f da00 0b3f 3ccf af3d dbdc c43d
000000e0: ea3a 083f 15ac 0d3f 0420 e13e 048a 843d
000000f0: 9627 043f e939 4c3d afe6 863d 63b7 0c3f
00000100: 6465 683e 55d2 d43c a701 203e 67bd 4b3e
00000110: b4e6 be3e 2f50 913d bfb8 c33f b0c9 9b3e
00000120: 3a46 7b3e 8dc1 753f b45d 6f3d a339 b33e
00000130: 2fb2 ab3e 8752 d93e cb94 583d 808a 043e
00000140: 34f5 563e a8f6 d03e 1218 973d 4a46 443e
00000150: 585a 873f ddc9 d73d 2813 7d3d 9ebe 033e
00000160: 2f33 b93e 8c2b ed3d 7f27 ff3d 8c3c e53e
00000170: 14da 503e a87b 5a3f ea16 463f 52f8 ab3d
00000180: 144e 133d f64b 183e 3203 c43d f2df 8a3d
00000190: c609 b63d 71fc 5d3e 0bc3 e53d 5274 2f3d
000001a0: 38e2 ec3b 9e25 393f 1c01 863e 0f98 df3d
000001b0: 865b e33d 8bd2 713e 3838 123f 554b 883d
000001c0: 0d2f de3e ba27 5e3e 853f 903e a609 363e
000001d0: 2489 223e 3a9b 8d3d 61c1 1d3f 927c 183d
000001e0: 8ccf 963d fa36 2c3e 7c3f 2a3d 0914 843d
000001f0: 862c 703d 413b 1b3e d642 7a3f 5ebb 853e

weight f4 [256, 128, 1]
0.08049405 0.027269669 -0.038142394 -0.03339464 -0.117147096 -0.07494536 -0.044355374 -0.0409268
0.0050927387 0.086619064 -0.07193276 0.055087853 0.06579387 -0.014944132 0.009997067 -0.018138573
0.06518355 0.03713789 0.010634916 0.030340353 0.0028830864 0.017993059 0.0056850216 -0.033780567
0.06277426 -0.094143264 0.09334743 0.01525066 -0.07320714 0.0477158 0.015479398 -0.07131504
0.020969912 -0.0008894205 0.055789508 -0.07668237 0.070792176 0.035475675 -0.04080693 -0.07088558
0.046172585 -0.016453343 0.03739645 -0.046051 -0.0690548 0.049504224 -0.020006193 0.059591137
0.07797048 0.018606812 0.06240609 0.046282 0.047488403 0.024010131 0.052701488 -0.07752361
-0.044686247 -0.003726779 0.058986805 -0.054461893 0.00037674274 -0.12582013 -0.058875684 -0.0016730678
0.011068024 -0.05453487 -0.067163065 -0.043494746 0.03426247 -0.07276753 -0.02885184 0.029749483
-0.06895484 0.09002661 -0.12205629 0.04077314 0.046936385 -0.0477451 -0.0015709461 -0.06738692
-0.07466748 0.09295351 -0.061331604 0.024268039 0.0154134715 0.035248242 0.015145995 0.01659042
0.066507764 -0.011353476 0.06469845 -0.06877043 -0.022988087 0.016820617 -0.023312382 0.002257056
0.0346128 -0.008285827 -0.052606076 -0.10035846 0.054946687 -0.07525088 -0.040387727 -0.075905025
-0.09270759 0.05860043 0.013875053 -0.014658871 0.058720414 0.053338945 0.07015591 -0.0066585043
0.055041585 0.07734573 -0.060532942 -0.02358635 -0.0031234652 -0.0017568158 -0.018321449 0.001135758
-0.086259305 0.018506471 -0.052286398 -0.14383881 -0.12872988 0.047816616 -0.068179674 0.076258935
0.011914901 -0.06870631 -0.08896032 0.06102469 0.05732062 -0.081266895 0.04679122 0.006218308
0.0020013861 0.056042917 0.07215964 0.004613022 0.0058832397 0.046419643 0.05049202 0.11157213
-0.02860883 0.046919234 -0.082915254 -0.078929104 0.027993988 -0.06594276 -0.09256051 0.051982168
0.03696911 0.01806171 0.05581231 0.023729717 -0.003908316 -0.044860642 0.012243754 0.047927756
-0.056669552 0.006833898 -0.0073288064 0.051226087 -0.057853516 0.08832591 -0.034556154 0.033253785
0.03714846 0.005227309 0.063871205 -0.013953945 0.040430106 -0.08614346 0.06977104 0.017018432
0.039074957 -0.029800633 -0.077713616 0.052168608 0.031893168 0.0915606 0.09067403 0.05985339
-0.008406437 -0.06972329 0.016887954 0.02378828 -0.022937045 -0.11088078 -0.056814358 0.044668373
0.04651213 0.09082212 -0.08064416 -0.060097307 0.087095685 0.062165897 0.04162834 -0.040255107
0.05382327 0.021438219 -0.095963515 -0.050554335 -0.051551096 -0.0036355052 -0.11088068 0.026089419
0.072201446 -0.03463501 0.10389249 0.0033021094 -0.09789064 0.048809994 -0.01327083 -0.046837363
-0.01910364 0.06389521 -0.009325644 -0.07616013 -0.05364017 -0.05642227 -0.0050511593 -0.10375346
0.024868941 -0.04363093 0.026488535 -0.07819865 -0.014550947 -0.084869936 -0.1010568 0.004823343
-0.026265524 0.013310363 -0.050898932 -0.024499755 -0.002045297 -0.013080591 0.020372367 0.06665186
-0.048030633 0.06536438 0.04933823 -0.063544884 -0.06335054 0.11014318 0.037380252 0.043687068
-0.05729839 0.08766833 -0.0014770856 -0.031240068 0.037398923 -0.04070876 -0.06756005 -0.016526269
00000000: 11da a43d a464 df3c 333b 1cbd d1c8 08bd
00000010: d1ea efbd f47c 99bd fbad 35bd dca2 27bd
00000020: fde0 a63b 5665 b13d 7c51 93bd cda3 613d
00000030: f0be 863d 3cd8 74bc bdca 233c 5897 94bc
00000040: f47e 853d e61d 183d 123e 2e3c 558c f83c
00000050: 2af2 3c3b 2e66 933c 6b49 ba3b 7e5d 0abd
00000060: cb8f 803d 2fce c0bd f02c bf3d e7dd 793c
00000070: a0ed 95bd a571 433d 4d9d 7d3c 9f0d 92bd
00000080: 18c9 ab3c 0028 69ba 8a83 643d a50b 9dbd
00000090: 7dfb 903d f14e 113d 2b25 27bd 752c 91bd
000000a0: 771f 3d3d 29c9 86bc 052d 193d f99f 3cbd
000000b0: 9a6c 8dbd f1c4 4a3d 07e4 a3bc d615 743d
000000c0: fdae 9f3d 506d 983c 879d 7f3d 3292 3d3d
000000d0: 3383 423d e5b0 c43c 84dd 573d b3c4 9ebd
000000e0: ed08 37bd fa3c 74bb 269c 713d 6f13 5fbd
000000f0: 8e85 c539 fed6 00be a127 71bd d74a dbba
00000100: a856 353c f55f 5fbd ca8c 89bd 8c27 32bd
00000110: ce56 0c3d 2507 95bd b25a ecbc 30b5 f33c
00000120: 3238 8dbd df5f b83d a6f8 f9bd bc01 273d
00000130: 5e40 403d 5e90 43bd 34e8 cdba 2702 8abd
00000140: 44eb 98bd 695e be3d d936 7bbd c4cd c63c
00000150: c988 7c3c 7660 103d e826 783c a2e8 873c
00000160: 3935 883d ee03 3abc 9f80 843d 83d7 8cbd
00000170: 8351 bcbc 64cb 893c 9cf9 bebc 1eeb 133b
00000180: 27c6 0d3d 47c1 07bc 7879 57bd bc88 cdbd
00000190: c70f 613d 221d 9abd 9a6d 25bd 1874 9bbd
000001a0: 7add bdbd 0107 703d 3154 633c c32b 70bc
000001b0: d184 703d f079 5a3d e7ad 8f3d 952f dabb
000001c0: 4973 613d 7067 9e3d 64f1 77bd 2938 c1bc
000001d0: 0db3 4cbb f544 e6ba dd16 96bc b7dd 943a
000001e0: b8a8 b0bd e29a 973c 432a 56bd 7b4a 13be
000001f0: c4d1 03be 5bdb 433d c9a1 8bbd a52d 9c3d
00000200: b836 433c e5b5 8cbd d430 b6bd 06f5 793d
00000210: 07c9 6a3d 426f a6bd 26a8 3f3d f3c2 cb3b
00000220: b029 033b 428d 653d 6fc8 933d d528 973b
00000230: 31c8 c03b 8622 3e3d b8d0 4e3d ee7f e43d
00000240: 115d eabc 622e 403d 79cf a9bd 95a5 a1bd
00000250: a653 e53c ff0c 87bd 5d90 bdbd 41eb 543d
00000260: ec6c 173d 27f6 933c 739b 643d d364 c23c
00000270: 5511 80bb cbbf 37bd 079a 483c e54f 443d
00000280: 551e 68bd e4ee df3b 7c26 f0bb 72d2 513d
00000290: cff7 6cbd 37e4 b43d c18a 0dbd 1f35 083d
000002a0: fc28 183d d949 ab3b e8ce 823d 169f 64bc
000002b0: 0a9a 253d fb6b b0bd 1ee4 8e3d 3d6a 8b3c
000002c0: 100d 203d 7520 f4bc 5128 9fbd c0ae 553d
000002d0: 69a2 023d 2084 bb3d 4eb3 b93d d428 753d
000002e0: 27bb 09bc 16cb 8ebd 9b58 8a3c a4df c23c
000002f0: 78e6 bbbc 7615 e3bd 2cb6 68bd 2ff6 363d
00000300: 8183 3e3d f300 ba3d c428 a5bd 9828 76bd
00000310: 395f b23d aba1 7e3d 7a82 2a3d 8ae2 24bd
00000320: ca75 5c3d 349f af3c 8588 c4bd 1012 4fbd
00000330: 3e27 53bd a841 6ebb 6915 e3bd 7ab9 d53c
00000340: 5ade 933d 71dd 0dbd 96c5 d43d 3468 583b
00000350: e37a c8bd fdec 473d e56d 59bc 89d8 3fbd
00000360: 3d7f 9cbc 7edb 823d 96ca 18bc d8f9 9bbd
00000370: cbb5 5bbd 0a1b 67bd 3284 a5bb b27c d4bd
00000380: f3b9 cb3c 59b6 32bd 7cfe d83c 9d26 a0bd
00000390: 1867 6ebc 4ad0 adbd def6 cebd 220d 9e3b
000003a0: cc2a d7bc b513 5a3c 667b 50bd b6b3 c8bc
000003b0: 640a 06bb fa4f 56bc f3e3 a63c c580 883d
000003c0: c5bb 44bd c3dd 853d e216 4a3d d223 82bd
000003d0: eebd 81bd bf92 e13d 091c 193d 36f1 323d
000003e0: b7b1 6abd 748b b33d c59a c1ba 2ceb ffbc
000003f0: 9d2f 193d 3bbe 26bd ec5c 8abd 1962 87bc

weight f4 [256]
1.0466006 1.0634276 1.0378948 1.0929582 1.0383701 1.0599673 1.0525143 1.031054
1.0419705 1.0549613 1.0555809 1.015567 1.041995 1.0512269 1.0575488 1.0667471
1.0686034 1.0501242 1.0538887 1.0348092 1.0102593 1.0321445 1.0668286 1.0562699
1.0451235 1.0416297 1.0630648 1.0493708 1.0688367 1.070855 1.0446098 1.0606726
1.0223107 1.0331969 1.0519905 1.0469158 1.037236 1.0416558 1.0465919 1.0465747
1.0512221 1.0369947 1.0445812 1.026926 1.0446262 1.0255132 1.0085055 1.0500109
1.0485923 1.0327243 1.0458913 1.0426791 1.0330104 1.0278313 1.0513191 1.0360577
1.0306466 1.0730599 1.0364754 1.0545152 1.0536216 1.0702122 1.0399859 1.0372995
1.0436827 1.0504713 1.0461159 1.0308856 1.0484797 1.0542209 1.0655257 1.0417225
1.0336667 1.0392741 1.0348103 1.0382295 1.0525525 1.0507278 1.0566661 1.007861
1.0313165 1.040465 1.0396847 1.0350956 1.0298465 1.0336896 1.0579118 1.0641655
1.0289971 1.0646967 1.0492225 1.0376947 1.0234023 1.0579622 1.0225396 1.0623596
1.0377321 1.0434117 1.0532326 1.0595315 1.0562221 1.041181 1.056742 1.0399425
1.0389564 1.0597018 1.0456164 1.0607754 1.0364867 1.0539712 1.0393889 1.0486268
1.0332289 1.061343 1.0105112 1.0429214 1.0584111 1.009981 1.0462909 1.0408596
1.0674562 1.0452118 1.0499954 1.0525824 1.0368905 1.0426786 1.0660691 1.0488235
1.0558137 1.0502707 1.0395533 1.038024 1.0408504 1.052412 1.0556068 1.0198263
1.0773393 1.0537945 1.0589935 1.0402932 1.0386459 1.0508168 1.0474056 1.0517956
1.0633531 1.058773 1.0842258 1.0584325 1.0729207 1.0699402 1.0500664 1.0464958
1.0473974 1.0499196 1.0535066 1.0201437 1.0176722 1.0244246 1.0428883 1.0539099
1.0054293 1.0329741 1.0402303 1.0484173 1.0541676 1.0445836 1.0361607 1.0464387
1.045397 1.0424924 1.0570351 1.0457577 1.0638406 1.0471286 1.0576802 1.0474074
1.0158839 1.0571737 1.0528052 1.0356561 1.040256 1.0094233 1.0441219 1.0429964
1.0211858 1.0434268 1.0596131 1.0459179 1.0341412 1.0482097 1.0486315 1.0709764
1.018528 1.0653979 1.0253155 1.0789388 1.0244403 1.0346739 1.0361066 1.0463098
1.0652645 1.0067123 1.0596435 1.0487652 1.0427624 1.0623811 1.0456374 1.0586263
1.0476907 1.0539203 1.0494604 1.0325447 1.0524703 1.0623835 1.0753267 1.0472769
1.0462412 1.0459524 1.0294516 1.0347815 1.040621 1.0516329 1.052636 1.053157
1.0553391 1.041978 1.0494286 1.055781 1.0214832 1.034757 1.0516917 1.0520955
1.0436393 1.0527928 1.0391695 1.0347465 1.063679 1.0491097 1.0415894 1.0347788
1.0522214 1.0509403 1.0535948 1.0450107 1.0600342 1.0306742 1.0449322 1.0458235
1.0554408 1.022343 1.0277016 1.0422978 1.0399731 1.0578154 1.058564 1.0549453
00000000: 02f7 853f 651e 883f bdd9 843f 0ee6 8b3f
00000010: 50e9 843f 02ad 873f cab8 863f 94f9 833f
00000020: 4a5f 853f f908 873f 461d 873f 19fe 813f
00000030: 1860 853f 9a8e 863f c25d 873f 2b8b 883f
00000040: ffc7 883f 786a 863f d3e5 863f a174 843f
00000050: 2d50 813f 501d 843f d78d 883f da33 873f
00000060: 9bc6 853f 1f54 853f 8212 883f c851 863f
00000070: a4cf 883f c711 893f c6b5 853f 1fc4 873f
00000080: 14db 823f cc3f 843f a0a7 863f 5601 863f
00000090: 26c4 843f fa54 853f b9f6 853f 29f6 853f
000000a0: 728e 863f 3ebc 843f d6b4 853f 5072 833f
000000b0: 50b6 853f 0444 833f b516 813f c266 863f
000000c0: 4638 863f 4f30 843f c4df 853f 8276 853f
000000d0: af39 843f fa8f 833f a091 863f 8a9d 843f
000000e0: 3aec 833f 075a 893f 3aab 843f 5bfa 863f
000000f0: 13dd 863f b7fc 883f 421e 853f 3bc6 843f
00000100: 6597 853f d875 863f 20e7 853f 0ff4 833f
00000110: 9534 863f b6f0 863f 2563 883f 2a57 853f
00000120: 314f 843f ef06 853f aa74 843f b4e4 843f
00000130: 0aba 863f 407e 863f d640 873f 9701 813f
00000140: 2e02 843f f52d 853f 6314 853f 037e 843f
00000150: 03d2 833f f14f 843f a769 873f 9336 883f
00000160: 2db6 833f fb47 883f ec4c 863f 2ed3 843f
00000170: d9fe 823f 4e6b 873f 94e2 823f 66fb 873f
00000180: 68d4 843f 848e 853f 53d0 863f ba9e 873f
00000190: 4932 873f 6b45 853f 5243 873f d61c 853f
000001a0: 86fc 843f 4fa4 873f c2d6 853f 7dc7 873f
000001b0: 99ab 843f 87e8 863f b20a 853f 6739 863f
000001c0: d840 843f 16da 873f 6e58 813f 737e 853f
000001d0: 047a 873f 0f47 813f dcec 853f e33a 853f
000001e0: 68a2 883f 80c9 853f 4066 863f 05bb 863f
000001f0: d4b8 843f 7e76 853f f474 883f d93f 863f
00000200: e724 873f 456f 863f 1510 853f f8dd 843f
00000210: 963a 853f 70b5 863f 201e 873f ab89 823f
00000220: 41e6 893f bde2 863f 198d 873f 5428 853f
00000230: 59f2 843f 2a81 863f 6311 863f 3da1 863f
00000240: f41b 883f e085 873f e9c7 8a3f b77a 873f
00000250: 7755 893f cdf3 883f 9368 863f 93f3 853f
00000260: 1e11 863f c463 863f 4ed9 863f 1294 823f
00000270: 1543 823f 5820 833f 5d7d 853f 85e6 863f
00000280: e8b1 803f 7f38 843f 4426 853f 8a32 863f
00000290: f7ee 863f eab4 853f eaa0 843f b4f1 853f
000002a0: 92cf 853f 6470 853f ed4c 873f 63db 853f
000002b0: ee2b 883f 4f08 863f 1162 873f 7211 863f
000002c0: 7c08 823f 7851 873f 52c2 863f 6190 843f
000002d0: 1c27 853f c834 813f c9a5 853f e880 853f
000002e0: 37b6 823f 028f 853f 67a1 873f a3e0 853f
000002f0: bd5e 843f bc2b 863f 8f39 863f c115 893f
00000300: 205f 823f f55e 883f 8a3d 833f ab1a 8a3f
00000310: dc20 833f 3270 843f 249f 843f 7bed 853f
00000320: 965a 883f f3db 803f 66a2 873f f03d 863f
00000330: 3d79 853f 1bfc 873f 72d7 853f 1181 873f
00000340: bb1a 863f dce6 863f b854 863f 6d2a 843f
00000350: 59b7 863f 2ffc 873f 4ea4 893f 2b0d 863f
00000360: 3beb 853f c5e1 853f 12c5 833f b873 843f
00000370: 1233 853f e89b 863f c7bc 863f d9cd 863f
00000380: 5a15 873f 895f 853f ad53 863f d523 873f
00000390: f6bf 823f eb72 843f d59d 863f 11ab 863f
000003a0: f995 853f eac1 863f 8203 853f 9372 843f
000003b0: a226 883f 3a49 863f cd52 853f a273 843f
000003c0: 31af 863f 3685 863f 32dc 863f e9c2 853f
000003d0: 33af 873f 22ed 833f 57c0 853f 8bdd 853f
000003e0: af18 873f 23dc 823f ba8b 833f 046a 853f
000003f0: d71d 853f 7f66 873f 067f 873f 7308 873f

bias f4 [256]
0.06710036 0.073561005 0.044175006 0.08081855 0.06989867 0.07824121 0.05540647 0.0481523
0.052884016 0.049738757 0.066398405 0.021896897 0.06797409 0.06696208 0.07043449 0.06238062
0.075398594 0.076283984 0.07339975 0.033833608 0.02112262 0.046173144 0.06588894 0.053812306
0.063675895 0.05727474 0.070562094 0.06213093 0.08101858 0.061916437 0.061380897 0.0641908
0.028291209 0.03344348 0.07130029 0.061600845 0.05475294 0.05126313 0.054378044 0.064026825
0.07788998 0.03305596 0.05720801 0.043243088 0.049006864 0.029921928 0.0154746715 0.06478346
0.055379976 0.033223994 0.07443681 0.054347105 0.026119174 0.03152198 0.06921844 0.06767351
0.035454184 0.055645783 0.04153245 0.07425723 0.06591551 0.06562974 0.06933602 0.05366363
0.052825347 0.065139696 0.06161772 0.03702786 0.07374534 0.05606977 0.07378545 0.044610687
0.034777377 0.04181994 0.05266499 0.042095285 0.06825238 0.06723456 0.06767329 0.050432917
0.056497682 0.04818679 0.0458101 0.02970749 0.047704156 0.04086505 0.07728644 0.07928565
0.02952202 0.07352533 0.05834405 0.03776825 0.023734089 0.07242825 0.032555558 0.082158625
0.038155872 0.045475993 0.060006607 0.051931124 0.07457873 0.063398756 0.05904604 0.058603186
0.03762618 0.061194476 0.05078075 0.07533627 0.028668731 0.06639395 0.063266434 0.07522523
0.051869173 0.06189147 0.036807705 0.08430095 0.090261966 0.023008574 0.0673804 0.057063054
0.08067831 0.07034473 0.06526024 0.070100546 0.05130903 0.07271716 0.072700605 0.047210015
0.06835153 0.056224972 0.034900513 0.05752564 0.041949518 0.057129107 0.07224145 0.011357601
0.07040419 0.052603845 0.072773054 0.049005315 0.06659102 0.0624053 0.06504716 0.06841336
0.08425688 0.07670274 0.08235173 0.072792865 0.06493402 0.080296524 0.07881916 0.062295478
0.06262338 0.052448627 0.07607244 0.024467586 0.038726643 0.03361984 0.052322876 0.07248546
0.025971556 0.03909175 0.04697346 0.059772678 0.07004925 0.07644198 0.042494517 0.06738883
0.05216928 0.059204265 0.061353438 0.06578456 0.09491447 0.060495004 0.078590855 0.062271714
0.028402483 0.07326759 0.067125745 0.058310315 0.04222603 0.0062614656 0.059568528 0.051693626
0.029256092 0.04952496 0.07581807 0.061982173 0.034432895 0.06693633 0.06353263 0.07798993
0.019813728 0.053897556 0.031170646 0.06689085 0.04274136 0.033826347 0.08403718 0.056414034
0.0574644 0.020413155 0.075465344 0.07441997 0.06285239 0.080710515 0.079384334 0.07854931
0.06307768 0.048390076 0.052897014 0.042400397 0.06380792 0.08517779 0.08405427 0.06766352
0.069513805 0.06521643 0.038634695 0.0814833 0.05078269 0.065124296 0.061397474 0.05912538
0.054870676 0.05554909 0.059896354 0.062216856 0.0155784665 0.052797265 0.065406986 0.052791536
0.06374039 0.08566576 0.040899996 0.03427704 0.06772531 0.0745843 0.049604397 0.036080815
0.07314462 0.07323766 0.07633801 0.049637865 0.07688398 0.037075095 0.05699752 0.06626006
0.070735216 0.026493577 0.020157298 0.04344633 0.0692573 0.07073756 0.05767989 0.060633708
00000000: ea6b 893d 27a7 963d daf0 343d 3284 a53d
00000010: 0927 8f3d ed3c a03d e5f1 623d 593b 453d
00000020: e99c 583d deba 4b3d e3fb 873d 1f61 b33c
00000030: 0036 8b3d 6a23 893d f53f 903d d282 7f3d
00000040: 946a 9a3d c73a 9c3d 9c52 963d 1c95 0a3d
00000050: 5809 ad3c 0d20 3d3d c8f0 863d 4b6a 5c3d
00000060: 8268 823d eb98 6a3d dc82 903d 017d 7e3d
00000070: 12ed a53d 179c 7d3d 896a 7b3d 7776 833d
00000080: f7c2 e73c 08fc 083d e305 923d 2b51 7c3d
00000090: 9e44 603d 4af9 513d 83bb 5e3d 7f20 833d
000000a0: c884 9f3d b065 073d f252 6a3d aa1f 313d
000000b0: 6cbb 483d d51e f53c 7a89 7d3c 31ad 843d
000000c0: 1dd6 623d e215 083d 5472 983d 129b 5e3d
000000d0: e1f7 d53c 311d 013d 66c2 8d3d 6998 8a3d
000000e0: 6838 113d d5ec 633d ee1d 2a3d 2d14 983d
000000f0: b6fe 863d e368 863d 0b00 8e3d 65ce 5b3d
00000100: 645f 583d f667 853d dd62 7c3d 86aa 173d
00000110: cc07 973d 6aa9 653d d31c 973d b2b9 363d
00000120: b972 0e3d 634b 2b3d 3fb7 573d 1b6c 2c3d
00000130: e7c7 8b3d 46b2 893d 4b98 8a3d bf92 4e3d
00000140: 1d6a 673d 835f 453d 5fa3 3b3d 1f5d f33c
00000150: 6f65 433d 1c62 273d 5a48 9e3d 8460 a23d
00000160: 2ad8 f13c 7394 963d 2cfa 6e3d e1b2 1a3d
00000170: fe6d c23c 4355 943d fa58 053d c842 a83d
00000180: 5549 1c3d 0945 3a3d 7dc9 753d bbb5 543d
00000190: bcbc 983d 35d7 813d 43da 713d e509 703d
000001a0: e91d 1a3d 0fa7 7a3d 7aff 4f3d e749 9a3d
000001b0: b0da ea3c 8df9 873d d591 813d af0f 9a3d
000001c0: c574 543d e981 7d3d adc3 163d faa5 ac3d
000001d0: 44db b83d 7a7c bc3c bcfe 893d f3ba 693d
000001e0: ab3a a53d e610 903d 29a7 853d e090 8f3d
000001f0: 6b29 523d bcec 943d 0ee4 943d 4a5f 413d
00000200: e3fb 8b3d 284c 663d d7f3 0e3d 01a0 6b3d
00000210: 42d3 2b3d 3600 6a3d 53f3 933d 3b15 3a3c
00000220: 1230 903d 2177 573d 0a0a 953d ccb9 483d
00000230: df60 883d b39c 7f3d 7237 853d 4e1c 8c3d
00000240: df8e ac3d 5316 9d3d 06a8 a83d 6d14 953d
00000250: 21fc 843d 8172 a43d f16b a13d 8b29 7f3d
00000260: b040 803d 5fd4 563d decb 9b3d 3f70 c83c
00000270: d49f 1e3d f5b4 093d 8350 563d 4273 943d
00000280: 4dc2 d43c ac1e 203d 3e67 403d 32d4 743d
00000290: fb75 8f3d 9d8d 9c3d bb0e 2e3d 2803 8a3d
000002a0: 74af 553d 2c80 723d be4d 7b3d 0eba 863d
000002b0: 8562 c23d 9cc9 773d 3ef4 a03d a010 7f3d
000002c0: 53ac e83c 510d 963d 3979 893d ccd6 6e3d
000002d0: 34f5 2c3d fb2c cd3b 21fe 733d b2bc 533d
000002e0: 79aa ef3c afda 4a3d 8146 9b3d 05e1 7d3d
000002f0: 8209 0d3d ea15 893d 651d 823d 2fb9 9f3d
00000300: 6650 a23c afc3 5c3d 9559 ff3c 12fe 883d
00000310: 9011 2f3d 7f8d 0a3d af1b ac3d 6712 673d
00000320: ca5f 6b3d 7d39 a73c 938d 9a3d 7f69 983d
00000330: c1b8 803d 8e4b a53d 4194 a23d 76de a03d
00000340: df2e 813d ac34 463d 8aaa 583d 0aac 2d3d
00000350: baad 823d b171 ae3d a524 ac3d 2c93 8a3d
00000360: 415d 8e3d 3190 853d 6a3f 1e3d b7e0 a63d
00000370: 8301 503d e35f 853d eb7b 7b3d 742d 723d
00000380: 13c0 603d 7187 633d e155 753d 1ad7 7e3d
00000390: d33c 7f3c f241 583d 19f4 853d f03b 583d
000003a0: 528a 823d 8871 af3d c186 273d 1566 0c3d
000003b0: 91b3 8a3d a7bf 983d fb2d 4b3d 7ac9 133d
000003c0: d9cc 953d a0fd 953d 1a57 9c3d 1351 4b3d
000003d0: 5975 9d3d 0edc 173d 3b76 693d 5bb3 873d
000003e0: a0dd 903d 0f09 d93c eb20 a53c c7f4 313d
000003f0: c5d6 8d3d dbde 903d c041 6c3d 0d5b 783d
