checkpoints/best_model_2.pt (torch, 864272 bytes, 20 tensors)

weight f4 [64, 3, 1]
000000 41 58 6e be 0b 8d 80 be cb f2 b1 be d5 30 f8 be
       -0.23275854 -0.25107607 -0.3475555 -0.48474756
000010 9f 58 3e 3d 83 5f ed 3d aa dc 60 be f8 b1 df 3e
       0.046471234 0.11590483 -0.21959177 0.43690467
000020 88 96 09 3f 5f 5d a0 3e 93 83 50 be 50 cf e5 be
       0.5374532 0.31321236 -0.20362692 -0.4488473
000030 b7 0a 9e be 14 23 c7 3d 64 53 a5 3d cd 8f a6 3e
       -0.3086755 0.097234875 0.08072546 0.32531586
000040 29 63 b9 3e 4f 92 dd 3e ae 90 14 3f 16 c7 fd bd
       0.36208466 0.43275687 0.58033264 -0.12391488
000050 77 4b 87 3e 6a 81 9c 3e 75 93 82 3e 4f d7 81 3e
       0.26424763 0.30567485 0.25503126 0.2535958
000060 69 f3 0a 3f 9e 02 8f 3e e2 24 b2 bd b6 8a cc bd
       0.54277664 0.27931684 -0.08698441 -0.099873945
000070 e0 0a 4a 38 52 ce 1f 3f 04 35 13 3f 33 d9 00 3f
       4.817068e-05 0.62424195 0.5750277 0.5033142
000080 bf 07 53 3e 9e 2b 01 bf 23 d8 99 3e ba e9 f9 be
       0.20608424 -0.5045718 0.30047712 -0.48811132
000090 c3 ee 2a 3e a4 ee a3 be 8a e7 94 be c7 a5 a1 be
       0.16692643 -0.32018006 -0.290829 -0.3157179
0000a0 a8 c9 26 3e 25 b6 66 3e 30 a4 de 3e 38 07 18 be
       0.16287863 0.2253042 0.4348464 -0.14846504
0000b0 fe 57 ca be 30 2e 09 bd fc 04 6c be 24 bb 44 3e
       -0.39520258 -0.033491313 -0.23048776 0.19212013
0000c0 cb 31 ca 3e 1c 2c 9a 3e d6 ef 04 3e 7d bd da be
       0.39491114 0.30111778 0.12982115 -0.42722693
0000d0 45 87 a2 3d fb bb 04 bd c8 f4 1e 3c f9 73 ce be
       0.07935957 -0.032405835 0.009701915 -0.40322855
0000e0 4a fd 97 be 4c 05 fd 3d 20 73 1b 3f e0 f7 bd 3e
       -0.29685432 0.12354526 0.6072254 0.37103176
0000f0 47 34 df be a1 e0 ec be 04 25 ad be 83 1f bb 3e
       -0.43594572 -0.46265128 -0.33817303 0.3654748
000100 49 af 7b 3e 8f 6b 0c 3f 92 20 29 3d 5e 4e 0f bf
       0.24578585 0.5485162 0.041290827 -0.55978954
000110 23 b6 04 bf 25 d1 41 3e 5b cd 28 be 82 f6 aa 3e
       -0.5184042 0.18927439 -0.16484587 0.33391196
000120 da c5 02 3f 00 ac 3d 3e 65 3f bb 3e 29 bb 71 3e
       0.5108315 0.18522644 0.36571804 0.23606552
000130 1b 56 f2 3e 8a dd 31 be 4e 39 0d be 0e 07 67 3e
       0.47331318 -0.17369667 -0.13791391 0.22561285
000140 1b c9 74 be 03 cd 0b bf 11 4c ee 3d f1 70 ed 3d
       -0.2390484 -0.546097 0.11635602 0.115938075
000150 ab 51 a6 be 41 1c b2 bd fb b4 c7 3c 12 a4 46 3e
       -0.32484183 -0.08696795 0.02437829 0.19398525
000160 1d f1 01 bf 9e f8 72 3c da a1 82 3e 5a 25 af be
       -0.50758535 0.014829783 0.25514108 -0.34208184
000170 6c 1e 00 3e af 92 a6 3e ee 4c c0 be 12 15 63 be
       0.12511605 0.32533786 -0.37558693 -0.22176006
000180 59 3c a8 3e f8 e9 a9 be bd 6f bd 3e fb 2b 06 bf
       0.32858542 -0.33186316 0.36999312 -0.5241086
000190 ce f5 c4 be c3 43 94 3e fe 94 72 be 02 15 00 3f
       -0.38468784 0.28957948 -0.23689649 0.50032055
0001a0 3f a8 86 3e d9 de c9 be 22 b9 1c 3e 82 10 16 bf
       0.26300237 -0.39427832 0.15304998 -0.5861894
0001b0 d5 01 85 be 92 56 0a bf 60 92 9f bd 3f 25 74 3d
       -0.2597796 -0.54038346 -0.07791591 0.059605833
0001c0 cf 5e b7 3e 96 de bd be 4f ad 2b be ca 7e fd 3d
       0.3581452 -0.37083882 -0.1676533 0.12377699
0001d0 51 f6 f6 be e8 7d b0 3e 33 2f 39 3e c8 62 13 3d
       -0.482348 0.3447106 0.18084411 0.035982877
0001e0 1d 90 10 3f 00 59 cc be ff 04 4c 3e 46 4b d3 be
       0.564699 -0.39911652 0.19923781 -0.41268367
0001f0 77 6f c5 3e 93 cc 3b bd 80 66 9d 3e c5 9f b2 be
       0.38561603 -0.045849394 0.30742264 -0.3488752
000200 31 65 d4 3e 5d 09 07 be 6d eb b7 be b8 63 bf 3e
       0.41483453 -0.13187166 -0.35921803 0.37380767
000210 9e c6 0a 3d f2 c6 a7 be 35 43 0c 3f 55 ea ae 3d
       0.033880822 -0.3276897 0.5479005 0.08540789
000220 3f 34 09 be d9 c2 12 bd dd a9 05 3e 9a 2f 7e 3e
       -0.13398837 -0.035830352 0.13053079 0.24822846
000230 02 c3 00 bf d1 af 2b be 0b 8f b3 3e dd ba c5 be
       -0.5029756 -0.16766287 0.3507007 -0.38619128
000240 95 4f 0a bf b2 5a e4 be 9f fb 15 3f 3f a0 29 be
       -0.5402768 -0.44600445 0.5858707 -0.16565035
000250 80 56 6a 3c 37 73 30 be 0b 59 be 3b c2 39 c5 be
       0.01430285 -0.17231451 0.0058089546 -0.38520628
000260 4c 5a 13 be 7e f6 d2 bd 8d 6e da bd 89 46 a4 be
       -0.14389914 -0.10300921 -0.10665617 -0.32085064
000270 4a 0b 8d 3e 63 8f d8 be e0 f3 dc 3d e9 60 dd 3e
       0.27547675 -0.42296895 0.10788703 0.43238
000280 ab 17 d4 bd de bc c8 be 53 33 93 bd 35 ea a0 be
       -0.10356077 -0.39206594 -0.07187524 -0.31428686
000290 80 ec 50 3e c8 fd dc be 66 44 01 3f d1 b3 0e 3e
       0.20402718 -0.4316237 0.5049499 0.13935782
0002a0 db 66 6c 3d 58 0e d9 be 93 a1 09 3f 5e b6 bf be
       0.057715278 -0.42393756 0.5376217 -0.37443823
0002b0 08 e1 b5 3e a1 ac d6 be ba dc 03 3f 0c 35 28 3d
       0.35523248 -0.4192858 0.51508677 0.041066214
0002c0 8c e2 95 be 64 a3 5a 3e 77 1d de be 97 a7 e8 bd
       -0.29274404 0.21351391 -0.43381855 -0.1136009
0002d0 f5 fc e0 3e e8 9e 0d bd 93 5f bd be d4 59 1a 3e
       0.4394299 -0.034575373 -0.3698698 0.15073329
0002e0 9f a3 84 3e 90 c0 c4 be 02 ff 6c be cd eb a4 3e
       0.25906083 -0.38428164 -0.23144153 0.32211152
0002f0 d1 90 74 bd b9 02 4d bd 84 85 35 3e 85 6c 0a be
       -0.05970842 -0.050051425 0.17726713 -0.1351796

weight f4 [64]
000000 d2 0c 81 3f 1a ae 7c 3f 31 cc 7f 3f 35 c9 7c 3f
       1.0082037 0.9870316 0.99920946 0.9874452
000010 1f 31 7d 3f 87 a8 7e 3f 90 64 7d 3f 1a 0d 80 3f
       0.9890308 0.994759 0.9898157 1.0003998
000020 55 7c 7d 3f 4a d2 84 3f dd e0 7e 3f 61 e2 80 3f
       0.9901784 1.0376675 0.99561864 1.0069085
000030 4b c8 80 3f a7 91 7b 3f 63 68 7c 3f a7 38 7e 3f
       1.0061125 0.9826912 0.9859678 0.99305195
000040 f7 21 7f 3f d1 13 81 3f f3 89 81 3f ee d3 7e 3f
       0.996612 1.0084172 1.0120224 0.9954213
000050 c6 89 7b 3f d4 2d 7e 3f 82 77 80 3f 94 a2 80 3f
       0.982571 0.9928868 1.0036471 1.0049615
000060 41 8d 7e 3f 46 0e 7e 3f 42 87 80 3f a1 b4 7a 3f
       0.99434286 0.9924053 1.0041277 0.9793187
000070 af 33 80 3f 5d f0 7f 3f 89 c0 7d 3f 90 3d 81 3f
       1.0015773 0.9997614 0.9912191 1.0096912
000080 4f 7b 7f 3f fa b0 80 3f 62 69 7e 3f e0 ac 7e 3f
       0.9979753 1.0054009 0.9937955 0.99482536
000090 c0 22 7f 3f a7 8c 7f 3f 68 62 81 3f 26 91 7d 3f
       0.996624 0.99823993 1.0108156 0.99049604
0000a0 12 31 80 3f 97 75 80 3f 7f df 7e 3f 39 32 81 3f
       1.0014975 1.0035886 0.9955978 1.0093452
0000b0 d6 a4 81 3f 7a dd 7e 3f 6a 72 80 3f ed 3b 80 3f
       1.0128429 0.99556696 1.0034916 1.0018288
0000c0 06 54 81 3f b7 c9 7e 3f 11 f6 81 3f 03 8d 7c 3f
       1.0103767 0.9952654 1.0153219 0.98652667
0000d0 f7 28 81 3f 51 a7 81 3f 97 0f 80 3f 07 dc 7e 3f
       1.0090626 1.0129186 1.0004758 0.99554485
0000e0 77 92 80 3f d4 0f 80 3f 00 19 81 3f af 50 7f 3f
       1.0044698 1.000483 1.0085754 0.9973249
0000f0 9c a3 7c 3f 80 f0 7e 3f 2f e8 7f 3f 1f 08 80 3f
       0.9868715 0.99585724 0.9996366 1.0002478

bias f4 [64]
000000 82 c3 aa 39 9e 77 c3 ba 7a 1a 10 bc 3c a4 28 bc
       0.0003257059 -0.0014912968 -0.008795375 -0.010293063
000010 9d 75 a7 bc a3 60 53 bc 5e 71 74 bb eb 05 1c bb
       -0.020441825 -0.012901458 -0.0037299017 -0.0023807238
000020 f2 ad 8f bc 37 d0 09 3c e4 7a e3 3b dc d7 46 3c
       -0.017538998 0.008411459 0.00694214 0.012136426
000030 68 c1 b5 3c 27 ea 7b bc 06 76 b3 bc 79 8e 31 bc
       0.02218695 -0.0153756505 -0.021906864 -0.010837191
000040 ba 37 30 3c ab 7c ed 3b b6 e5 64 38 06 cd 9e 3b
       0.010755474 0.0072475276 5.457337e-05 0.004846218
000050 92 90 23 bc 20 0b 12 bc 74 b6 86 3b 71 ca fd 3b
       -0.009983199 -0.008913785 0.0041111056 0.00774508
000060 e1 e3 89 bc 5b 17 98 bc 89 be cd 3c 29 2d c5 bb
       -0.016832294 -0.018565824 0.025115268 -0.0060173464
000070 a2 68 bb 39 65 80 89 3c 7c 17 f6 3a fb 99 37 bc
       0.00035745377 0.016784856 0.001877531 -0.011206145
000080 f9 12 e8 3b 05 6a 9c 3c 01 db 06 bc 21 ab 18 3c
       0.00708234 0.019093523 -0.008230926 0.009318144
000090 1c d3 a4 bc 77 fb 69 3c ee c9 b2 3c 8c 8b ec ba
       -0.020120196 0.014281145 0.021824803 -0.0018046959
0000a0 b4 d7 7f 3c a0 51 7f 3c c8 d9 9a bc 26 ae 30 3b
       0.0156153925 0.015583426 -0.018902674 0.002695927
0000b0 59 e3 87 3c e7 3b 31 3c 8b 63 f6 3b 12 00 5a 3c
       0.0165879 0.0108175045 0.0075191907 0.013305681
0000c0 de 20 4b bb 4b 88 7d 3c a8 60 57 bb 3f be 67 bc
       -0.0030994932 0.015474389 -0.0032864008 -0.014144479
0000d0 34 ca 7f bb b3 85 23 3c 18 b3 42 bc f1 01 33 bc
       -0.0039030435 0.009980607 -0.01188352 -0.010925756
0000e0 e4 7c dc ba ec d3 63 bb e2 5f 9b 3c a2 f0 9c bc
       -0.0016821888 -0.0034763766 0.018966619 -0.019157711
0000f0 87 ee ea bb e9 74 bf bb 03 a2 43 3c 05 76 53 3c
       -0.007169548 -0.005842794 0.011940482 0.012906556

running_mean f4 [64]
000000 88 ac a0 c6 7f 6c 6e 45 df 27 0c 47 fb 8a 82 c6
       -20566.266 3814.781 35879.87 -16709.49
000010 c9 10 f9 45 47 30 e8 46 22 d6 1c c6 80 06 a3 46
       7970.098 29720.139 -10037.533 20867.25
000020 b2 4d b2 46 9c da 97 42 a9 77 20 47 5d f7 be 46
       22822.848 75.92697 41079.66 24443.682
000030 de 99 cc c6 c4 bc 50 46 c9 6d 3e c6 33 b1 92 c6
       -26188.934 13359.191 -12187.446 -18776.6
000040 27 4b c0 46 54 bb c9 45 85 b1 00 c7 7d b5 41 47
       24613.576 6455.416 -32945.52 49589.49
000050 34 cc 13 c7 e0 a4 9d 46 a0 dd 32 c7 5a e1 50 c6
       -37836.203 20178.438 -45789.625 -13368.338
000060 54 79 6d 46 c7 af 16 47 0a 40 8f 46 ba 59 15 46
       15198.332 38575.777 18336.02 9558.432
000070 4b f5 dd c5 f2 ce 21 c7 ef f3 d9 c6 00 7c ef c6
       -7102.6616 -41422.945 -27897.967 -30654.0
000080 57 f6 d2 c6 4a 0e f5 c6 6b be 1f 47 3e 28 41 46
       -27003.17 -31367.145 40894.418 12362.061
000090 6e 70 2c c7 78 11 e4 46 4b b6 1c 46 34 e4 66 46
       -44144.43 29192.734 10029.573 14777.051
0000a0 2a 2c fe c6 7c c3 f5 46 b2 bb dd c6 1a 91 e4 c6
       -32534.082 31457.742 -28381.848 -29256.55
0000b0 eb 33 d0 c6 a6 21 2b c6 06 f9 9d 46 bb ce de 46
       -26649.959 -10952.412 20220.512 28519.365
0000c0 2d dd 0d c7 51 ed 21 44 8a a4 f5 c6 06 1b 09 c6
       -36317.176 647.70807 -31442.27 -8774.756
0000d0 18 bd 06 c7 2c 1b 05 c6 97 6d c8 c6 ed 32 21 47
       -34493.094 -8518.793 -25654.795 41266.926
0000e0 fd c1 06 c7 c9 6e e1 46 76 b6 4f 45 ec 4c 0a c7
       -34497.99 28855.393 3323.4038 -35404.92
0000f0 9f 08 33 c5 44 b7 a4 46 d1 44 cd 46 20 b3 64 46
       -2864.5388 21083.633 26274.408 14636.781

running_var f4 [64]
000000 33 0d 2b 4d db b0 bc 4a 14 3c 02 4e 23 95 e1 4c
       1.7936056e+08 6.1830215e+06 5.4624384e+08 1.1827023e+08
000010 0d b4 cd 4b 2e bc b2 4d 02 c8 23 4c 5b 35 30 4d
       2.6961946e+07 3.7483462e+08 4.293428e+07 1.8476792e+08
000020 c5 2e 53 4d a1 0d 88 46 c1 ce 2a 4e d0 9a 72 4d
       2.214411e+08 17414.814 7.1641914e+08 2.543895e+08
000030 f1 bf 8a 4d 30 5b 90 4c 4e d1 6f 4c dd fa 0e 4d
       2.9097936e+08 7.568422e+07 6.2866744e+07 1.4992533e+08
000040 f7 59 75 4d 1d 2b 87 4b 66 9d db 4d 9a ce 78 4e
       2.5726962e+08 1.7716794e+07 4.605657e+08 1.04357235e+09
000050 d6 da 10 4e b3 81 24 4d e9 14 54 4e 69 2e 91 4c
       6.075652e+08 1.7249771e+08 8.8953504e+08 7.611681e+07
000060 4b bf ba 4c e1 c6 16 4e 8b 58 08 4d 87 04 14 4c
       9.7909336e+07 6.3240403e+08 1.4296901e+08 3.8801948e+07
000070 85 a9 a3 4b d3 c6 2d 4e 6e b8 9d 4d ad 29 be 4d
       2.145153e+07 7.288721e+08 3.307637e+08 3.988003e+08
000080 a3 e8 93 4d b1 88 c7 4d b6 3d 29 4e 7e fb 78 4c
       3.101871e+08 4.1845302e+08 7.0984845e+08 6.526924e+07
000090 74 55 45 4e 5a e4 ac 4d 05 f2 23 4c 9a fb b0 4c
       8.2767795e+08 3.625808e+08 4.29773e+07 9.278997e+07
0000a0 6a 8b d6 4d 5c 71 c8 4d 57 67 a3 4d 53 9e ad 4d
       4.499326e+08 4.2035904e+08 3.4268234e+08 3.641043e+08
0000b0 85 30 90 4d 5b 53 42 4c 58 2e 26 4d b5 f4 a4 4d
       3.0238736e+08 5.0941292e+07 1.7425344e+08 3.4593757e+08
0000c0 18 d3 05 4e d1 b6 57 48 b2 1e c8 4d 6b 9c f8 4b
       5.61301e+08 220891.27 4.1968186e+08 3.2585942e+07
0000d0 6e 0e f1 4d ea 1d ea 4b 58 73 85 4d 40 6a 2c 4e
       5.0553184e+08 3.0686164e+07 2.798661e+08 7.231611e+08
0000e0 eb 75 f1 4d fb dc a8 4d 98 92 91 4a 6f c7 fd 4d
       5.0637962e+08 3.541318e+08 4.770124e+06 5.3221322e+08
0000f0 58 92 52 4a f0 76 34 4d 6d d8 8b 4d 25 29 ae 4c
       3.450006e+06 1.8923085e+08 2.932771e+08 9.1310376e+07

weight f4 [128, 64, 1]
000000 f7 82 74 3d 38 ee cc 3d 10 a0 f7 3d 16 20 52 3d
       0.05969521 0.10006374 0.120910764 0.05130013
000010 a6 4b 67 bb a2 79 23 3d 5c de 9f bd 7c ba a9 3d
       -0.0035292893 0.03991092 -0.078060836 0.08287522
000020 ea b6 a0 3c f0 44 7b 3d 39 9f ac bd d8 7e 65 bd
       0.01961847 0.06134504 -0.08428807 -0.05602917
000030 83 67 1b bd 88 24 03 3e 58 9e 7c 3d ed 6b f1 bd
       -0.037940513 0.12806904 0.061674446 -0.11788163
000040 93 e4 d2 3d fd 97 9a 3c 77 e9 34 bc ef fb 9d 3d
       0.10297503 0.018871302 -0.0110419905 0.07714068
000050 c6 d4 74 bd a3 6a 37 3d d8 eb 14 be f5 63 30 bd
       -0.05977323 0.04477943 -0.14543092 -0.043064076
000060 8a 47 e3 3d b5 42 92 3d aa 43 9b 3d 4a ba b9 bc
       0.11097629 0.071416296 0.07581265 -0.022671837
000070 83 97 02 3d 5c 6f 4c bd b8 17 23 be 2e a8 6f 3d
       0.031882774 -0.049910888 -0.15927017 0.058509998
000080 d3 9f 38 bc 05 e4 09 3d 58 7f 03 3e 1a 0e 81 3d
       -0.011268574 0.033664722 0.12841547 0.06301518
000090 0f 3e d8 bb c1 a5 51 3d 56 31 92 3d bd a8 c4 bd
       -0.006599195 0.051183466 0.07138316 -0.09602497
0000a0 03 8b 20 bc d7 99 80 3c 92 6a f3 bd 1c 48 90 3d
       -0.009798768 0.015698357 -0.11885561 0.07045004
0000b0 59 7b ba bd 23 7d 19 3d 8d b5 c6 bd f1 4c 8b bc
       -0.09105558 0.037472855 -0.09702597 -0.017004462
0000c0 6e ca 39 3d 47 19 d7 3d f7 1e 2d be 81 c6 0d 3d
       0.045359068 0.10502868 -0.16906343 0.034613136
0000d0 3f 4f c7 bb 42 a1 20 3d 0b 7e a3 bc 23 73 35 bd
       -0.006082445 0.039216287 -0.019957563 -0.044299256
0000e0 70 53 ed bd 1f 26 33 3d 6b 50 1a 3e be a7 dc 3b
       -0.1158818 0.043737527 0.1506974 0.0067338636
0000f0 cd 71 7b 3d 74 9d a3 bd 5d d0 b0 bc 80 74 68 b7
       0.061387826 -0.07989016 -0.02158373 -1.3855402e-05
000100 be 29 c2 bd 6a 86 25 bd 5f 7a 37 bd 29 d1 9f bc
       -0.09480618 -0.04041139 -0.044794437 -0.019508915
000110 cb 27 02 bc 3f 5d ec 3d ed 7c 89 bc bb 84 bd bd
       -0.007944058 0.11541223 -0.016783202 -0.09253832
000120 1a e9 ba bd c6 67 c3 bb ae 52 b0 3d c8 10 f0 bd
       -0.09126492 -0.0059632985 0.0860952 -0.11721951
000130 04 bf c8 3d 21 e9 af 3c 0c aa 16 3d c7 91 9e 3d
       0.09802058 0.02147347 0.036783263 0.077426486
000140 a1 e2 a7 3d 3d ba 71 3a c4 75 ad 3d c4 b4 f9 bd
       0.08197523 0.0009221172 0.08469728 -0.121926814
000150 dd 1f 3f 3d a1 3e 70 3d 7f b2 0c be 75 43 92 3d
       0.046661247 0.058653478 -0.13739966 0.07141773
000160 fb a5 ba 3c 8e 5d e4 bc 5b 8c da 3d cd 22 30 bc
       0.022784224 -0.027876642 0.10671302 -0.010750485
000170 79 ac af bd 2f ad 94 bd 69 b8 85 3d 37 a3 09 be
       -0.085778184 -0.07259595 0.06529314 -0.13441168
000180 68 74 c5 bd 41 e9 ca bd 39 b0 4f bb 35 3a a5 3d
       -0.09641343 -0.09907771 -0.003169073 0.08067743
000190 34 29 07 be 47 48 d1 3c f2 54 80 3d 7e 32 ea 3d
       -0.13199311 0.02554716 0.06266202 0.11435412
0001a0 4b 83 c6 bb 72 b6 d2 3d 8e 12 82 3d 1d 3c 3e bd
       -0.006058132 0.10288705 0.06351195 -0.046444047
0001b0 83 a4 d0 bd 3b ed 30 3b 05 d0 e4 3d b9 fb 19 bd
       -0.10187628 0.002699687 0.11172489 -0.037593577
0001c0 5e a3 2a 3d 2c 73 16 3d 1f b2 40 bd 24 30 a7 3d
       0.041659705 0.03673093 -0.04704487 0.08163479
0001d0 77 4f 3f bd ff 5d 0c bd 8c 60 9b bd 75 f5 3c bd
       -0.046706643 -0.03426933 -0.07586774 -0.046132524
0001e0 7e a1 a9 3d 25 90 ea bd ed 10 24 bd 20 d2 50 bd
       0.08282755 -0.11453275 -0.040055204 -0.05098164
0001f0 e1 f7 f7 bd 36 da 9a bd 5a 95 f4 bd 12 eb cb bd
       -0.12107826 -0.07561152 -0.11942549 -0.099569455
000200 ed 5f 06 be 31 d7 69 bc 8f 63 0a 3d 27 0d 84 bd
       -0.1312253 -0.014272497 0.033786353 -0.06447821
000210 ed 0c 51 3c fd 9b ab 3d 8e 3a 19 3d ff b6 56 3d
       0.012759429 0.08379362 0.037409358 0.052420612
000220 04 25 f8 3d fb e3 af bd cb ee b4 bd 1f 22 de bc
       0.12116435 -0.08588406 -0.08834609 -0.02711588
000230 1c 94 85 3c bd e1 37 3c e8 3e 12 3d 32 3a d1 bd
       0.016305976 0.011223254 0.035704523 -0.10216178
000240 66 6a d5 3d ed 10 b8 3d a5 a3 52 bd f0 33 ae bd
       0.104206845 0.08987603 -0.051425595 -0.08506
000250 33 7c a6 3d 5f 6e 2c 3d a5 b6 e3 3c 9a 1d 89 3d
       0.08129158 0.042097446 0.027797053 0.06695099
000260 18 58 e4 3d 9b 5c 0e 3e 86 69 f8 3c 7c df 74 bd
       0.11149615 0.13902514 0.030323755 -0.059783444
000270 6b 08 94 3c 73 af a0 bd 4b c0 69 bd c5 8e 42 bd
       0.01807042 -0.07845964 -0.05706815 -0.047499437
000280 b2 9b ab 3d 57 ec c3 bd 33 e7 b9 bd 3f 5f 38 bd
       0.08379306 -0.095665626 -0.09077301 -0.04501271
000290 6a 1f 10 be 46 df bf 3d a7 34 e5 3d 64 d1 e4 3d
       -0.14074484 0.09368758 0.11191683 0.111727506
0002a0 eb 82 8a 3d f2 fa 76 bd 28 e8 d8 bc 4a 62 82 bd
       0.06763252 -0.060297914 -0.026477888 -0.063664034
0002b0 95 58 89 bd bc d0 70 bb 17 5b 91 3d 0b f3 9c bb
       -0.06706349 -0.003674551 0.07097452 -0.004789715
0002c0 eb 0a 5c bd 16 6b 0d 3e 77 cf a7 3d 84 56 d3 3c
       -0.05372135 0.13810381 0.08193868 0.02579809
0002d0 27 b1 ce bc 49 25 a4 3b ba 2a 6b bd cc 96 08 3e
       -0.025230957 0.0050093275 -0.057413794 0.13338774
0002e0 4c 55 c5 3d 3c bc bf 3d 0c 51 87 3d fa 6d 3a 3d
       0.0963541 0.09362075 0.06607255 0.045515038
0002f0 d0 5c bb 3d 96 d2 bf bd 87 0d 86 3d 06 9a b7 bd
       0.09148562 -0.09366338 0.06545549 -0.089649245
000300 db 25 d4 bd ae 98 7e 3d 16 61 3e bd 6e 67 5c 3d
       -0.10358783 0.062157325 -0.046479307 0.053809576
000310 7d 44 84 3d 68 61 60 3c fa e5 92 3d 97 44 3c ba
       0.064583756 0.013695098 0.07172771 -0.00071818515
000320 c8 56 0b be ce b3 e0 3d ad 65 05 be 48 14 5b bd
       -0.13607323 0.10971795 -0.13027067 -0.05348614
000330 de 6d 8c bd 46 29 dd 3d be a6 d1 ba 33 0e be bd
       -0.06856893 0.10798888 -0.0015995128 -0.09280052
000340 44 f0 79 bd 57 e5 d5 3d d0 35 5c bd 83 a6 c6 3d
       -0.06102015 0.10444134 -0.053762257 0.09699728
000350 ee d3 08 be 23 e9 d0 bd 44 71 f8 bd 00 86 ce bd
       -0.13362095 -0.10200717 -0.12130979 -0.10084152
000360 55 d2 9c 3c b1 22 e3 bc 28 c7 be 3c 2d d0 d3 bc
       0.019143263 -0.027726503 0.023288324 -0.025856102
000370 b3 f7 9a 3d 40 69 1f bd 68 df 77 bd 1c 97 9d 3d
       0.07566776 -0.038918734 -0.06051579 0.076948375
000380 da e2 12 be e9 1f b3 3c 76 34 9f 3d c7 bf 69 3d
       -0.1434435 0.021865802 0.07773678 0.05706766
000390 5b f2 04 3d d7 92 04 bd 89 99 02 be 48 31 f3 bd
       0.03245769 -0.0323666 -0.12753882 -0.11874634
0003a0 ab ae c1 3c b1 31 a0 3d 3c fb d1 bc 83 8c 71 3c
       0.023642858 0.07821978 -0.025632493 0.014742973
0003b0 a6 9e b8 bc f7 d1 b2 3c fc 3e 3a 3d a6 88 96 3d
       -0.022536587 0.021828635 0.045470223 0.07350282
0003c0 39 d6 8b 3d 5c 0b ad bd b5 98 f8 bd 75 8f cf bc
       0.06827969 -0.08449432 -0.121385016 -0.02533696
0003d0 dd 4f db 3c cd 3d 9e bd 8c ef ce 3c 5a ad b6 bd
       0.02677148 -0.07726631 0.02526071 -0.08919783
0003e0 7e 5d b8 bd 3e eb 2d 3d 1d 43 bc 3c 25 bf 3b bd
       -0.09002207 0.042460673 0.02298122 -0.045836587
0003f0 d8 5a b5 bd 21 e1 d9 3d 83 34 35 3b 7e ef 9c bd
       -0.08855218 0.10638643 0.0027649708 -0.07662867

weight f4 [128]
000000 62 35 75 3f ed f6 78 3f 93 a7 71 3f b0 2e 79 3f
       0.9578458 0.9725178 0.9439632 0.97336864
000010 7d 08 80 3f 05 67 76 3f 03 72 7f 3f 0e 2d 76 3f
       1.000259 0.96250945 0.99783343 0.961625
000020 83 b1 7a 3f ec 60 72 3f 97 28 79 3f bf 8d 79 3f
       0.9792711 0.9467914 0.9732756 0.9748191
000030 ee ea 7c 3f 55 c5 7c 3f 1c 59 78 3f 67 f4 7c 3f
       0.98795974 0.98738605 0.9701097 0.9881043
000040 d2 f9 7e 3f 0e d4 87 3f 81 56 89 3f 77 16 7b 3f
       0.99599946 1.0611589 1.0729524 0.98081154
000050 5c 09 78 3f 03 1c 7c 3f dc cb 80 3f ff e0 77 3f
       0.9688928 0.9848024 1.0062213 0.9682769
000060 ff 28 76 3f f0 2a 77 3f 53 24 81 3f d0 25 7f 3f
       0.96156305 0.9654989 1.008921 0.9966707
000070 da 48 79 3f 0d d2 7b 3f 29 f1 7a 3f c2 a0 80 3f
       0.9737679 0.9836739 0.9802423 1.0049059
000080 0c 86 77 3f 88 37 7c 3f e0 1b 7b 3f f9 18 79 3f
       0.96688914 0.98522234 0.9808941 0.9730373
000090 53 0c 7b 3f 71 ef 79 3f c4 40 7d 3f 5b 27 77 3f
       0.9806568 0.97630984 0.9892695 0.96544427
0000a0 fc 3d 77 3f 81 85 77 3f 60 10 7d 3f 3a da 74 3f
       0.96578956 0.96688086 0.9885311 0.9564549
0000b0 2c 30 75 3f eb 9e 7d 3f 5c 6a 79 3f 58 59 72 3f
       0.9577663 0.99070615 0.97427917 0.9466758
0000c0 1e fd 79 3f 76 af 78 3f aa 6e 7c 3f 14 48 76 3f
       0.9765185 0.9714273 0.9860636 0.9620373
0000d0 33 9a 78 3f 27 b4 7c 3f 33 f7 79 3f 05 7c 79 3f
       0.9711029 0.9871239 0.9764282 0.97454864
0000e0 45 4b 88 3f 51 11 78 3f cb d0 7d 3f 21 a3 78 3f
       1.064797 0.9690142 0.9914672 0.97123915
0000f0 12 cc 88 3f fe 3b 7d 3f 28 53 71 3f ef 9a 7f 3f
       1.0687277 0.98919666 0.9426751 0.99845785
000100 12 4b 8c 3f f9 16 90 3f c2 95 79 3f 85 ea 7b 3f
       1.096041 1.1257011 0.9749414 0.98404723
000110 99 3b 77 3f 6b 49 7f 3f 6c 02 87 3f b8 46 79 3f
       0.96575314 0.997214 1.0547614 0.97373533
000120 b4 6f 81 3f 7b 0e 82 3f 72 7d 83 3f 86 1f 83 3f
       1.0112214 1.0160669 1.0272658 1.0243995
000130 d3 01 7d 3f 40 b1 74 3f c3 05 7a 3f 27 7e 7d 3f
       0.9883091 0.9558296 0.9766504 0.9902062
000140 66 f0 78 3f 5b b0 7c 3f b8 63 7b 3f c7 bd 7e 3f
       0.9724182 0.987066 0.98199034 0.9950833
000150 9e 1b 83 3f 8e 1f 77 3f fc fd 81 3f 73 68 7d 3f
       1.0242803 0.96532524 1.0155635 0.989875
000160 4c d9 80 3f 00 68 7c 3f 93 2a 77 3f 10 78 7f 3f
       1.0066314 0.9859619 0.9654934 0.99792576
000170 66 1d 7c 3f 6d d1 74 3f fe 0d 89 3f bd b1 7d 3f
       0.9848236 0.9563206 1.0707395 0.9909933
000180 5c d5 90 3f 5a 43 87 3f e3 80 77 3f be 55 7c 3f
       1.1315112 1.0567429 0.9668104 0.9856833
000190 16 58 7a 3f 1a e8 81 3f c8 91 78 3f 58 41 78 3f
       0.9779066 1.0148957 0.97097445 0.96974707
0001a0 17 31 7e 3f b4 0a 7a 3f 8e f6 7b 3f 97 24 7a 3f
       0.99293655 0.9767258 0.9842309 0.9771208
0001b0 e5 f4 7b 3f ce d6 7a 3f 8c 20 7a 3f 4c ef 7d 3f
       0.98420554 0.97984016 0.9770591 0.99193263
0001c0 5c 3d 7a 3f 42 f8 75 3f ab d5 74 3f 23 36 7c 3f
       0.97749877 0.96081936 0.9563853 0.98520106
0001d0 5f 2f 7c 3f c8 fe 76 3f 0e e3 78 3f 54 06 80 3f
       0.9850978 0.96482515 0.9722146 1.0001931
0001e0 85 22 78 3f 3b 0f 7a 3f 69 aa 74 3f ab dc 7d 3f
       0.9692767 0.9767949 0.95572525 0.9916484
0001f0 e0 00 7f 3f ce 8b 76 3f 7d 61 77 3f 53 d4 79 3f
       0.9961071 0.96307075 0.9663313 0.97589606

bias f4 [128]
000000 00 92 a5 bc 32 8b 71 bc d4 04 ea bc 5d 18 34 bb
       -0.02021122 -0.014742659 -0.028566755 -0.0027480342
000010 23 9b f4 bb ac d1 9e bb eb 61 47 bc 5d 25 86 bc
       -0.007464783 -0.004846772 -0.012169342 -0.016375238
000020 74 25 43 bc 5d b3 3f bd a5 35 88 bc f4 64 c5 b9
       -0.011910785 -0.046801914 -0.016627142 -0.00037649984
000030 a2 98 aa bb fb d8 3b 3b 9b 7e e0 bc 5d b5 6e 3a
       -0.0052061835 0.0028663266 -0.02740412 0.0009106005
000040 45 b5 6c bc ed 48 4a 3d 0e 6d 86 3d f6 57 b2 bc
       -0.014447515 0.049385954 0.06563769 -0.021770459
000050 0c f4 16 bc 78 8a 0f bc 36 1b 27 3c 7e ad 89 bc
       -0.009213459 -0.008761041 0.010199359 -0.01680636
000060 6b 1a cc bc 6b 39 06 bd 34 8a 6d 3c 2c c0 16 bc
       -0.02491494 -0.0327696 0.014498282 -0.009201091
000070 18 14 fa bc d7 7b 81 3a d0 ab b3 bc 0c 3c 99 3b
       -0.03052716 0.0009878826 -0.021932513 0.0046763476
000080 75 66 e1 bc 76 e1 14 bb 23 a1 03 bd 0f 69 cc bc
       -0.027514676 -0.0022717393 -0.032136094 -0.02495244
000090 5e 6d 91 3a 3a ac 53 bc 28 34 5e bb 63 6d f2 bc
       0.0011095216 -0.01291948 -0.00339056 -0.029593175
0000a0 10 8c 30 bc 98 19 db bb 10 4f ae 37 00 61 30 bd
       -0.010775581 -0.0066864006 2.0779233e-05 -0.043061256
0000b0 c2 3c c9 bc ff 46 08 bc 03 5f 92 bc 76 43 0a bd
       -0.024565104 -0.008317708 -0.01786757 -0.033755742
0000c0 53 bd a0 bc 45 d5 d4 bc 56 d0 a7 bc 05 f4 d1 bc
       -0.019621527 -0.025980601 -0.020485085 -0.025629053
0000d0 6a 38 f2 bb b0 4c 23 bc 07 08 18 bd 49 d5 d2 bb
       -0.007391979 -0.009967014 -0.03711703 -0.006434117
0000e0 9a 5f 77 3d d5 ab af bc 63 38 2c bc 64 98 31 bb
       0.060393907 -0.02144424 -0.0105114905 -0.0027098889
0000f0 68 7a 44 3d 2f ad 0e bd 3b d6 dd bc 1a 66 aa b9
       0.0479683 -0.03483313 -0.027079692 -0.00032500998
000100 c1 0b 93 3d 71 a9 fa 3d a3 8e b9 bc 33 c9 50 3b
       0.07179976 0.1223935 -0.022651022 0.0031858205
000110 aa 35 8d bc a4 1a 70 bb c4 34 41 3d de a5 97 bc
       -0.017237503 -0.0036636973 0.04716946 -0.018511709
000120 00 54 c5 bc 78 7f dc 3b b3 a8 3d 3c 66 cc ee 3c
       -0.024087906 0.0067290626 0.011575866 0.0291502
000130 72 54 02 bd 3c 84 31 bd 90 73 9c bc a5 20 54 3c
       -0.031818815 -0.043339 -0.019098073 0.012947236
000140 36 7c 0c bc 78 8c 40 bc 9f b0 03 bd 9f c6 b5 bc
       -0.008574536 -0.01175224 -0.03215086 -0.022189436
000150 65 54 22 bb 23 2d ee bc ba 66 31 bc 55 0c 2c bb
       -0.0024769541 -0.029074257 -0.010827715 -0.0026252468
000160 40 d1 ef 3b 17 bd d9 bb 39 2b b6 bc 25 e9 ce 3b
       0.0073186457 -0.0066448557 -0.022237407 0.006314414
000170 cb db 15 3b d8 a7 1b bd 22 47 48 3d f3 ef 0c bc
       0.0022866603 -0.038001865 0.048895963 -0.00860213
000180 ab 49 f3 3d 9b 8d 01 3d 77 df 81 bc de 73 00 bb
       0.118792854 0.031629186 -0.015853627 -0.0019600312
000190 c0 57 32 3a 08 d2 b1 bc 00 c2 b8 bc da eb c9 bc
       0.0006803237 -0.021706596 -0.022553444 -0.024648596
0001a0 7e 42 1f 3a 55 44 81 bc ec cc d4 bc 4a 55 af bc
       0.0006075277 -0.015779654 -0.02597662 -0.021402974
0001b0 f1 0d 52 bc fc 1a cd bc af 27 53 bc 66 70 a0 3b
       -0.012820707 -0.025037281 -0.012887879 0.0048962114
0001c0 70 83 3e bc e7 bd 80 bc 96 07 d1 bc b0 13 60 bc
       -0.011628017 -0.015715552 -0.025516313 -0.013676569
0001d0 f0 c1 23 bc b2 f2 10 bd 57 20 b2 bc ec 5a 48 3a
       -0.009994969 -0.035387702 -0.021743936 0.0007642943
0001e0 b9 92 a0 bc 51 bf 69 bc da 12 64 bd 51 01 99 3c
       -0.019601213 -0.014266805 -0.05568204 0.018677386
0001f0 76 9c a5 3c 63 2f f3 bc 1a a5 fc bc 50 d8 84 bc
       0.020216208 -0.029685682 -0.030840445 -0.016216427

running_mean f4 [128]
000000 a9 7d 5f 3e 2d 81 98 be 53 f0 8c 3e 6a 84 b5 be
       0.2182528 -0.29786053 0.27527103 -0.35452586
000010 14 6f cf be 10 7c da be 20 b4 cf 3e fe ac 2b bd
       -0.40514433 -0.42672777 0.40567112 -0.041913025
000020 97 d3 ec bd 4c 73 04 bf 8a ac e7 3e b8 eb a5 bd
       -0.11563795 -0.5173843 0.45248824 -0.081016004
000030 3d 59 28 bf 6e 20 6c be e0 26 f4 be cb 7c 62 3e
       -0.65761167 -0.23059246 -0.4768591 0.22117917
000040 e1 be eb 3d 84 d3 17 be 55 47 4b be 5a 9b d6 3e
       0.11511017 -0.1482678 -0.1985143 0.419154
000050 d4 b4 1d bf 50 22 5b be 18 fe 58 be ad 95 67 3e
       -0.61604047 -0.21399808 -0.21190679 0.2261569
000060 c6 9c 66 bf 43 41 c6 be fb b4 91 3e ee a7 1d bd
       -0.9008297 -0.38721666 0.2845839 -0.03849023
000070 ff a0 0f bf de 1f 23 be fd fe 4a 3e 52 d4 a4 3e
       -0.56105036 -0.15930125 0.19823833 0.32193238
000080 50 14 00 bf af 3f 02 3e 54 39 d3 3e 8c 1f 05 be
       -0.50030994 0.12719606 0.41254675 -0.13000315
000090 2a 9b 81 be dd b6 8d be 0b 81 a3 be ce 48 90 be
       -0.25313693 -0.27678576 -0.3193439 -0.28180546
0000a0 27 18 ba be 6a 4f 01 bf 96 9f 19 bf 66 41 ac be
       -0.36346552 -0.505118 -0.60009134 -0.33643645
0000b0 10 93 64 3e 61 39 0f be c7 27 ec be 5d 09 aa be
       0.22321725 -0.13986732 -0.46124098 -0.3321027
0000c0 b7 6d 96 3e 7b 96 37 3f 1a e5 cf 3e 3b 31 68 be
       0.2938058 0.7171399 0.40604478 -0.2267503
0000d0 32 66 db be c4 22 b0 3e e8 14 59 3e ed 13 f3 3e
       -0.42851406 0.34401524 0.21199381 0.4747614
0000e0 55 ff 2d be a5 20 0c bf 03 be 2f 3e 69 9f 9a be
       -0.16991933 -0.5473731 0.17162327 -0.30199745
0000f0 c4 96 09 be d1 07 65 3e 6f 2e 63 3d d5 da c5 3e
       -0.13436419 0.22366263 0.055464204 0.38643518
000100 33 e0 26 be df 27 08 be e2 5e 4c be c6 0e 8d be
       -0.16296463 -0.1329646 -0.1995807 -0.27550334
000110 f8 55 ec be 52 23 89 3e ff 81 88 be 1c 06 d5 be
       -0.4615934 0.2678476 -0.2666168 -0.41606224
000120 0b a5 fb 3c 78 4b c9 bc c5 0e da bd a8 db b8 bd
       0.030718347 -0.02457212 -0.10647348 -0.09026271
000130 3f a6 46 3e 79 cf 1c bf 06 c0 ee 3c 20 67 57 bf
       0.19399355 -0.6125408 0.029144298 -0.8414173
000140 bf 7f e1 3c a8 85 ac 3e 71 b3 8c 3e 22 94 06 bf
       0.027526734 0.33695722 0.27480653 -0.5256978
000150 2f 60 fa 38 01 63 2c bf 92 4c fb bb 79 61 ae 3e
       0.000119388445 -0.6733857 -0.00766904 0.3405874
000160 47 11 63 be b7 ce de be d0 0a e2 3e fa b3 3e be
       -0.2217456 -0.43517086 0.44148874 -0.18623343
000170 f6 78 1c 3e c7 00 06 3f 05 64 3a be f7 bb 62 3e
       0.15280518 0.52344936 -0.18202217 0.22142015
000180 37 64 22 be e3 67 c2 bd 6f c8 dc 3e 3b ab 49 3e
       -0.15858541 -0.09492471 0.4312167 0.19694225
000190 4f 19 93 be 71 09 c0 3d 38 87 99 be 6c 5b ae be
       -0.28730246 0.09376801 -0.29985976 -0.34054124
0001a0 9c 0e 5f be 46 8e a4 be 7f 20 a5 3e fd 2e 02 3e
       -0.21782917 -0.32139796 0.32251355 0.12713237
0001b0 ca cc 1d 3f 2d 6e ec 3d ac c1 a9 be b3 34 6f be
       0.6164061 0.11544452 -0.33155572 -0.23359947
0001c0 2a 01 99 be 44 09 dd be e8 bf fe be 6d 25 c4 3e
       -0.298837 -0.43171132 -0.49755788 0.38309804
0001d0 a7 b4 82 be 84 3b 17 bd 9c 00 e5 be c9 50 4e 3f
       -0.25528452 -0.036921993 -0.44727027 0.8059202
0001e0 47 0d b4 be 34 51 1b bf c6 d4 b2 3e da 29 70 be
       -0.3516638 -0.6067078 0.34927958 -0.23453465
0001f0 b3 ca fc be 64 36 43 be c4 1e f7 be d7 b2 c7 be
       -0.49373397 -0.19063717 -0.4826566 -0.3900363

running_var f4 [128]
000000 21 b7 2f 3f 88 f8 4b 3e bb 75 b1 3e cf 62 cc 3e
       0.6863881 0.19919026 0.34660134 0.39919135
000010 10 59 b2 3d 99 3a ff 3e 4b 9d 6c 3e 1b 62 87 3e
       0.087083936 0.49849394 0.23106878 0.26442036
000020 40 ef c1 3e fb c1 97 3e a7 19 20 3e c3 de bf 3e
       0.37877846 0.29640183 0.15634786 0.3747464
000030 53 33 a1 3f 03 36 14 3e 00 06 51 3f cf 19 0f 3e
       1.2593788 0.14473729 0.8164978 0.13974689
000040 af 84 53 3e c0 57 e8 3c 25 95 54 3d c0 53 06 3f
       0.20656084 0.028362155 0.051900048 0.5247154
000050 a0 df 84 3f 61 32 d1 3d 10 72 cf 3c 1a 3f 25 3d
       1.0380745 0.10214687 0.025322944 0.04034338
000060 46 f0 23 40 13 a8 97 3e 6a 82 18 3e 1f 60 c7 3d
       2.5615401 0.29620418 0.14893499 0.097351305
000070 33 5a 24 3e d6 53 52 3d 81 8a 2e 3e fa 06 9d 3e
       0.16050033 0.051349483 0.17045023 0.30669385
000080 3d a5 f4 3e de 8f 9a 3d ba e8 97 3e 03 95 8f 3e
       0.47782317 0.07546972 0.29669744 0.28043374
000090 5b 36 01 3e b2 4e 2d 3e 65 91 9e 3e a4 6f 0c 3f
       0.12618391 0.16924551 0.30970302 0.5485785
0000a0 d9 d7 89 3e fe f3 06 3f 54 a4 59 3f f6 16 8d 3e
       0.2692249 0.5271605 0.8501637 0.2755658
0000b0 16 b1 03 3e 56 dd 14 3e c0 2e 02 3f 70 71 c6 3e
       0.12860522 0.14537558 0.50852585 0.3875842
0000c0 f2 79 61 3e ad 74 11 3f a0 05 5c 3f aa e6 fb 3e
       0.22019175 0.5681866 0.85946083 0.4919942
0000d0 a3 87 a3 3e 30 83 71 3e 29 1e 84 3e 49 f0 39 3e
       0.3193942 0.235852 0.2580426 0.18158068
0000e0 da 5f 44 3d ec 26 6f 3f e4 b3 85 3e 62 17 1b 3f
       0.047942974 0.93418765 0.26113808 0.60582554
0000f0 14 73 d8 3c 46 9e 11 3e a3 3b 3d 3e 3b 28 cd 3e
       0.026422061 0.14220533 0.18479781 0.40069756
000100 c7 cb 25 3d e9 e7 f2 3c b5 4b db 3e 17 57 60 3e
       0.04047754 0.029651599 0.42831197 0.21908222
000110 73 ae 83 3e ae 81 3a 3e de d5 fd 3c 9c 16 83 3e
       0.25719032 0.18213531 0.030985769 0.25603187
000120 1e d2 51 3d a7 01 a0 3d 88 5a 85 3d 0a 1d 42 3d
       0.051225774 0.07812815 0.06511408 0.047390975
000130 e6 42 cf 3d e4 b3 51 3f 44 3e dd 3e 77 6e db 3f
       0.10120182 0.81915116 0.43211567 1.7143086
000140 b8 a7 18 3e 13 80 92 3e 9e 23 c0 3e e7 b0 1b 3e
       0.1490773 0.28613338 0.37527174 0.15204202
000150 79 67 87 3d d9 22 99 3f 4c af 59 3d 39 c3 4b 3e
       0.06611533 1.196376 0.05314569 0.1989869
000160 f9 05 04 3d b0 1f d2 3e 3e aa 3d 3f 9a 10 16 3e
       0.03223226 0.410398 0.74087894 0.1465477
000170 e8 ef 87 3d 7e 5a 9f 3e 33 a4 a7 3c 7b 1b 94 3e
       0.06637555 0.31123728 0.020464038 0.28927216
000180 3c d2 1e 3d c2 33 a2 3c 09 4c 44 3e 6c ac cc 3d
       0.038774714 0.01980007 0.1916963 0.09993824
000190 37 10 01 3f 6d 70 41 3d a9 6d d4 3d 99 b9 83 3f
       0.50415367 0.04722636 0.103724785 1.0291015
0001a0 09 b5 35 3e 5c ce 03 3e 4e e4 a8 3e 49 5b ed 3e
       0.1774484 0.12871689 0.32986683 0.46358708
0001b0 f4 71 ed 3e 72 89 26 3e e9 ef 9c 3e cb cc 9a 3e
       0.46376002 0.16263369 0.30651787 0.3023437
0001c0 20 7d 89 3e 61 58 03 3f 1f 4b e1 3e f1 18 2b 3f
       0.26853275 0.5130673 0.44002625 0.6683493
0001d0 e9 4a 69 3e e8 10 45 3e 4c 7f b6 3d 9b cd 44 3f
       0.22782482 0.1924473 0.08910999 0.7687623
0001e0 57 2e da 3e 14 d8 76 3f 4a 8a 65 3f 74 f1 a6 3e
       0.4261348 0.9642346 0.8966414 0.3260609
0001f0 22 3c 43 3f b1 9d 35 3e a9 e2 1a 3f 9c 66 53 3d
       0.7626363 0.17735936 0.60502106 0.051611528

weight f4 [256, 128, 1]
000000 5c 13 68 3d 61 42 9e 3d 3e 92 f9 bc e8 fc 28 3c
       0.056659088 0.077275045 -0.030465242 0.010314204
000010 00 5a 44 bc 52 1f ae bc 26 3f 69 3b 0a f7 6f bd
       -0.011984348 -0.021255169 0.0035590618 -0.058585204
000020 ad 04 3d 3c 04 dd b6 bc 39 fd 1f 3d b2 9d af bd
       0.011536759 -0.022322185 0.03905985 -0.08575
000030 a7 3c 83 3d 00 6e 4f bd 8b 5d 92 3d 52 c8 36 3c
       0.06408053 -0.050642014 0.07146748 0.0111561585
000040 80 08 5e bc 90 b7 89 bd cb 80 8b 3d 8c 9c 98 3c
       -0.013551831 -0.06724465 0.06811675 0.018629335
000050 82 82 2e 3d 5b 62 ef 3c ad 0b 26 3d 85 33 6e bd
       0.04260493 0.029221704 0.04053848 -0.0581546
000060 6a a2 32 3d ce e4 48 39 a1 66 ee 3c f2 c6 53 bd
       0.04361192 0.00019158723 0.029101672 -0.0517034
000070 f2 9f 52 3d 65 36 1d 3d 87 0f 54 bd ac 63 13 3d
       0.051422067 0.038381953 -0.05177262 0.035983726
000080 65 3e 51 bd ff 8b e8 bd 05 2d 03 3b 0c 8d 8d 3d
       -0.051084895 -0.11354827 0.0020015847 0.06911668
000090 6c d2 1e 3a 21 17 94 bd 52 79 40 bd 08 a4 38 3c
       0.0006058577 -0.07230974 -0.0469907 0.011269577
0000a0 3a 6d af bd 68 fe db 3d b6 28 1a 39 3c 82 53 bd
       -0.08565755 0.107418835 0.0001470175 -0.051637873
0000b0 02 91 ff bc 6f 04 ac bd d8 57 90 bd a6 26 a6 bd
       -0.031197075 -0.08399283 -0.07048005 -0.0811284
0000c0 a7 70 1a 3d f1 0a 71 bd 71 dc d4 bd 7a 3f 33 3d
       0.03770509 -0.058848325 -0.10393608 0.043761708
0000d0 31 7c 57 3d 11 74 83 3d db dd 8e bd b2 b1 36 3b
       0.052608673 0.06418622 -0.06975909 0.002787691
0000e0 7f d3 7f bd e1 28 8b 3d 90 ee d5 bd 3b 20 99 bd
       -0.062457558 0.067949064 -0.10445893 -0.074768506
0000f0 fa c1 9f 3a a9 86 30 bd 14 05 51 3d c5 3d 80 bd
       0.0012188547 -0.043097172 0.051030234 -0.062617816
000100 8e 35 23 3c 9c e2 a6 3c 1a 1f 8b bd 46 14 a7 3d
       0.009961499 0.020371728 -0.067930415 0.08158164
000110 c5 c6 47 bd e3 97 eb 3a d4 bb 71 3d 3c 85 bf 3d
       -0.048773546 0.0017974343 0.059017017 0.09351584
000120 3f 2b 6d bd 50 82 96 bd c4 cb 54 3d b3 c4 1e 3c
       -0.05790257 -0.07349074 0.05195214 0.009690451
000130 6d 3c 65 bc 9b 41 9f bd c2 2a e9 3c ef 40 1c bd
       -0.013991457 -0.07776185 0.028462771 -0.038147863
000140 59 7b 58 3d 3a 6b 1c bd 18 43 49 3d 9c ab 68 3d
       0.05285201 -0.038188197 0.04913625 0.056804284
000150 02 28 ba 3c 99 8f 44 bc bf 30 c3 bd c1 4f bd bd
       0.022724155 -0.011997127 -0.09530782 -0.092437275
000160 3c 13 b7 3d bb 95 32 3d e0 57 79 3d d4 c1 2c 3c
       0.089392155 0.043599825 0.06087482 0.010544259
000170 fa a3 57 bd 5f 8f d6 3c ed a6 47 bb 2c 4d ce bd
       -0.052646615 0.026191412 -0.0030464486 -0.10073313
000180 8f bb 77 3d 3d 53 b6 3b 72 f5 85 bc 3a 09 89 bd
       0.060481604 0.005564122 -0.016352389 -0.06691213
000190 f7 c3 9a 3d 80 f6 00 3e a1 64 81 bd 70 bf 2d bd
       0.075569086 0.12594032 -0.063180216 -0.042418897
0001a0 dd 63 3d 3d 32 84 6b bb fb 33 66 3d 09 83 c6 bc
       0.046237815 -0.003593695 0.056201916 -0.024232404
0001b0 c4 70 d4 3c bf 8d 21 3c a8 b0 69 bd 2c 4a 46 3c
       0.025932677 0.009860455 -0.05705324 0.012102645
0001c0 d8 d0 26 3d 39 2c 45 3d 30 2b a3 3c 15 41 87 bc
       0.040726513 0.048137877 0.019918054 -0.016510526
0001d0 fc 25 ca bc 35 cc ff 3c 80 57 c7 bc 62 64 b8 bd
       -0.024676315 0.031225303 -0.024333715 -0.090035215
0001e0 0b 4d ac bc be 9b ae 3d 8f 2d 5f 3d 30 94 9a bd
       -0.02103283 0.08525799 0.054486807 -0.07547796
0001f0 fb 3b 4b 3d ac cf cb bc c5 b8 4d bd da 3b a5 bc
       0.04961775 -0.0248793 -0.050225038 -0.020170141
000200 84 ad d6 bd 45 99 b5 bd 4e 54 3f bd 67 dd 87 bd
       -0.10482314 -0.088671245 -0.04671126 -0.06634026
000210 5a c8 d8 bc 29 ed a8 3d 55 95 bb bc b8 80 3b bd
       -0.026462723 0.0824836 -0.022898355 -0.045777053
000220 c2 75 49 3d 4d 3c 06 bd 50 03 7b bd 91 46 af bd
       0.04918457 -0.03277235 -0.061282456 -0.08558381
000230 f7 d5 33 3c b0 43 ab bd 54 3b 52 bd e7 fa e7 bb
       0.010976306 -0.0836252 -0.05132611 -0.0070794704
000240 ee 27 a1 bc 07 25 d3 bc ab 24 e5 bc 97 6b d9 bc
       -0.01967236 -0.025774492 -0.027971586 -0.02654056
000250 dc 9d b6 bc f5 ea 9d bd 4e 78 78 bd 96 e3 ee 3c
       -0.02229207 -0.0771083 -0.060661606 0.029161256
000260 a3 b7 84 3d a1 e2 6b 3d 69 1b 25 bd af 18 a4 3d
       0.064803384 0.057589177 -0.040309343 0.080125205
000270 b8 5f 3e 3b 69 78 2d bd 4a 3d 47 bd 2a 3a 7f 3d
       0.0029048752 -0.04235116 -0.048642434 0.06231133
000280 9f d9 a4 3d dd aa bd 3d ed c5 5d bd 97 b0 97 3d
       0.080493204 0.09261105 -0.054143835 0.07406729
000290 df a0 5a 3d e9 6c 8c bd 13 a6 46 3d 24 bb 8b bd
       0.053376075 -0.068567105 0.048498224 -0.068228036
0002a0 b8 2d 2d 3c d6 d6 a2 bc a8 21 ed bb 7e ff 78 3d
       0.010569982 -0.019877832 -0.007236678 0.06079053
0002b0 7d 9f e2 bd aa 8f 5f 3d 7b 1f fe bc 32 ea b8 bd
       -0.11065576 0.054580368 -0.03102087 -0.09029044
0002c0 21 38 75 bd a9 0a e0 3c 29 0a a9 bc 8a 22 b2 3d
       -0.05986798 0.027348833 -0.020634728 0.08697994
0002d0 0c 17 f5 bc 86 f6 95 3c 5e 99 80 bd 91 59 0a 3d
       -0.029918216 0.018306028 -0.062792525 0.033776823
0002e0 5d 4b f4 3b 69 ad a7 3d c9 b7 8c bd 3e c9 3c 3d
       0.007455273 0.08187372 -0.06870992 0.046090357
0002f0 ff 60 9b bd 2f d6 90 3c 8c 6a 94 bb 62 1c 82 bd
       -0.0758686 0.017680256 -0.004529303 -0.0635307
000300 16 be c4 bd 2f f2 14 be ee 22 9c 3b 05 60 7e bd
       -0.096065685 -0.1454551 0.004764906 -0.06210329
000310 1a ad c4 3c 6f d0 65 3d 59 86 e7 bd ad e8 8d 3d
       0.024008323 0.05610698 -0.11304922 0.06929145
000320 b8 41 f9 bc 27 78 50 bd ac 18 3e bd 74 d2 d4 3d
       -0.030426845 -0.050895836 -0.046410248 0.10391703
000330 21 43 8a 3d ff 78 d1 3c b2 2e 7b bd 5e 15 7e bd
       0.06751085 0.02557039 -0.06132383 -0.062032096
000340 dc 4f 8e 3c e8 d0 88 bc 92 43 94 bc 7a c5 a4 bd
       0.017372064 -0.016701177 -0.018098626 -0.08045478
000350 8b 3a db bc 4f ba 53 bc 70 bd 44 bd 47 f6 df 3d
       -0.026761314 -0.012922837 -0.048032224 0.109356456
000360 e2 3a eb bc 99 3f a1 bd 45 f3 d0 bd 60 c6 a5 3c
       -0.028714601 -0.078734584 -0.1020265 0.020236194
000370 e6 87 5e 3c 0a bd a5 3c 04 0c fd 3c 5d 90 d6 3c
       0.013582205 0.020231742 0.030889519 0.026191885
000380 1d 6d 9b bd be 5c 98 3d 6f dd 97 3b 48 89 77 bc
       -0.07589171 0.07439564 0.0046345512 -0.015108414
000390 a9 65 b7 bc 6e bb 22 3d d4 fa 89 3c ba 2c cd 3d
       -0.022387343 0.039729528 0.016843237 0.100182965
0003a0 d9 93 9b 3d 3d 9f 75 bd 39 ec 21 3d 55 98 83 3d
       0.07596559 -0.059966315 0.03953192 0.064255394
0003b0 04 f1 7c bd 2d 6b cf bd f8 32 25 3d 7a cb 90 bd
       -0.061753288 -0.10127864 0.04033181 -0.0707006
0003c0 19 86 1f 3c c7 5c 9d 3d 6f 96 72 3d 22 37 8f 3c
       0.009736561 0.076837115 0.059225496 0.017482344
0003d0 29 7e b8 bc f4 d2 f6 bc 35 2e a0 3c 33 1b 16 3d
       -0.022521095 -0.030129887 0.019553283 0.036647033
0003e0 63 d7 cb bc 0f f8 83 3d 81 8a bb 3d 82 ba b7 bd
       -0.024882978 0.06443798 0.09157277 -0.089711204
0003f0 f3 47 15 bd 66 f3 17 3d ab 7e 90 bd d8 71 34 3d
       -0.03644557 0.037097357 -0.0705541 0.044053882

weight f4 [256]
000000 30 92 82 3f ee 01 85 3f ec e8 89 3f ac 5a 83 3f
       1.0200863 1.0391214 1.0774207 1.0262046
000010 9c 58 88 3f 91 07 85 3f 6e 9f 87 3f 05 da 8a 3f
       1.0652041 1.0392934 1.0595529 1.0847784
000020 7b 80 85 3f d6 56 83 3f ce 12 85 3f 8c 99 84 3f
       1.0429834 1.0260875 1.0396364 1.0359359
000030 ec 17 83 3f d4 f4 79 3f 3b cb 84 3f 08 3a 84 3f
       1.0241675 0.97639203 1.0374521 1.033021
000040 16 fc 81 3f fb 08 83 3f 5f 66 87 3f 08 96 84 3f
       1.0155056 1.0237116 1.0578116 1.0358286
000050 f1 10 83 3f ec 81 82 3f af c4 86 3f 4f 6b 82 3f
       1.0239545 1.0195899 1.0528773 1.0188998
000060 7c d5 83 3f aa ab 85 3f d3 dd 82 3f 3d 54 8a 3f
       1.0299525 1.0443013 1.0223945 1.0806957
000070 32 4c 89 3f b7 35 8a 3f 79 d2 82 3f 95 17 84 3f
       1.0726378 1.0797642 1.0220481 1.0319697
000080 21 ef 82 3f fb 97 83 3f e1 04 83 3f 0d a1 81 3f
       1.0229226 1.0280756 1.0235864 1.0127274
000090 27 42 83 3f 0a 6f 84 3f 1a 96 84 3f 3c 1b 8a 3f
       1.0254563 1.0346386 1.0358307 1.0789561
0000a0 a0 bf 86 3f 29 f1 82 3f cd 67 83 3f 87 e4 84 3f
       1.0527229 1.0229846 1.0266052 1.0382241
0000b0 a3 67 82 3f 15 2c 83 3f 36 b9 83 3f 0d 3a 83 3f
       1.0187877 1.0247828 1.0290897 1.0252091
0000c0 6a 3e 82 3f d1 d2 86 3f 42 df 87 3f 44 ba 82 3f
       1.0175297 1.0533086 1.0615008 1.0213094
0000d0 6a 28 8a 3f f0 3d 7f 3f f6 36 83 3f 98 93 83 3f
       1.0793583 0.99703884 1.0251148 1.0279417
0000e0 25 eb 82 3f eb dd 83 3f 5c 00 87 3f ac 07 84 3f
       1.022801 1.0302099 1.0546985 1.0314841
0000f0 71 21 89 3f 03 b0 8b 3f e8 c7 82 3f 3b c2 8a 3f
       1.071333 1.091309 1.0217257 1.0840524
000100 69 e5 82 3f 6d 48 84 3f 80 97 81 3f 6b 00 83 3f
       1.022626 1.0334603 1.0124359 1.0234503
000110 2b 90 84 3f ed da 83 3f 25 6a 81 3f a3 2e 83 3f
       1.0356497 1.0301186 1.0110518 1.0248607
000120 2f 99 85 3f 86 15 88 3f 5a 96 7b 3f d3 a1 83 3f
       1.0437373 1.0631568 0.98276293 1.028376
000130 83 27 83 3f dc be 84 3f 74 23 83 3f 2e fc 89 3f
       1.0246433 1.0370746 1.0245194 1.0780084
000140 be 0d 84 3f 79 d1 82 3f 3a ca 81 3f 89 ca 85 3f
       1.0316694 1.0220176 1.013984 1.0452434
000150 47 f3 83 3f 88 5d 82 3f 53 cd 83 3f 55 12 81 3f
       1.0308617 1.0184793 1.0297035 1.008372
000160 c3 3b 83 3f 5e 74 84 3f 6a e8 81 3f 99 62 84 3f
       1.0252613 1.0348012 1.0149052 1.034259
000170 a5 a8 83 3f 03 17 85 3f c1 c0 89 3f b8 f9 82 3f
       1.0285841 1.0397648 1.0761949 1.0232458
000180 07 f4 82 3f 0e 86 83 3f 27 a5 83 3f 7c e4 86 3f
       1.0230721 1.0275285 1.0284775 1.0538478
000190 d6 ff 81 3f 8e a1 87 3f 0d 05 83 3f 4a c0 88 3f
       1.01562 1.0596178 1.0235916 1.0683682
0001a0 a9 5b 86 3f 05 ca 83 3f 59 e6 8a 3f d7 ae 7e 3f
       1.0496722 1.0296026 1.0851547 0.99485534
0001b0 87 92 84 3f 2a 69 88 3f 79 d3 84 3f 48 40 85 3f
       1.0357217 1.0657094 1.0377036 1.0410242
0001c0 a5 aa 82 3f b5 b1 8a 3f 7c 40 88 3f 5a 9c 83 3f
       1.0208327 1.0835482 1.0644679 1.028209
0001d0 de 3d 81 3f e5 b9 81 3f 87 51 86 3f ac 60 84 3f
       1.0097005 1.0134856 1.049363 1.0342002
0001e0 5c 14 86 3f db 34 88 3f b6 0c 85 3f 39 5e 82 3f
       1.0474963 1.064113 1.0394504 1.0185004
0001f0 28 2d 83 3f a3 0a 82 3f 49 b3 84 3f 2e a1 8b 3f
       1.0248156 1.0159496 1.0367213 1.0908563
000200 2f a8 8b 3f 6a c0 89 3f 94 c7 87 3f f5 8e 82 3f
       1.09107 1.0761845 1.0607781 1.0199877
000210 bf 97 8a 3f 2e 2b 82 3f d2 ab 82 3f c8 a6 81 3f
       1.0827559 1.0169427 1.0208685 1.0129023
000220 07 f7 85 3f a3 ea 80 3f 1d 39 8b 3f 54 e6 82 3f
       1.0466012 1.0071605 1.0876805 1.022654
000230 77 91 88 3f 90 f9 88 3f 41 d3 82 3f 86 26 81 3f
       1.0669392 1.070116 1.022072 1.0089881
000240 b9 45 88 3f d8 82 84 3f cc f0 7f 3f 23 30 85 3f
       1.0646278 1.035243 0.999768 1.0405315
000250 4e 0c 8b 3f 97 d0 8b 3f ab 99 8b 3f 99 7d 82 3f
       1.086313 1.0923032 1.0906271 1.0194579
000260 b8 0a 85 3f 31 40 84 3f aa a9 89 3f 29 4f 83 3f
       1.0393896 1.033209 1.0754902 1.0258533
000270 93 8c 83 3f c0 31 89 3f a6 06 85 3f 3d 49 83 3f
       1.0277275 1.0718307 1.0392654 1.0256726
000280 5c 19 83 3f ab a5 83 3f cd 65 82 3f df 21 83 3f
       1.0242114 1.0284933 1.0187317 1.0244712
000290 49 82 85 3f c9 8b 8a 3f 26 72 87 3f ee c7 80 3f
       1.0430385 1.0823909 1.058171 1.0061014
0002a0 be 9f 8a 3f 11 32 88 3f 91 95 84 3f 52 a2 84 3f
       1.083 1.0640279 1.0358144 1.0362036
0002b0 1a 28 87 3f 5e 2b 85 3f ae f5 83 3f f2 f6 84 3f
       1.0559113 1.040386 1.030935 1.0387862
0002c0 34 55 87 3f cf a5 83 3f 0d fa 82 3f da 48 87 3f
       1.0572877 1.0284976 1.023256 1.0569108
0002d0 cd d9 82 3f 17 ca 87 3f 19 48 87 3f 8d da 82 3f
       1.0222718 1.0608548 1.0568877 1.0222946
0002e0 04 83 89 3f 68 1c 8a 3f 8a 6a 88 3f c2 7b 84 3f
       1.0743108 1.0789919 1.0657513 1.0350268
0002f0 d3 3e 88 3f 0d 89 85 3f 21 3d 84 3f dd 87 85 3f
       1.0644172 1.043245 1.0331155 1.0432087
000300 3a 18 86 3f f2 32 83 3f 49 03 82 3f 2e 96 82 3f
       1.0476143 1.0249922 1.0157253 1.0202081
000310 08 76 87 3f 17 b8 84 3f 42 26 84 3f 79 5e 83 3f
       1.0582895 1.036868 1.0324175 1.0263206
000320 94 b4 81 3f a8 f0 8b 3f 95 a3 83 3f 7b f9 83 3f
       1.0133233 1.0932817 1.0284296 1.031051
000330 42 74 82 3f 03 0c 87 3f fe 05 83 3f 00 f6 87 3f
       1.0191729 1.0550541 1.0236204 1.0621948
000340 f0 34 83 3f 5c 5a 8a 3f f1 0c 85 3f f4 a9 84 3f
       1.025053 1.0808825 1.0394574 1.0364366
000350 59 0d 84 3f c2 c4 85 3f ae 1d 84 3f 10 5f 85 3f
       1.0316573 1.0450671 1.0321558 1.0419636
000360 cf c6 86 3f 4f 67 83 3f 41 c0 8b 3f 2d b3 8b 3f
       1.0529422 1.0265902 1.0918046 1.0914055
000370 0a 55 87 3f 1e 6f 88 3f 30 de 83 3f 29 15 89 3f
       1.0572827 1.065891 1.0302181 1.0709583
000380 62 48 82 3f 18 e4 83 3f dc 6f 86 3f 10 a2 82 3f
       1.017834 1.0303984 1.0502887 1.0205708
000390 86 15 7f 3f 18 0e 85 3f a9 de 89 3f 5e 7e 82 3f
       0.9964222 1.0394926 1.0771075 1.0194814
0003a0 97 e4 83 3f 8e b1 87 3f 4a 5d 85 3f 7d 9d 83 3f
       1.0304135 1.060106 1.0419095 1.0282437
0003b0 82 25 89 3f f1 8f 8a 3f 16 82 82 3f d2 5f 85 3f
       1.0714571 1.0825177 1.0195949 1.0419867
0003c0 da ec 86 3f 85 c7 85 3f c4 d6 85 3f 0c 7f 83 3f
       1.0541031 1.0451514 1.0456166 1.0273147
0003d0 2c 02 89 3f 23 64 81 3f b7 ed 89 3f 01 da 83 3f
       1.0703788 1.0108684 1.077567 1.0300905
0003e0 30 d6 82 3f ca c7 80 3f 2a 45 86 3f 8c 64 89 3f
       1.0221615 1.0060971 1.0489857 1.073381
0003f0 b8 f6 84 3f aa 2d 83 3f 94 59 82 3f 44 7d 88 3f
       1.0387793 1.024831 1.0183587 1.0663228
