checkpoints/best_model_1_states.pt (torch, 837635 bytes, 20 tensors)

mlp.0.weight f4 [64, 3, 1]
00000000: bdf9 ee3e 150f 0d3e b8ab 31bd 6e2b e53e
00000010: 48b6 633e 8721 423e 988b e93e 0c0e 92bd
00000020: 548a d0be 9be9 33be dbac 013f 2ca7 07bf
00000030: 80fc d5be 26cd 3a3e 9651 f83e b9ec 63be
00000040: bcf6 40be ce98 c03e 3f22 373e 3311 8cbd
00000050: 835c 74be a135 8b3d d790 ffbe 9d9d 3ebe
00000060: 00d6 033f 57e4 81be 17ce f6be 6452 cd3d
00000070: 568d 9fbb 75ae e93d 2f8c a2be 5f72 d0bd
00000080: 2448 d3be a52d 5ebd 5a3f 03bf b556 bc3d
00000090: b566 c4be da81 2abe bae4 b8be 6f20 86be
000000a0: 0931 053f 4286 d23e 83f6 01bf 741a fa3b
000000b0: d2d1 8ebe b773 8abd 3d6e 99be c91d 35be
000000c0: 4b83 37be 86e8 7abb 6565 d33e 5ff8 ad3e
000000d0: 2cfb a73b e6c7 f1be c590 6b3e 9d26 85be
000000e0: 0f02 0a3f 84de 193d bd98 113f 8184 b1be
000000f0: 4b04 ee3e 24a4 eebe 4e69 ca3e 317d 293e
00000100: f95e d23b cbf8 6b3d 2345 b53e eb10 8dbe
00000110: 9049 aabd 2c12 df3e 83cb ee3e e8b1 b23e
00000120: 6783 303e 8640 113f f514 403e 5214 8f3e
00000130: c65b 773e bf8a 223e 011a 73be 5079 a5bc
00000140: cd75 dfbd ceba 9ebe 3124 4b3e 31bf 09bf
00000150: 351d 843e 81b8 833e cb85 e73e b0ca 353d
00000160: c16f 6a3e 78fa 393d e5ea a73e 808f c9be
00000170: e8df c8be 8797 bb3d e2c3 d63e f9a1 be3e
00000180: 5ced b53e f340 c03e 0462 ce3e b42d ff3e
00000190: 58fd 64bd fbef 79be 306b 883e fbad 0a3f
000001a0: ab13 f0bd 9b6e e93e 0795 10be bc97 f6be
000001b0: e8b2 023b a793 a7be c5be 7fbe bf3a a93e
000001c0: 3abe 883d 209c 493e 11f9 a13e b5a7 acbe
000001d0: c66f 3cbd 140c 65bd 42eb 8fbe bbde a93e
000001e0: 6783 c8bd c5ca fcbe f02c c53e 84ba a53e
000001f0: 26f1 a6be 2dee 233e e870 073f 0546 2cbe
00000200: 8fc1 4f3e 3e8f 5dbe 39d2 063f 1061 f13d
00000210: 862a 553e 8c27 f2be 71a8 53be 4809 febe
00000220: df36 b6be 9703 e03e 6469 36be 3c28 56be
00000230: 92c5 ac3e ab2b d63e 528b e53e 5ac4 9b3e
00000240: 03ad d3bd a8a0 febc 9736 ad3e a182 f33e
00000250: 834d df3d 676d d7be c144 8cbe 09e2 b13d
00000260: 42b8 b6bd 5808 8b3e 053c 09bc fce6 69be
00000270: d9ce 0c3d 8742 59be d400 cbbe 28b4 c1be
00000280: e917 99be e0ae 143f 0373 d8bd cfcd 5fbe
00000290: b99f a1bd 9152 b5bd f519 01be de4d 4dbe
000002a0: 5867 56be f6d7 e9be 1272 2abc f6f9 0fbf
000002b0: 723b 84be 5acd 003f 0e72 40be b35b e4be
000002c0: 9f96 82be 3201 883d fe08 033f b96c 08be
000002d0: 4417 efbd 0b16 883d 644c 383e 6dce d8be
000002e0: 3440 d6be ab04 0dbf c560 44be a36a 90be
000002f0: 49c5 0cbf a879 2e3e 10e9 133f 357d 4dbd
0.4667491 0.13775285 -0.043376654 0.44759697 0.22237504 0.18958102 0.45614314 -0.071315855
-0.40730536 -0.17569582 0.5065438 -0.5298946 -0.41794205 0.1824232 0.48499745 -0.22258271
-0.18844122 0.3761658 0.17884158 -0.06839218 -0.23863415 0.06797338 -0.49915192 -0.18614812
0.51498413 -0.25369522 -0.4820411 0.100254804 -0.0048691435 0.11410228 -0.31747577 -0.101780646
-0.41265976 -0.05424275 -0.5126854 0.091962256 -0.3835961 -0.16651097 -0.36112005 -0.2619662
0.52027947 0.41118056 -0.5076677 0.007632548 -0.27894455 -0.06760352 -0.29966918 -0.17687143
-0.17921178 -0.0038285567 0.41288295 0.33978555 0.0051263776 -0.47222823 0.23004444 -0.26006022
0.5390939 0.037565723 0.56873685 -0.34671405 0.4648765 -0.46609604 0.39533466 0.16551663
0.006420013 0.057610314 0.3540431 -0.2755197 -0.08314812 0.43568552 0.46639642 0.34901357
0.17237626 0.5673908 0.18757994 0.2794519 0.24156103 0.1587324 -0.23740388 -0.020199448
-0.109111406 -0.31001896 0.19838025 -0.5380736 0.25803533 0.25726703 0.45219263 0.04438275
0.22894193 0.04540488 0.32796398 -0.39367294 -0.39233327 0.09159761 0.41946322 0.3723295
0.35532653 0.37549552 0.40309155 0.49839556 -0.05590567 -0.24407952 0.26644278 0.54171723
-0.11722501 0.45592198 -0.1411935 -0.4816264 0.0019943062 -0.32729837 -0.24975117 0.33052632
0.06676908 0.19688463 0.31635335 -0.337217 -0.046005033 -0.05591972 -0.28109175 0.33177742
-0.09790688 -0.4937345 0.38510847 0.32368863 -0.32605857 0.16008826 0.52906656 -0.16823585
0.2028868 -0.21636674 0.52664524 0.11786091 0.20817003 -0.47295797 -0.20669724 -0.49616456
-0.35588738 0.4375274 -0.17813641 -0.20913786 0.33744484 0.4183019 0.44832855 0.30423242
-0.10335734 -0.031082466 0.3383071 0.475606 0.10903456 -0.42075655 -0.27396205 0.08685691
-0.08921863 0.27154803 -0.008376126 -0.2284202 0.034376953 -0.21216784 -0.3964907 -0.3783276
-0.29901055 0.5807934 -0.10568812 -0.21855853 -0.07891793 -0.08853639 -0.12607558 -0.20049235
-0.2093786 -0.45672578 -0.010403173 -0.56240785 -0.25826603 0.5031334 -0.18793508 -0.4460121
-0.2550554 0.06640853 0.51185596 -0.13322724 -0.116743594 0.06644829 0.1799789 -0.4234499
-0.41845858 -0.5508525 -0.1917754 -0.28206357 -0.54988533 0.17038596 0.577775 -0.050168235

mlp.1.weight f4 [64]
00000000: 857b 7f3f 5846 803f 710c 803f cb96 7b3f
00000010: 653e 7f3f 1798 7b3f c9ef 7c3f 9a85 803f
00000020: 720a 7c3f 35c3 803f 8d18 7e3f 72a1 7e3f
00000030: f5fa 7e3f fcbc 7e3f 2574 813f a6f9 7f3f
00000040: 1e18 813f e8fa 873f 46ba 803f 64db 7e3f
00000050: 8264 7e3f 2f6c 823f 606d 803f 769e 7c3f
00000060: 1fae 803f f5e9 7d3f 4065 7e3f 54d3 7d3f
00000070: a8a9 7d3f 1fb4 7e3f bfc6 803f 8853 803f
00000080: 23df 7e3f 8e21 7e3f 07f6 7d3f 1ca2 7b3f
00000090: fb3f 813f 8efe 7c3f d164 803f 8e1a 803f
000000a0: 8c59 7e3f 2130 803f 4c11 7e3f 554a 7d3f
000000b0: 1291 7e3f f04a 803f 198a 7c3f c9a7 7f3f
000000c0: cc10 7f3f a07f 7d3f bea0 793f d02c 7f3f
000000d0: eb0e 803f db58 7c3f 9688 813f 149f 7d3f
000000e0: c5ff 7f3f 4a03 803f 8032 813f 7f7b 7d3f
000000f0: 64a2 7d3f 5977 813f b55a 7d3f 75ef 7d3f
0.9979785 1.0021467 1.0003797 0.98276967 0.9970458 0.98278946 0.98803383 1.0040772
0.9845344 1.0059572 0.9925621 0.99465096 0.9960168 0.9950712 1.011357 0.9999031
1.0085485 1.0623446 1.0056846 0.99553514 0.9937211 1.0189265 1.0033379 0.9867929
1.0053138 0.99185115 0.99373245 0.99150586 0.99087 0.9949359 1.0060652 1.0025492
0.9955923 0.9926995 0.9920353 0.98294234 1.009765 0.9882592 1.0030767 1.0008104
0.9935539 1.0014688 0.9924514 0.98941547 0.9944011 1.0022869 0.9864822 0.99865395
0.99635005 0.99022865 0.975109 0.99677753 1.0004553 0.9857308 1.0119808 0.9907086
0.9999965 1.0001004 1.0093536 0.99016565 0.99075913 1.0114547 0.9896653 0.9919351

mlp.1.bias f4 [64]
00000000: a89e c4bb 5c52 b63b a252 55bb bf42 eabc
00000010: fde1 a43b 125d 11bc 19e6 7ebc d08f 4fbb
00000020: f8ee 52bc 652d 883c 1069 1a3b e389 eebb
00000030: 9c1f 293c 4e6e b73b 6d5d fe3c 33a1 a63b
00000040: 8c52 c83c 2e96 8a3d ccb8 193c aafb 5c3b
00000050: 6f68 0b3b 7160 b23b 8aec 89bb 1b68 4fbc
00000060: e9ef 0bbb 6140 53bc ca05 0c3b d7c5 c3bb
00000070: e12f 3f3c aa93 27bc a2a2 413c bfec 543c
00000080: d326 3cbc c804 95bc e5c0 4e3b 3524 8bbc
00000090: 0e29 363c d6fa 97bc 349d d03b d292 c2bb
000000a0: 549a 47bc 1912 1cbc 2297 01bc efe6 25bc
000000b0: 840f b8bb a509 19bc c6ff 5abc 434c a93b
000000c0: 2019 4e3c a8ce e5bb 6e65 0abc 1230 123c
000000d0: aa49 613b 01c6 22bc 100a 1c3c bf0b 47bc
000000e0: 0539 11bc 209d 27bb 83ad 3c3b 09e2 8fbb
000000f0: ce13 03bc c284 283b e500 07bc f0ea 9a3b
-0.0060003586 0.005564017 -0.0032550474 -0.02859628 0.0050318227 -0.008872287 -0.015557789 -0.0031671412
-0.012874357 0.016623208 0.0023561157 -0.007279621 0.010322478 0.005597866 0.031050408 0.0050851344
0.024453424 0.06766926 0.009382438 0.003371934 0.0021271964 0.0054436256 -0.004209106 -0.012659098
-0.0021352714 -0.012893767 0.0021365755 -0.005974512 0.01166913 -0.010228077 0.01181856 0.012995898
-0.011483866 -0.018190756 0.003154808 -0.016985038 0.011118187 -0.018552225 0.0063663963 -0.0059379125
-0.012182791 -0.009525799 -0.007909568 -0.01012586 -0.005617084 -0.009340678 -0.013366645 0.005166562
0.012579232 -0.0070131607 -0.008447034 0.008922594 0.0034376183 -0.009934903 0.009523883 -0.012148797
-0.008863692 -0.0025575832 0.0028789944 -0.004390959 -0.008000327 0.0025713895 -0.008239959 0.0047277138

mlp.1.running_mean f4 [64]
00000000: 4c90 2e46 e1e4 9046 0347 b9c5 fd0a 2247
00000010: ad83 6e46 d83c 74c6 ddc9 acc5 a7a5 20c7
00000020: d1d8 a4c6 d689 c8c3 7575 08c6 00de 24c7
00000030: 8819 59c6 55fe 2647 1cc2 3e43 88cc c1c6
00000040: 3db4 11c4 3ce7 6a43 623f a6c6 c33e 3547
00000050: efa6 14c7 3d11 0944 e8c5 b0c6 69ba 1647
00000060: 0430 3747 702b 9a46 acf1 d3c4 7fd3 7f46
00000070: 7607 a946 5232 9246 fa3c ffc6 6c03 0747
00000080: 4551 f046 d98e 90c5 f75f 2c47 5e60 35c6
00000090: 4a02 d0c6 6fad ca45 3cc2 d9c6 4ac4 b3c6
000000a0: 6b6e 1dc7 51ea d0c6 c2c2 57c6 d226 2947
000000b0: 7e86 17c7 4635 e2c6 46d0 87c6 1975 1047
000000c0: f818 19c5 eba3 0d46 64c6 de45 2ba4 38c4
000000d0: 3f6a 87c6 4ffa bcc6 4e89 8ec6 d26a 20c6
000000e0: 05ef 12c7 aa8c a3c6 fe07 10c7 96d1 2447
000000f0: 7209 b645 3912 07c7 b6e3 b4c6 c801 3947
11172.074 18546.44 -5928.8765 41482.99 15264.919 -15631.211 -5529.233 -41125.652
-21100.408 -401.07684 -8733.364 -42206.0 -13894.383 42750.332 190.75824 -24806.266
-582.8162 234.90326 -21279.691 46398.76 -38054.934 548.26935 -22626.953 38586.41
46896.016 19733.719 -1695.5522 16372.874 21635.73 18713.16 -32670.488 34563.42
30760.635 -4625.856 44127.965 -11608.092 -26625.145 6485.679 -27873.117 -23010.145
-40302.418 -26741.158 -13808.689 43302.82 -38790.492 -28954.637 -17384.137 36981.098
-2449.5605 9064.9795 7128.799 -738.5651 -17333.123 -24189.154 -18244.652 -10266.705
-37615.02 -20934.332 -36871.992 42193.586 5825.1807 -34578.223 -23153.855 47361.78

mlp.1.running_var f4 [64]
00000000: f1b7 514c b318 104d 9348 6a4b 2bc0 344e
00000010: a379 c24c 76cd cd4c a2da 4b4b d647 314e
00000020: 8e3e 3a4d 750e 9247 a6c2 fe4b 08da 3a4e
00000030: 7253 a14c 9370 3f4e 2128 5d47 18e5 804d
00000040: 469f 3e48 0ab9 4447 598b 3e4d 8312 624e
00000050: c71c 184e 1fae 0148 f39a 564d 54f4 1b4e
00000060: 277d 664e 7341 234d 713b 9a49 6aef e14c
00000070: 67bb 434d b2e7 124d b47c df4d 353d fa4d
00000080: 5a34 c64d 96a9 0e4b 2b5f 4c4e feb2 604c
00000090: 2e85 944d 5e14 8e4b 05e9 a24d f77f 5e4d
000000a0: 4f8b 2a4e 310a 964d 0d57 a04c 378b 444e
000000b0: 10ac 1d4e 5a4a b04d 2526 fe4c f740 0f4e
000000c0: 2b74 254a e4c9 0a4c 4eee aa4b 4459 6948
000000d0: 9450 fb4c cc5a 764d bc8b 0b4d ee5a 304c
000000e0: 4e61 144e 8273 384d e175 0e4e dcc1 3a4e
000000f0: b936 634b 5946 fa4d 3a1a 604d 854b 6b4e
5.4976452e+07 1.5109611e+08 1.5354003e+07 7.581232e+08 1.01960984e+08 1.0789982e+08 1.3359778e+07 7.435688e+08
1.9529136e+08 74780.914 3.3391948e+07 7.837128e+08 8.458126e+07 8.029565e+08 56616.13 2.703122e+08
195197.1 50361.04 1.9980021e+08 9.48216e+08 6.380057e+08 132792.48 2.2502994e+08 6.541202e+08
9.667404e+08 1.7118597e+08 1.2634701e+06 1.1845512e+08 2.0523992e+08 1.5404112e+08 4.6868646e+08 5.247894e+08
4.1566496e+08 9.349526e+06 8.5719725e+08 5.8903544e+07 3.114695e+08 1.8622652e+07 3.4164752e+08 2.3330802e+08
7.153141e+08 3.146563e+08 8.406436e+07 8.243645e+08 6.613248e+08 3.6970784e+08 1.3324727e+08 6.0084986e+08
2.7107948e+06 3.638261e+07 2.2404252e+07 238949.06 1.3176131e+08 2.583216e+08 1.4632442e+08 4.6230456e+07
6.223512e+08 1.934111e+08 5.975225e+08 7.8331674e+08 1.4890681e+07 5.248643e+08 2.3498845e+08 9.8689875e+08

mlp.3.weight f4 [128, 64, 1]
00000000: 2e8f 6c3b 4445 31bd 3a62 8c3c c91f 8cbd
00000010: 268f bc3b dd64 a2bd 421e 9b3d c165 d5bd
00000020: 53b1 ca3c aa63 2f3d a1cd e43d c9f1 e83d
00000030: 0d01 e4bd 6abc c7bd a577 413d 596b 9f3d
00000040: 89fd bfbc 09d1 e7bd 2353 ea3d 4cdc 5b3d
00000050: b0ad f1bd ad52 9c3d cbe4 773d 1f24 9a3d
00000060: fe1f a6bd 76ee 9f3c efda 20bc 35e6 f5bd
00000070: 1b6f 2b3d 3de4 3b3c c183 f3bd 6c8d bf3d
00000080: 33d3 e83d b9d3 603c 3370 e23d 6b21 c13d
00000090: 1d00 7d3d ab1b febd f11d f33d be2d 413b
000000a0: 3cf2 b43c 3e63 b03d c06e 7f3d 5511 1ebd
000000b0: b8f7 f5bd ee13 97bd 0b14 a4bd 535f 7b3d
000000c0: 7dc5 813c 3112 ce3c de66 61bd aa85 56bd
000000d0: 062a 93bd e301 c33b 31dd 07bd 122c e2bd
000000e0: f4ec cbbc 569d f7bd a217 cfbd ec59 a5bd
000000f0: 5dfc 7c3d b40b 1b3d c882 3dbd 4eac 813c
00000100: b5db 5b3c 7d50 a33d 3b9e 9b3d c5bd f2bb
00000110: 5af7 f23d 601e 58bc 9652 c83c d614 80bb
00000120: 8435 923d 9e63 4abd db67 cb3d 721e d13d
00000130: 2d89 033e b1d9 d93d a768 21bd 5bf7 ddbd
00000140: f64c 9ebc 7593 a2bc 8d01 87bd c356 97bd
00000150: 01da 0dbd 912c 48bd 266a cebd 3048 3d3d
00000160: 4dc5 3f3d 855c f73d 28ea 083e 0012 eabd
00000170: a819 083d 3bc2 003e 62ea d73d 25aa e2bd
00000180: 6148 f73d 1f77 243d 36c0 2dbc a9f5 94bc
00000190: ac44 6a3d 148d 3cbd 46bc cabd 4a31 c6bd
000001a0: 6c00 223d 2508 b13d aab9 81bd 666f 92ba
000001b0: 8065 23bc 0fd5 d23d 3014 f9bb a444 8dbd
000001c0: c1ad 53bc fcb9 33b9 069f a2bb 4188 97bd
000001d0: 238d f03d 3a09 8d3d 7fcc 113d f9a8 7abd
000001e0: ca81 323d f784 fdbc df10 d83c 926d a8bd
000001f0: 93a6 fa3d 8efc 333d a995 7bbd 4a5a e03c
00000200: 139a ab3c b4d6 213c 192e 54bd ce40 44bd
00000210: e266 ed3d 426f 73bd 192c cd3d ec67 82bd
00000220: c564 06be bd71 833d 0b22 f2bd 6048 d9bd
00000230: 4969 a93d 7f9f ee3d c3b4 4c3d ba3d 833d
00000240: 0a5f c73d ee6a 723d e44a 66bc c834 ba3a
00000250: c4f8 233d 4483 333d d08a d8bc 8bc7 923d
00000260: 6e07 8ebd acdc f83c 8970 cf3d f735 fcbd
00000270: 0df8 e2bd d048 bfb9 7587 f4bc 70d4 0ebd
00000280: bcaf ccbb 7469 5c3c ea20 d3bc 992c 093d
00000290: 748d 31bd f398 643d 1804 2fba 2fb5 4d3d
000002a0: 1a13 35bd 59e1 743d 2f48 ecbd 2992 cd3c
000002b0: 069d 0dbe 5766 12bd ad2c c1bd 5f5b d3bd
000002c0: be2b a0bd 19d5 493d 4974 88bd 6ed9 703c
000002d0: c26a ddbc 369d 183d 379e f7bd 4516 8ebc
000002e0: df17 cdbd e394 acbd 5260 5cbd 452a b33d
000002f0: 8230 01be f19b 04bc 5f78 07be 8561 f83a
00000300: 1e53 e4bd 93ba e43d ee70 a2bd 0d3a 143d
00000310: c8f3 35bd c1a0 703d 5eab 563d 6cfc 7cbd
00000320: ebe6 62bd ded0 a83c b137 b93d 6715 0f3e
00000330: 41cc c9bc 2cda 723d e3c7 aebd 6519 81bd
00000340: 707a da3d e0c5 edbd a1d3 da3d 6ee8 ce3c
00000350: f8c1 aebd 62e3 7a3d 53f6 c6bb d3f2 6cbd
00000360: dfdb e5bd 7dd5 f13c 0f9a c2bd c136 a83d
00000370: 5793 a23d 8406 40bd 7d7c db3d eba9 11bd
00000380: d234 b1bd 367e ec3b 19b9 8c3d ee15 31bd
00000390: bd73 8d3d 715a 1a3d 92b3 e3bc 8e9a 3e3b
000003a0: 6303 5a3d 0511 babc c8e4 bebd 4cea 733d
000003b0: 2848 a93d df4b 5abd 9bfe 84bd c264 82bd
000003c0: 15d1 f53d fdf0 c8bd e535 8a3d 0a20 813d
000003d0: c3dc 1c3d 1ee6 36bd f086 a4bd d07b c8bd
000003e0: ce96 8abd 3100 89bd b1fc acbc 904f 6cbd
000003f0: 3b58 86bc 9771 12bb e71c fd3d 5b44 b4bd
0.0036096084 -0.043278947 0.017136682 -0.06842 0.0057543693 -0.079293944 0.075741306 -0.10419799
0.024742758 0.042819656 0.11172033 0.11374242 -0.11133013 -0.09752734 0.047233243 0.07784147
-0.023436325 -0.11319167 0.11441638 0.05367689 -0.118007064 0.07632957 0.06052093 0.07526421
-0.08111571 0.019522887 -0.009817823 -0.12006799 0.041854005 0.01146799 -0.118903644 0.09353146
0.11368408 0.013722354 0.110565566 0.09430202 0.061767686 -0.12407621 0.11870945 0.0029476727
0.022088163 0.08612679 0.06236148 -0.038590748 -0.12010139 -0.07376848 -0.080116354 0.061370205
0.01584124 0.025155159 -0.055029742 -0.052373566 -0.0718575 0.0059511526 -0.03316993 -0.11043562
-0.024893261 -0.12090556 -0.101119295 -0.08073792 0.06176411 0.037852958 -0.0462673 0.015829232
0.013419081 0.07974336 0.075985394 -0.007407876 0.11863585 -0.013190836 0.024453443 -0.003908734
0.071391135 -0.04941141 0.09931918 0.10210885 0.12845297 0.106372245 -0.039406445 -0.10838195
-0.019323807 -0.019845704 -0.06592093 -0.07389595 -0.034631733 -0.048870627 -0.1007884 0.04621142
0.04681902 0.120781936 0.13370574 -0.114292145 0.033227593 0.12574093 0.10542752 -0.11067609
0.12074352 0.040152665 -0.010604909 -0.018183546 0.057194397 -0.04603298 -0.098991916 -0.0967737
0.039551184 0.086441316 -0.06334241 -0.0011172115 -0.00997293 0.10294544 -0.0076012835 -0.06897858
-0.012919844 -0.00017140055 -0.0049628047 -0.07399035 0.1174567 0.068865255 0.035595413 -0.0611963
0.043580808 -0.030947192 0.026375232 -0.08224024 0.12238803 0.043942027 -0.061422024 0.027386803
0.020947492 0.009877849 -0.051801775 -0.047913365 0.11591889 -0.059432276 0.100181766 -0.06367478
-0.13124378 0.06418178 -0.118228994 -0.106095076 0.08272035 0.11651515 0.049977075 0.06408258
0.09734924 0.059184007 -0.014055941 0.0014206404 0.040032163 0.043826357 -0.026433378 0.07166966
-0.06935011 0.030378662 0.10128886 -0.123149805 -0.11082468 -0.00036484608 -0.029849747 -0.034870565
-0.006246535 0.013452876 -0.02577253 0.033489797 -0.04334779 0.055809926 -0.000667633 0.05022162
-0.04420767 0.05978522 -0.115372054 0.025094109 -0.13829431 -0.03574213 -0.09432349 -0.10320162
-0.07820843 0.04927549 -0.06662805 0.014700277 -0.027028445 0.037259303 -0.12090724 -0.017344603
-0.10014319 -0.084268354 -0.053802796 0.08748297 -0.1261616 -0.00809382 -0.13229512 0.0018949962
-0.11148666 0.11168399 -0.07931696 0.036188174 -0.04442194 0.058747057 0.052409522 -0.061764166
-0.055396 0.020607408 0.090438254 0.13973008 -0.024633529 0.059290096 -0.08534219 -0.06303672
0.10667884 -0.11610007 0.10684896 0.025257315 -0.0853309 0.061252005 -0.0060718446 -0.057848763
-0.11223578 0.029520744 -0.095020406 0.082135685 0.07938259 -0.046881214 0.10717104 -0.035562437
-0.08652653 0.007217194 0.06871242 -0.043233804 0.06906841 0.037683908 -0.027795587 0.002908382
0.053225886 -0.022713194 -0.0932098 0.059549615 0.08265716 -0.053295013 -0.06493875 -0.06366874
0.1200277 -0.0981159 0.06748561 0.06304939 0.038296472 -0.04465305 -0.0803355 -0.0978924
-0.06767045 -0.0668949 -0.021116586 -0.057693064 -0.016399493 -0.0022345537 0.12359028 -0.088021

mlp.4.weight f4 [128]
00000000: ffc2 823f f68a 793f b30c 7c3f 4dbe 813f
00000010: 5038 773f e520 773f 8502 773f 63cb 7b3f
00000020: d5ef 7d3f bf80 7b3f 4b8c 783f df0c 7a3f
00000030: d7db 7b3f 627b 793f 20b8 833f b5de 843f
00000040: dc49 813f 981f 783f b3fa 7d3f 1724 7f3f
00000050: 8c56 763f db89 793f 56fa 7c3f 570b 793f
00000060: fba8 7a3f 04bd 7c3f 7345 823f 7b28 863f
00000070: 214e 7a3f e2fc 763f 2619 7c3f ca9a 783f
00000080: b868 7b3f 4025 7b3f 447d 7d3f 4401 7f3f
00000090: aa0c 783f 538c 803f 39f2 823f 233c 813f
000000a0: 401a 7d3f 6710 833f 08ba 743f 09a6 793f
000000b0: 1f78 783f 0b27 7f3f 1ba7 7c3f 4f7e 7a3f
000000c0: 4f5e 7b3f 6068 833f f8df 7a3f 8b92 7b3f
000000d0: 4699 7e3f 8d28 803f 3a73 813f 64f2 7d3f
000000e0: 7fc9 803f d9f1 793f 2510 763f 85c5 7b3f
000000f0: 5d36 793f 8e31 893f eccf 813f 6a69 7c3f
00000100: a7b2 7b3f 6d2b 803f 94a7 783f e6df 7c3f
00000110: 3a2f 793f d383 7c3f 6b0c 7a3f 4e73 823f
00000120: 9353 7f3f a84a 7e3f baec 823f 49af 773f
00000130: 0601 7c3f e56b 783f e643 853f a01b 803f
00000140: 59f9 763f ed24 7e3f 48cd 823f 757a 793f
00000150: 2fbc 7a3f e160 843f 0580 823f 3bdb 763f
00000160: 39db 7a3f a74f 7f3f f064 7a3f debe 7e3f
00000170: 5686 793f f1a9 763f 5961 7c3f d641 843f
00000180: 6480 773f 095e 7a3f c328 7c3f b4cc 7d3f
00000190: 1217 7c3f b83b 7c3f 23d0 7b3f c0a2 813f
000001a0: bf3f 803f 4992 773f 1112 803f d880 7d3f
000001b0: 692c 7b3f f78f 753f 2112 7a3f 6c5b 7f3f
000001c0: e243 7a3f 6c20 7c3f 92f2 793f f797 773f
000001d0: 1e4d 7a3f 3256 843f 9022 7c3f 2303 833f
000001e0: 69d4 883f 9fc2 7f3f 7b63 833f 4cdd 853f
000001f0: 7eb9 823f 9086 7e3f 36e6 7b3f a99f 793f
1.0215758 0.9747766 0.9845688 1.01362 0.965703 0.9653457 0.9648822 0.9835722
0.9919408 0.98243326 0.9708907 0.9767589 0.98382324 0.9745389 1.0290565 1.0380465
1.0100665 0.9692321 0.9921066 0.99664444 0.9622581 0.97475976 0.9881948 0.9728293
0.97914094 0.98725915 1.0177444 1.0481104 0.97775465 0.9647962 0.98475873 0.9711119
0.98206663 0.98103714 0.99019265 0.99611306 0.96894324 1.0042824 1.023017 1.0096477
0.9886818 1.0239381 0.9559636 0.97518975 0.9705829 0.9966895 0.9869248 0.9784898
0.9819078 1.0266228 0.97998 0.9827048 0.99452627 1.0012375 1.0113289 0.99197984
1.0061492 0.97634655 0.96118385 0.98348266 0.97348577 1.0718248 1.0141578 0.9859835
0.98319477 1.0013252 0.97130704 0.9877914 0.97337687 0.9863865 0.976752 1.0191438
0.997369 0.99332666 1.0228493 0.9675184 0.9843906 0.97039634 1.0411346 1.000843
0.96474224 0.99275094 1.0218897 0.9745248 0.97943395 1.0342065 1.0195318 0.9642827
0.9799076 0.99730915 0.9781027 0.9950999 0.97470605 0.9635306 0.9858604 1.0332592
0.96680284 0.97799736 0.984997 0.9914048 0.984727 0.98528624 0.98364466 1.0127792
1.0019454 0.9670759 1.0005513 0.99024725 0.9811464 0.959228 0.9768391 0.99748874
0.9775983 0.9848697 0.9763576 0.96716255 0.9777392 1.0338805 0.9849024 1.0235332
1.0689822 0.99906343 1.0264734 1.045816 1.0212858 0.99424076 0.9839815 0.9750925

mlp.4.bias f4 [128]
00000000: 2d1d a53b e80f e4bc f247 e3b9 2176 9f3c
00000010: 8d27 b4bc 0e0a 24bd 0427 15bd 46a5 32bc
00000020: 16ae 0e3c 889f 6ebc 0546 fcbc 77de 83bc
00000030: 3aed 80bc 1189 d2bc de12 413c 0d0a 7e3c
00000040: f5fa fa3b 3826 f2bc 4f7f 62bc 4ee5 f8bb
00000050: a72a c6bc bc46 96bc 622d 11bb c80d 69bc
00000060: 0384 babc 8f88 9ebc f05c 483c a908 c93b
00000070: a39f 2539 d0be b5bc 1e6a 0bbc 809a 87bc
00000080: 46f0 ffbc 9f45 fabb 0944 73bc 7614 91ba
00000090: a20b a6bc 846b ca3b dce7 52bc 2021 5abb
000000a0: 1b97 0abc e7fc 67bc f51d 9abc cc94 a0bc
000000b0: b130 8fbb 6209 8ebc f16f 17bc 1084 b1bc
000000c0: e3fc a4bc 48d2 6abc 2c75 17bd d667 bebc
000000d0: 8680 58bb f88b 27bb 0551 19bd 3499 60bb
000000e0: 0aeb 373c b707 b4bc 806f 19bc d7fe 9fbc
000000f0: cc0a 8cbc 8e7c 853c f2db a8ba 77b0 45bc
00000100: 3d75 8abc efc6 073d 0a9f d3bc a4db 83bb
00000110: 3e13 0fbc 5cdd 29bc 3a6d 20bc b03a 4f38
00000120: ec6b d03b ad1e c2bc fd05 c7bb c060 afbc
00000130: 970f 78bb 9875 85bc bd21 173d 2d54 debb
00000140: 7e69 a9bc 57b7 3cbc 3216 a23b 942b f8bc
00000150: 73a4 2ebc 90e5 463c 744f ccbb 5b44 08bd
00000160: 2c06 843a 2e6d a5bc 1f7d e0bc 5e63 bbbc
00000170: 5691 f0bb 64fb fcbc d0ed 3dbc 29fd f73c
00000180: b963 ebbc 12ec f9bb 2d4c 6abc 1689 fabb
00000190: 4918 06bc c27b 76bc 2f3a 41bb 6475 843c
000001a0: 2a00 37ba 77c2 cebc 23f3 87bc 086b 81bc
000001b0: 3200 c7bc 680f 40bd 85c5 13bc 8e28 3e3b
000001c0: 1326 30bc 2a34 85bc a8b7 d9bc da31 32bc
000001d0: 457f 87bc b6b2 9a3c 8b3e 9abc ae64 38ba
000001e0: 5caa 103d 3a91 b43b fdf0 b1bc 245d 643d
000001f0: a1ca 8bbc 6102 78bb 6cd5 acbc 4756 d7bc
0.0050388784 -0.027839616 -0.00043350417 0.019465508 -0.021991516 -0.04004865 -0.03641416 -0.010903662
0.0087084975 -0.014564402 -0.030795107 -0.01609729 -0.015738118 -0.025700124 0.011784283 0.015505326
0.007659311 -0.02955924 -0.013824298 -0.0075956946 -0.02419026 -0.018344276 -0.0022152294 -0.014224477
-0.022768026 -0.019352226 0.012229189 0.0061350656 0.00015795096 -0.022185713 -0.008509187 -0.016553164
-0.031242501 -0.007637694 -0.014847764 -0.001106872 -0.020269219 0.0061773676 -0.012872662 -0.0033283904
-0.008458878 -0.014159418 -0.018813113 -0.019602202 -0.004369818 -0.017338458 -0.0092429975 -0.021669418
-0.020140117 -0.0143323615 -0.03697698 -0.023242872 -0.003303559 -0.0025565606 -0.037430782 -0.0034271004
0.011225471 -0.021976335 -0.009364963 -0.019530697 -0.017094992 0.016294744 -0.0012882932 -0.012065998
-0.016901607 0.033148702 -0.025832672 -0.004023986 -0.008732615 -0.010367718 -0.009791667 4.9407303e-05
0.0063605215 -0.023696268 -0.006073712 -0.021408439 -0.003785109 -0.016291425 0.03689741 -0.006784937
-0.020680185 -0.011518321 0.0049464935 -0.030294217 -0.010659325 0.012139693 -0.0062350575 -0.033268314
0.001007264 -0.020193662 -0.027403412 -0.02287453 -0.007341544 -0.030881591 -0.011592343 0.030272083
-0.028734075 -0.0076270187 -0.014300388 -0.0076457364 -0.008184501 -0.015044155 -0.0029484143 0.016169257
-0.00069809204 -0.025239212 -0.016595429 -0.015798107 -0.024292085 -0.046889693 -0.00901926 0.0029015872
-0.010751265 -0.016260225 -0.026576832 -0.010876143 -0.016540179 0.018884044 -0.018828651 -0.00070340454
0.035318717 0.0055104764 -0.021721357 0.05575289 -0.017064394 -0.0037843215 -0.021097861 -0.026286257

mlp.4.running_mean f4 [128]
00000000: 071f 97bd 173d af3e 2b77 bcbe bf5f 9cbd
00000010: 0793 c0be 8b7e 38bd f8d3 013f 621b 94bd
00000020: 31c0 453e 524c d6be 71c0 2dbe deee abbe
00000030: 8d46 0d3f 586a 88be 902c 87bd f8b9 05be
00000040: 3e48 1f3d f4c9 7abb 45bd bc3e 0383 203f
00000050: 0e77 f2be 1d1a b6bd 59ea 10bf 2560 e4be
00000060: 7665 193c 201f bebd 5655 ddbd 48e4 02be
00000070: 218d 42bf de40 d3be 9b1a b0be 82ce dfbe
00000080: 2dec 673e 4357 8cbe 3daf 243a babc 023f
00000090: ba13 c5be 4d1b fa3e 9499 a3bd afb1 bebd
000000a0: 4882 193e e09f 97bd 8876 06bf 88c6 2dbe
000000b0: dd48 c8be 4353 c3bd e0f4 6bbe 5355 d03d
000000c0: 632d 2cbf d1f2 6bbc 6587 bcbe b7f4 383f
000000d0: 019c 2a3f 72e6 1a3e e949 fdbd 44e2 9cbd
000000e0: 844b ed3e 38ac d0be 8213 e8be 5dff 453e
000000f0: 77e8 aebe 7975 83bd 8381 ae3b 6e91 ddbe
00000100: 1e14 8f3e 6d27 bebd dda4 a13e 48b4 b6bd
00000110: 5d14 c0be 9b48 153e 83de 25bf d0ee 83bd
00000120: ca52 f83e c7ff 293f 935c 17bd 46c3 ac3e
00000130: 565a 033e 1e68 9abe 7527 2fbd dce7 80bd
00000140: fcde 58be de93 0e3f c780 c8bd a0d1 e1ba
00000150: a47d a3be 4af5 26be 16f6 afbc 41a0 1cbd
00000160: f91c e93e 70f5 9fbd e6c7 03be b781 ac3e
00000170: 1c7f a93e dad9 01bf df2c b53d 871b 0f3d
00000180: a398 f5bd 2c6a 95bc d837 7d3e 7778 07be
00000190: dca5 063d 55b3 043e 9fff 84be 27e8 cabc
000001a0: 66f2 e1bd 32ce adbe 2f51 b73e e220 8c3e
000001b0: 7b5a 143e 3ae3 18be 0f08 00bf 698c dbbd
000001c0: eb4f b6be f5d4 c63e 4eb7 f83d 7b76 d8be
000001d0: 785d 5fbe eb4f 94bb f0dc 10be df73 74bd
000001e0: 9833 7f3d 8074 d6bd 2e61 d2bc 4838 a53c
000001f0: 58eb 65be 3f09 683e ec61 3f3f b717 bf3e
-0.07378965 0.34226295 -0.36809668 -0.076354496 -0.37612173 -0.045042556 0.50714064 -0.07231785
0.19311596 -0.41855103 -0.16967942 -0.3358068 0.55185777 -0.26643634 -0.066002965 -0.13059223
0.038887255 -0.0038267346 0.3686315 0.6269991 -0.47356457 -0.088916995 -0.56607586 -0.44604602
0.009362569 -0.092832804 -0.10807292 -0.12782395 -0.75996596 -0.41260427 -0.34395298 -0.4371224
0.22648688 -0.27410325 0.0006282216 0.51069224 -0.38491613 0.48848954 -0.07988277 -0.09311234
0.14991105 -0.074035406 -0.52524614 -0.16970265 -0.3911809 -0.09537365 -0.23042631 0.10172524
-0.67256755 -0.014401154 -0.36822048 0.72248405 0.66644293 0.1512697 -0.12367613 -0.07660344
0.46346676 -0.40756392 -0.45327383 0.19335695 -0.34161732 -0.064188905 0.0053254976 -0.43275017
0.27945036 -0.092848636 0.31571093 -0.08921105 -0.37515536 0.14578478 -0.6479265 -0.06442034
0.48500663 0.6640591 -0.03695352 0.33742732 0.12827429 -0.3015756 -0.04276224 -0.06294224
-0.21178812 0.5569438 -0.09790187 -0.0017228611 -0.31931794 -0.16304508 -0.021479648 -0.038238768
0.45529917 -0.07810485 -0.12869224 0.33692715 0.3310479 -0.5072304 0.08846449 0.03493836
-0.11992004 -0.018239103 0.24728334 -0.13229547 0.03287302 0.12959035 -0.25976273 -0.024768902
-0.11032562 -0.33946377 0.35804126 0.27368838 0.1448764 -0.1493043 -0.50012296 -0.107201405
-0.35607848 0.38834348 0.121443376 -0.42277893 -0.21812999 -0.0045261285 -0.14146781 -0.059680816
0.062305063 -0.10471439 -0.025681105 0.020168439 -0.22453058 0.22659777 0.7475879 0.3732278

mlp.4.running_var f4 [128]
00000000: 08da ec3c 0f32 0a3e 09d9 c53e 3f0b 0b3d
00000010: 0072 6d3e 425e c43e 55be f33e c32e 223d
00000020: c0cf 403d 2fbe 453e 4093 9b3d e386 b63e
00000030: de50 af3f 130c ae3e 17ac ec3c 484a 003d
00000040: a161 733c 0d37 5f3e ca09 ca3e 9b07 a73f
00000050: 3e2b 553f 2c46 6f3d 6120 4b3f 0ca0 113f
00000060: 321a 003e 2f89 233e fe64 1e3d 9493 783c
00000070: ad95 703f a1c7 953e e43c 943d 2ad1 a33e
00000080: 64b1 e83d ad95 8b3d 164f e03c 157a 9c3e
00000090: ed64 673e 26d9 753e 3c48 643e 7172 aa3c
000000a0: 6192 a23d ebbb 2c3c dabc e33e a9e3 e33d
000000b0: 135b 483f 6ba9 dc3b b6ce 073e bd64 8d3d
000000c0: fd83 003f 4121 003d 2196 023e 2201 723e
000000d0: 8816 113f fc07 f53e 4d68 243d e7e3 1d3d
000000e0: c4f7 fb3e 665e b53e 5454 ef3e f5ce 123e
000000f0: 0258 bc3e 6c3e 073c 28eb 183c a9f2 813e
00000100: 6334 6a3e cd35 623c 7e8e 123e 42f4 0c3e
00000110: 9a4b 4d3e 3c5e 783d 0780 8a3f b0e8 203e
00000120: f3c7 813e 4a10 de3e b571 d53c 09bd 6d3e
00000130: 4629 883e a0e9 993e ba9c 593c d4e8 873c
00000140: 1459 a53d 8721 123f 7fc1 123d 55b2 f33d
00000150: d696 273f e913 e83c 0968 933c 896b 523d
00000160: 4497 703e 242e 363c 38c0 353e 3d0b 9e3e
00000170: 7c1f 833e bd4b 273f 16ec 2a3f 7714 6d3c
00000180: c1af 5f3d 28f5 213e 9dcd e13d f125 1a3e
00000190: 2996 7c3d be51 d73e 99cb 383e 996f 523c
000001a0: 8a4d 133c 48b8 0b3f 5f94 883e 1985 953d
000001b0: 50eb dd3d c482 f13d 994a a33e 86bf af3c
000001c0: 4526 c23e 6a0a fd3d 1a24 873e 2f28 943e
000001d0: 01aa d33e 08de 553d 503a b73e 325a 9b3c
000001e0: d67b c53b b123 c33d 42a6 633d 5443 823c
000001f0: 51fb 183d f9f3 a33d 677f 043f 0a66 0f3e
0.02891256 0.13495658 0.38642147 0.033946272 0.23188019 0.38353163 0.4760615 0.039595377
0.047073126 0.1931083 0.07596445 0.35649785 1.3696554 0.33993587 0.028890653 0.03132084
0.0148548195 0.21798344 0.39460593 1.3049196 0.8326911 0.05841653 0.7934628 0.5688484
0.12509993 0.159703 0.038670532 0.015171904 0.9397839 0.29253867 0.072381765 0.31995517
0.113619596 0.06815658 0.027381461 0.3056189 0.22597094 0.24008617 0.2229318 0.020806523
0.07938076 0.01054285 0.4448002 0.11127407 0.7826397 0.0067340634 0.13262448 0.0690398
0.502014 0.031281713 0.12752582 0.23633245 0.56675005 0.47857654 0.04013853 0.038547423
0.49212468 0.35423583 0.46744025 0.1433676 0.36785895 0.008254629 0.009333409 0.25380448
0.22871546 0.013806772 0.14312169 0.13765052 0.20048371 0.060636744 1.0820321 0.15713763
0.25347862 0.43371803 0.026055196 0.23216642 0.2659399 0.30061054 0.013281995 0.016590513
0.08073631 0.5708241 0.035829064 0.118992485 0.6546453 0.028329806 0.017993944 0.051372085
0.23495203 0.011119399 0.17749107 0.3086795 0.25609958 0.6534994 0.6676649 0.014470211
0.05461097 0.15816176 0.11025546 0.15053536 0.06166664 0.42054552 0.18046416 0.01284399
0.008990655 0.54578066 0.26675698 0.07300777 0.10835898 0.1179252 0.3189285 0.02145363
0.37919822 0.12355502 0.2639473 0.28936908 0.4134064 0.0522137 0.35786676 0.018963907
0.0060267253 0.09528292 0.055578478 0.015901245 0.03734905 0.080055185 0.517569 0.14003769

mlp.6.weight f4 [256, 128, 1]
00000000: 5c52 9f3d af4a cd3c a8f5 4abd e320 1fbd
00000010: c94f f2bd 7b43 94bd 02a0 37bd 05fa b7bc
00000020: 4012 4dbb 9ffb c63d 2a8f 89bd 1228 4a3d
00000030: 53cd 863d c6d0 5cbc d24e d63b 6d2f afbc
00000040: 704e 613d c060 1e3d 875f 343c a3bf fc3c
00000050: ee35 263b 1baf 043d 8343 2e3b a284 dfbc
00000060: 0f93 803d 7f1c a6bd b80a a93d 6a4b 4d3b
00000070: f4f3 a3bd 3d37 273d 72f1 c43b 0dcd adbd
00000080: df28 973c accb 21bc 6db6 943d 2a42 9cbd
00000090: 00af 9c3d 8173 da3c 707b 32bd ce5d aebd
000000a0: af09 403d 8eba a93a 7c79 473d 5893 26bd
000000b0: 13b1 9bbd 0d64 7f3d 4db5 c2bc 2a31 863d
000000c0: 1775 993d 52e4 8cba ba08 973d ee9b 253d
000000d0: 40e8 403d d988 d33c a25e 5a3d 1963 b9bd
000000e0: c60d 36bd 4d6c 9b3a 7207 743d ea9c 61bd
000000f0: 3941 99bb e41f e1bd c619 28bd 36f9 c5b9
00000100: a738 3a3c c251 40bd 953c 89bd 4e54 1fbd
00000110: 9093 043d be0d 9dbd 7d96 f3bc c465 d03c
00000120: 36cc 92bd d8a1 b73d 7fe7 ddbd 6e3b 273d
00000130: a18d 263d c4f2 6dbd 04a2 813c 4916 4abd
00000140: 874a 97bd 088e bc3d efa1 9ebd 9261 dd3c
00000150: d5d1 183c bc81 2c3d ea8d a53b abee 713c
00000160: eba9 863d 24a7 bcba 81a8 863d 7244 8cbd
00000170: 0414 c1bc a605 903c 0924 bebc 4858 9c3c
00000180: fbd9 dc3c 95fc 8dbb 69d6 49bd 6036 c2bd
00000190: f6e1 693d fa46 93bd 0755 f5bc 6710 7cbd
000001a0: 0b70 aabd c093 603d dbf0 653c ca1c 80bc
000001b0: 0765 763d e331 5d3d 4f90 923d 97f6 59bc
000001c0: 22d8 4b3d d8a1 993d 6dfd 70bd 9296 33bc
000001d0: 7a01 353b 44e9 41bc de31 dabc cea1 233a
000001e0: 5bad 98bd 0f24 ab3c e049 30bd ed5d 03be
000001f0: 2378 e8bd 3de3 023d ac1d 8ebd 6c0a 913d
00000200: 48ee 943c d946 8dbd dc9e b5bd 17fe 703d
00000210: b617 773d 2353 a3bd 271d 423d 8fd4 8d3c
00000220: fb6a 733b 6a5c 7e3d 6951 9e3d b4ae 2f3c
00000230: 36d0 c73b c112 3e3d a9ec 4e3d 8768 e83d
00000240: 807f 00bd 1666 4d3d d56b a8bd ab7f a0bd
00000250: 9540 013d 90d0 79bd aace afbd ff09 843d
00000260: cb81 243d aa92 023d a0f7 513d 7a43 813c
00000270: aa7f 19bb 1630 2fbd f0dd 4d3c da4c 3f3d
00000280: 106e 61bd fc5a 733b 7626 513b d2af 5a3d
00000290: 5fd6 63bd 5b73 ae3d 3bbd 05bd 564e fa3c
000002a0: a8b3 193d 9242 aa3c 36f5 953d b54b babb
000002b0: a963 2b3d 5375 92bd 6e49 9b3d 05d9 713c
000002c0: 725b 293d 0832 edbc 1fa9 90bd ddae 533d
000002d0: 5303 073d 4ce9 bb3d 0c5c c43d a8be 633d
000002e0: 029c 00bc 49b5 85bd 0531 9a3c 020f c83c
000002f0: 3e2f 92bc d23c b9bd 6acf 1abd 9acb 4c3d
00000300: a4b3 413d bab6 cd3d 54e3 a3bd 9f18 71bd
00000310: 9b73 b83d 6fc1 8b3d feb1 433d 04ff 08bd
00000320: 586f 5d3d 8c0d b93c efe5 abbd 2839 4dbd
00000330: be3e 53bd 4954 9fbb 0742 b3bd 7aef 223d
00000340: 36af 913d a0cb 07bd 81db c53d 0010 713b
00000350: ad6c c8bd 8415 773d 7f26 69bc 8754 39bd
00000360: e2ae 9ebc 6a3c 983d 8b92 eabb 7cf9 9abd
00000370: 727b 53bd e658 52bd a17c a2bb 6b9c a8bd
00000380: 1819 b13c 7249 1ebd d9f6 023d e6da 8fbd
00000390: 17d3 5ebc b2fd aabd 07f4 bdbd 2f33 143c
000003a0: 92eb c1bc 5c18 613c 2440 4ebd 7167 c4bc
000003b0: 70f7 a6ba 310c 56bc 5013 c93c a198 863d
000003c0: 395b 3abd 6f24 833d 6e9e 4a3d bebd 6abd
000003d0: b2a3 5fbd 1908 db3d 0da8 103d 1dd5 483d
000003e0: 1736 39bd 20e2 c43d 26de a33b 847e 4cbc
000003f0: db2f 483d 4f49 52bd a8d7 89bd b423 86bc
0.07779381 0.025060026 -0.049550682 -0.038849723 -0.11831624 -0.072394334 -0.04483033 -0.022458086
-0.0031291395 0.09715962 -0.067167595 0.04935462 0.06582131 -0.01347751 0.006540158 -0.021384919
0.055006444 0.038666487 0.011009104 0.030853098 0.0025361734 0.032393556 0.0026590533 -0.027284924
0.06278049 -0.08110904 0.082539976 0.0031325468 -0.08005515 0.040824164 0.006010228 -0.08486376
0.018452106 -0.009875219 0.072613575 -0.07629807 0.07650566 0.026666405 -0.04357475 -0.085139856
0.046884235 0.0012949274 0.04869984 -0.04066786 -0.076021336 0.062351275 -0.023768092 0.06552346
0.07493036 -0.0010749197 0.07374711 0.04043191 0.04709649 0.02582209 0.053312905 -0.090521045
-0.04444673 0.0011857838 0.059577413 -0.055081286 -0.0046769646 -0.10992411 -0.041040204 -0.00037760445
0.011366046 -0.04695297 -0.06701008 -0.03889876 0.03236729 -0.07668637 -0.029734844 0.02543915
-0.071678564 0.08966416 -0.1083517 0.04082816 0.04066241 -0.058092847 0.015824325 -0.04933766
-0.07387262 0.09206778 -0.0774573 0.027024064 0.009327372 0.04211591 0.005052318 0.0147663755
0.06575378 -0.0014393074 0.06575108 -0.068489924 -0.023569115 0.017580818 -0.023210542 0.019085065
0.02695941 -0.0043330886 -0.049276743 -0.094830275 0.05710026 -0.07191272 -0.02994777 -0.06153908
-0.08322152 0.054828405 0.014034475 -0.015638728 0.06015494 0.054002654 0.07156431 -0.0133034205
0.049766667 0.07501572 -0.058835436 -0.010961192 0.0027619288 -0.0118354 -0.026635107 0.00062420673
-0.0745494 0.020891218 -0.043039203 -0.12828799 -0.11351039 0.031954993 -0.06939253 0.07082066
0.018180028 -0.06898279 -0.08868191 0.05883607 0.060325347 -0.079748414 0.047391083 0.01731327
0.0037142623 0.06209985 0.077303715 0.010722805 0.0060978187 0.046404604 0.050518665 0.11348062
-0.031371593 0.050146185 -0.08223692 -0.07836851 0.03155573 -0.060989916 -0.0858434 0.06447219
0.040162843 0.03187815 0.051261544 0.015779246 -0.002342204 -0.042770468 0.012565121 0.04670415
-0.055036604 0.0037133088 0.0031913794 0.05339033 -0.055624362 0.08518096 -0.032651167 0.030554932
0.03752485 0.020783696 0.07322161 -0.0056852945 0.04184309 -0.07151284 0.07582365 0.014761214
0.041346975 -0.02895452 -0.07063507 0.051680434 0.032962155 0.09175357 0.09587869 0.055601746
-0.007849695 -0.06528718 0.018822202 0.024421219 -0.017844792 -0.09044804 -0.03779546 0.049998857
0.04729046 0.10044618 -0.08002344 -0.05886137 0.09006425 0.06824004 0.04777717 -0.033446327
0.054061264 0.022589467 -0.08393466 -0.050103337 -0.051573507 -0.0048623425 -0.08752828 0.039779164
0.07113497 -0.033153176 0.09661008 0.0036783218 -0.09786353 0.060323253 -0.01423037 -0.045246627
-0.0193705 0.07433398 -0.0071585826 -0.075671166 -0.0516314 -0.05135431 -0.0049587046 -0.08232959
0.021618411 -0.03864426 0.031973694 -0.070241734 -0.013600132 -0.0834917 -0.0927506 0.009045406
-0.023671899 0.013738718 -0.050354138 -0.023975106 -0.0012738537 -0.01306443 0.024545342 0.065720804
-0.045497153 0.064034335 0.049467497 -0.05730986 -0.05459947 0.10694904 0.035316516 0.049031366
-0.0452176 0.096134424 0.0050008474 -0.012481336 0.048873764 -0.051339444 -0.06730586 -0.016374446

mlp.7.weight f4 [256]
00000000: 614c 863f 538e 863f 34d0 833f f3a7 833f
00000010: ce8e 853f 1c46 863f 1dc3 853f 28f9 823f
00000020: 0e69 843f 6c02 863f 73bb 853f cff3 823f
00000030: 4e0a 843f af9d 843f 04e0 853f 0b20 853f
00000040: e3e1 863f 09a9 853f eae5 853f 0e03 853f
00000050: 678a 813f b6c7 843f bc05 863f 6421 853f
00000060: e41d 853f ab23 843f 65cf 853f eaa6 843f
00000070: a738 863f 07b7 863f a939 843f b1e0 863f
00000080: 4320 833f 1668 843f 1837 853f 75bb 843f
00000090: 9a23 853f de88 843f c909 843f 053f 853f
000000a0: b545 853f 15cf 833f 5774 843f bf27 823f
000000b0: 33d4 843f 2aa5 823f 9344 813f 849c 853f
000000c0: 59c2 843f 0f58 843f eef8 843f 8055 843f
000000d0: 314b 843f 7732 833f 79ff 853f 0f09 843f
000000e0: 8cba 833f f82e 853f 0a2e 843f c90f 863f
000000f0: dfd7 853f 2e2b 873f 5977 843f d255 833f
00000100: a44f 843f 7022 853f 7707 853f c764 843f
00000110: 6140 853f b71b 863f cad5 853f cb30 863f
00000120: 392f 833f 1a6f 843f 72b5 833f 30c5 833f
00000130: f4bc 853f 9e81 843f be97 853f 650c 823f
00000140: 4090 843f 878f 843f 5629 843f e256 853f
00000150: aca7 843f 0f78 843f 14ee 853f 8622 863f
00000160: 880d 833f b093 863f 0113 843f c1f6 833f
00000170: 0197 823f a14f 863f 647a 833f 2f09 853f
00000180: cd5c 833f 5a79 843f a923 863f 7fe9 853f
00000190: bb47 853f 960e 853f 8557 843f 9912 843f
000001a0: 4dd0 843f cd11 863f 37cc 853f 9b9a 863f
000001b0: 8d70 843f 547e 853f 24d8 853f 9751 853f
000001c0: ca44 853f 9c08 873f 352f 843f 0f46 843f
000001d0: 6022 853f cc23 823f 5503 863f 4127 843f
000001e0: 0518 863f a530 843f 2668 853f a758 853f
000001f0: a9b9 833f 9d5b 843f 1e55 863f 5ab3 843f
00000200: 5c87 843f e6d6 843f 0b62 843f 6e64 833f
00000210: 34ea 833f d062 853f e261 863f 70ee 823f
00000220: 2a10 883f 0b1b 863f bbda 853f 65fd 833f
00000230: 3585 833f 19ce 853f 8da6 843f 9ef7 853f
00000240: 8af9 853f 4b69 863f 2ee9 853f c40c 863f
00000250: 4932 883f 938e 853f b948 853f 6517 843f
00000260: 550a 853f 5ce0 853f 0f31 853f 2385 823f
00000270: 38da 823f 8a2e 833f 4c9b 843f d6bb 853f
00000280: 0bb1 803f f0a7 833f 6c7d 843f 9add 853f
00000290: fbf8 843f d5d0 843f 11dc 823f 6643 853f
000002a0: b301 853f 6c58 843f 7171 853f 0d7f 843f
000002b0: 1bd3 853f c03b 853f 5e4a 853f 848d 853f
000002c0: 43a2 823f 2bb7 853f b7b0 853f 16b0 833f
000002d0: 004c 843f f837 813f ea2a 853f bd60 843f
000002e0: 2056 813f 4940 843f 57a3 843f 00c0 843f
000002f0: 85b6 843f 21c8 843f 78d1 843f 261f 873f
00000300: f816 833f f4ce 863f 1ab3 833f 32b6 863f
00000310: f81d 843f bd06 843f 97b5 833f b0cf 843f
00000320: 8987 873f 576f 823f ca3b 863f 3b8d 853f
00000330: ef76 843f 3aed 853f 2bf0 843f 2c1c 863f
00000340: 4a49 853f 217a 863f 1e18 863f b915 833f
00000350: 3b59 853f d010 863f 6eb1 863f 01a4 843f
00000360: bb7c 853f 1ead 843f 5c7a 843f d421 843f
00000370: 5973 833f b4cf 843f 9241 863f 6227 853f
00000380: a611 853f 46e0 843f 0813 853f 6389 853f
00000390: 1eb8 833f 040f 833f 4798 843f 4026 853f
000003a0: 2395 843f 28a8 853f 095c 843f 0732 843f
000003b0: d3af 853f 1896 853f b9de 833f 12e5 833f
000003c0: e1ef 843f 0916 863f 5adc 843f ee2b 843f
000003d0: ff59 863f a244 853f 4080 843f e79d 843f
000003e0: 4504 863f dbf2 823f 1fee 823f 1d30 843f
000003f0: adba 833f def4 853f db1d 863f e2ad 863f
1.0492059 1.0512184 1.0297914 1.0285629 1.0434206 1.0490146 1.0450169 1.0232286
1.034456 1.0469489 1.044783 1.0230654 1.0315645 1.0360621 1.0458989 1.0400404
1.0537685 1.044221 1.0460789 1.0391557 1.0120362 1.0373447 1.04705 1.0400815
1.0399747 1.0323385 1.0453917 1.0363438 1.0486039 1.0524606 1.0330096 1.053732
1.024422 1.0344265 1.0407438 1.0369707 1.040149 1.0354269 1.0315486 1.0409857
1.0411898 1.0297571 1.0348004 1.016838 1.0377258 1.0206654 1.0099052 1.043839
1.037181 1.0339373 1.0388467 1.0338593 1.0335447 1.0249776 1.0468589 1.0315264
1.0291305 1.0404959 1.032655 1.0473567 1.0456504 1.0560052 1.0348922 1.0260565
1.0336804 1.0401134 1.0392903 1.0343255 1.0410272 1.0477208 1.0455868 1.048364
1.0248786 1.0346406 1.0289748 1.0294552 1.0448289 1.0352056 1.0436933 1.0160033
1.0356522 1.0356301 1.0325115 1.041714 1.0363669 1.0349139 1.0463281 1.0479286
1.0238504 1.0513821 1.03183 1.0309678 1.0202333 1.0493051 1.0271726 1.0393428
1.0262696 1.0349534 1.0479633 1.0461882 1.0412515 1.0395076 1.0339209 1.0318176
1.0376068 1.0474182 1.0452946 1.0515932 1.0346848 1.0429177 1.0456586 1.0415524
1.0411618 1.0549502 1.0326906 1.033388 1.0401115 1.0167174 1.0469767 1.0324479
1.047608 1.0327345 1.0422409 1.041768 1.0291034 1.0340458 1.0494726 1.0367234
1.0353808 1.0378082 1.034242 1.0265024 1.0305848 1.042078 1.0498621 1.0229015
1.0629933 1.0477003 1.0457376 1.0311705 1.0275027 1.0453521 1.0363327 1.0466192
1.0466778 1.0500883 1.0461786 1.0472646 1.0640346 1.0434135 1.0412818 1.031964
1.0393778 1.0459094 1.0405596 1.019688 1.0222845 1.0248578 1.0359893 1.0447948
1.0054029 1.0285625 1.0350776 1.0458252 1.0388483 1.037623 1.0223409 1.0411193
1.0391144 1.0339484 1.0425245 1.0351273 1.0455049 1.0408859 1.041332 1.0433812
1.0205768 1.0446523 1.0444554 1.0288112 1.0335693 1.0095205 1.0403721 1.0342022
1.0104408 1.0332118 1.0362347 1.0371094 1.03682 1.0373574 1.0376425 1.0556381
1.0241385 1.0531907 1.0289032 1.0524352 1.0321646 1.0314556 1.0289792 1.0375881
1.0588237 1.0190228 1.0486996 1.0433725 1.0348796 1.0463021 1.0385793 1.0477347
1.0412991 1.0506021 1.047611 1.0241004 1.0417856 1.0473881 1.0522897 1.036255
1.042869 1.0365331 1.0349841 1.0322824 1.0269576 1.0375886 1.048876 1.0402644
1.0396011 1.0380943 1.0396433 1.0432552 1.0290563 1.0238957 1.0358971 1.0402298
1.0358013 1.0441942 1.0340587 1.0327767 1.0444282 1.043643 1.0302345 1.0304282
1.0385705 1.0475475 1.0379746 1.0325906 1.0496215 1.041157 1.0351639 1.0360688
1.0470053 1.0230364 1.0228919 1.0327183 1.0291344 1.0465353 1.0477861 1.0521815

mlp.7.bias f4 [256]
00000000: ccf3 673d 0a7b 8a3d 180d 0d3d b6f5 863d
00000010: f577 713d 16df 923d 5f4f 623d e62c 0a3d
00000020: b31e 423d 2c28 503d e8c8 773d 3af8 d33c
00000030: bdfc 843d 27b9 833d a9f2 813d 9032 553d
00000040: e15a 8b3d a8f3 923d 01d1 8d3d 08d5 0b3d
00000050: 5d27 cf3c 0242 243d 34ea 733d c363 423d
00000060: bafc 6d3d d0de 163d c0e7 803d 8caa 1e3d
00000070: d541 993d 71df 6d3d cb21 2d3d e70d 7e3d
00000080: cc51 fa3c 0098 163d 3bf8 763d 20a6 283d
00000090: f8e1 4d3d 8429 1a3d 7de8 493d 5b77 733d
000000a0: 32f8 983d 44a4 fb3c 0961 2e3d 4710 bd3c
000000b0: 879d 1b3d 69a9 013d f0cb a83c 693e 813d
000000c0: 4214 283d 505e 193d de14 8d3d a535 1b3d
000000d0: f047 013d 8c4a e13c 9463 883d cc1d 873d
000000e0: 0ee1 0d3d f0dd 4a3d ffa9 1a3d 7e3e 8e3d
000000f0: 295b 833d f691 7a3d 07da 843d f3ac 0f3d
00000100: 4d90 0a3d 2c0e 2e3d 148b 223d 54f8 0f3d
00000110: b49e 8d3d 8356 603d 2eff 833d 0ffe 2f3d
00000120: d702 d33c c72a 1c3d b037 183d c06e 053d
00000130: 7f5c 823d 94cb 7d3d 1ef3 833d 5a3c 323d
00000140: d125 5e3d 539d 193d 68ab 173d 4409 2f3d
00000150: a5b8 403d cd42 333d 6445 8f3d 464a 983d
00000160: 47f5 b63c 4523 873d 2d27 4d3d d950 023d
00000170: 4827 dd3c 4eee 8b3d bb91 f03c 7a45 9b3d
00000180: 21ea d33c 6a88 113d 19d6 6a3d 126b 443d
00000190: 6167 8c3d ba7f 783d ec83 513d 5312 243d
000001a0: beec 283d 1f08 7d3d a178 4d3d eb10 8f3d
000001b0: e320 e23c 2ed3 7a3d ea82 5d3d f04d 863d
000001c0: f6fc 603d 3900 743d 96f8 233d a830 9a3d
000001d0: fe09 a73d 4f78 ce3c 056a 763d e6c9 213d
000001e0: a62b 913d 44d1 7e3d dd07 7b3d f14f 823d
000001f0: 9446 153d d22d 353d e079 803d 37ba 2a3d
00000200: c6a3 713d f397 493d a3cc ff3c 7553 0a3d
00000210: 0ac1 ee3c 80c1 633d 2af1 8f3d 44df d63c
00000220: 3368 8b3d d629 4f3d 15ca 833d bccb 163d
00000230: 8be1 1e3d 7e1b 743d 406f 243d 8754 873d
00000240: 1495 8c3d f623 8a3d db54 8c3d 5652 8a3d
00000250: 6187 813d ce05 963d 003f 933d 7317 6a3d
00000260: 575b 2b3d 9fdf 523d f0c2 873d 9436 ef3c
00000270: 827a 1e3d dcbd 163d ec52 443d 95e1 863d
00000280: bf62 663c f76f 073d f554 203d 2b16 6e3d
00000290: a0fc 7f3d 96d5 763d 8357 203d 2c98 843d
000002a0: d09e 313d ae79 2c3d 8102 663d d2b2 823d
000002b0: 8a12 ba3d 5ddd 283d c41b 943d 26cd 693d
000002c0: 7cd5 ea3c 9163 8b3d e09e 793d 0304 1c3d
000002d0: 493e 283d 2303 dd3b 7d01 603d 88af 1c3d
000002e0: a40a c43c 2022 1d3d dc08 8b3d 2d75 3a3d
000002f0: 5b88 143d 75e3 333d 3ae0 233d aca2 953d
00000300: 5d23 bd3c abc7 553d a6e4 0f3d ccfe 6e3d
00000310: 1863 263d a41c 003d 3663 923d a916 293d
00000320: 96f8 643d eb7b d53c 864b 8e3d 75e4 8b3d
00000330: 68f7 2d3d f526 993d efc6 9a3d e697 963d
00000340: 9c60 723d 4c82 443d 1537 5c3d 2f77 f33c
00000350: 5849 753d 4784 a63d 1c96 9a3d ed18 453d
00000360: 87e4 7e3d 6c05 303d faa4 123d a982 983d
00000370: e03a e13c 5dc0 763d e348 7e3d fe9c 533d
00000380: 980d 473d ccf0 5a3d ff1f 313d f857 5e3d
00000390: 88d8 c13c 6921 433d 5370 7a3d f0cb 373d
000003a0: d335 393d 09b8 9f3d 6712 1d3d 7ce6 0d3d
000003b0: cbbe 733d 221c 8f3d cf70 153d e7f1 103d
000003c0: 4603 7f3d d64c 8c3d 8be6 8f3d b166 423d
000003d0: 273f 913d 4464 2d3d 1084 183d 712f 2f3d
000003e0: 7db8 893d a3ee d63c dd8a 9d3c d154 223d
000003f0: ae98 1f3d d269 843d cd72 583d e82d 753d
0.056628987 0.06761749 0.034436315 0.065898344 0.05895229 0.071714565 0.055251475 0.033734225
0.04739256 0.05081956 0.060494334 0.0258752 0.064935185 0.064317994 0.06345112 0.052050173
0.06804443 0.0717538 0.0692463 0.03413871 0.025287325 0.040102012 0.059549525 0.04745842
0.058102347 0.036833584 0.06294203 0.038736865 0.074832596 0.05807442 0.042268556 0.062024977
0.030556582 0.036766052 0.060295325 0.041174054 0.05026433 0.03763725 0.049293984 0.059439998
0.074692145 0.030717976 0.04257301 0.02307905 0.037992027 0.031655703 0.020605057 0.06310732
0.041034944 0.03744346 0.06888746 0.037892956 0.031562746 0.027501367 0.06659618 0.0659748
0.034638457 0.049528062 0.037759777 0.06945513 0.06413872 0.061174355 0.06486898 0.035077047
0.033829022 0.042493984 0.039683416 0.035148934 0.06915036 0.054770004 0.06445156 0.0429669
0.02575819 0.038126733 0.037162483 0.032576323 0.063652985 0.061961725 0.06442855 0.043514587
0.054235283 0.03750355 0.0370287 0.042733446 0.04705109 0.043764878 0.06995657 0.074360415
0.022333754 0.06598524 0.05008619 0.031815384 0.02699627 0.068325624 0.029366365 0.07581611
0.025868477 0.035530485 0.057333086 0.047953673 0.068556555 0.060668685 0.0511512 0.040056538
0.0412414 0.061775323 0.05016387 0.06985649 0.027603572 0.061236553 0.054079928 0.06557834
0.054928742 0.059570525 0.040031992 0.07528812 0.08156203 0.025203852 0.0601597 0.039499186
0.070884034 0.06221129 0.061286796 0.06362904 0.03644426 0.04423315 0.06273246 0.041681495
0.058994077 0.049217176 0.031225508 0.033770997 0.029144783 0.055604458 0.0702842 0.026229508
0.06806984 0.050577007 0.064350285 0.03681539 0.038789313 0.05959653 0.04014516 0.06607919
0.06864372 0.0674514 0.068521224 0.067539856 0.063246496 0.07325326 0.07189751 0.05715127
0.041835155 0.051482793 0.06628978 0.02920083 0.03869105 0.036802158 0.047930643 0.06585995
0.014061629 0.033065762 0.03914352 0.05812661 0.06249678 0.060262285 0.039145958 0.06474337
0.043364346 0.04210823 0.05615473 0.063817635 0.09085567 0.041226733 0.072318584 0.05708041
0.02866625 0.068061 0.06094253 0.038089763 0.041075025 0.0067447587 0.05468892 0.038253337
0.023930855 0.038362622 0.06788799 0.045521904 0.03626285 0.04391809 0.04000876 0.07306418
0.023088152 0.05219237 0.035130166 0.058348462 0.040621847 0.031277314 0.07147829 0.041281376
0.055901133 0.026060065 0.06947999 0.06830684 0.042472273 0.074781336 0.07557475 0.07353191
0.059174165 0.047975823 0.053763468 0.029719917 0.0598844 0.08130699 0.07548162 0.048119474
0.06222966 0.04297392 0.035801865 0.074467964 0.027493894 0.060242046 0.06208123 0.05166339
0.04859695 0.053452298 0.043243404 0.054283112 0.02366282 0.047639284 0.061142277 0.044872224
0.045217346 0.07798774 0.038347628 0.034643635 0.059508126 0.06987788 0.036484536 0.035386946
0.06225898 0.06850593 0.070263945 0.047461215 0.070921235 0.04233195 0.03723532 0.042769853
0.067246415 0.026236838 0.019231254 0.03963167 0.038963966 0.06465496 0.052843858 0.059858233
