checkpoints/pointnet_masked_ts.pt (torch, 864562 bytes, 20 tensors)

weight f4 [64, 3, 1]
0	0x3ee955b5	0.45573202
1	0x3e1d688b	0.15371911
2	0xbcb5d6b1	-0.0221971
3	0x3ed06d62	0.40708452
4	0x3e85c621	0.26127723
5	0x3e285a56	0.1644071
6	0x3edf0297	0.43556663
7	0xbcb9032a	-0.022584517
8	0xbee6d84e	-0.45086902
9	0xbe1b9270	-0.1519258
10	0x3f0c8b2f	0.5489988
11	0xbef99a36	-0.48750466
12	0xbed6caf3	-0.41951713
13	0x3e640a5b	0.22269575
14	0x3eeba12a	0.46021396
15	0xbe581c38	-0.21104515
16	0xbe6c1964	-0.23056561
17	0x3ea9120f	0.3302159
18	0x3e34dac8	0.17661583
19	0xbdbc0b4c	-0.09181842
20	0xbe5ed890	-0.217623
21	0x3dac2103	0.08404734
22	0xbef698a2	-0.48163325
23	0xbe4a075a	-0.19729367
24	0x3f072f5b	0.52806634
25	0xbe6831d7	-0.22675262
26	0xbf01adde	-0.50655925
27	0x3d767126	0.0601665
28	0x3a94331b	0.0011306735
29	0x3e516853	0.20449953
30	0xbea42fe1	-0.3206778
31	0xbd9f91a3	-0.0779145
32	0xbede5e0e	-0.43431133
33	0xbd8fd87b	-0.07023712
34	0xbeef86da	-0.4678257
35	0x3dfc57c8	0.123214304
36	0xbebf82df	-0.37404534
37	0xbe1f6d8f	-0.15569137
38	0xbec2e066	-0.38061827
39	0xbe989026	-0.29797477
40	0x3f12e4de	0.57380474
41	0x3e9bcc5e	0.30429357
42	0xbefad036	-0.48986977
43	0x3bbc0b36	0.005738641
44	0xbec3adfc	-0.38218677
45	0xbd93c2c4	-0.07214883
46	0xbeaf28cd	-0.34210816
47	0xbe02eaca	-0.12784877
48	0xbe2d4c45	-0.16923626
49	0xbc293938	-0.010328583
50	0x3ef6d9fc	0.48213184
51	0x3ea7ab53	0.32747898
52	0x3b6927fa	0.0035576806
53	0xbf0769c4	-0.5289576
54	0x3e4e301c	0.2013554
55	0xbea414d5	-0.32047144
56	0x3ef6f862	0.48236376
57	0x3d4b0f81	0.049575333
58	0x3f1f9547	0.62337154
59	0xbe8f75be	-0.28019518
60	0x3f01141b	0.50421304
61	0xbef38d8a	-0.47568923
62	0x3ebb171e	0.36541075
63	0x3e2027a4	0.15640122
64	0xbbc8e389	-0.00613064
65	0x3d2c52bb	0.042071085
66	0x3ecd4b52	0.40096527
67	0xbe69ce5b	-0.22832625
68	0xbdc3911c	-0.09549162
69	0x3ee93673	0.45549354
70	0x3ecdeb69	0.40218666
71	0x3ec6e080	0.38843155
72	0x3e390990	0.18070054
73	0x3f0f445e	0.55963695
74	0x3e475d66	0.19469222
75	0x3e8d3468	0.27579045
76	0x3e86cf34	0.26329958
77	0x3e086f65	0.13323744
78	0xbe8a200b	-0.26977572
79	0x3bcb0c4f	0.0061965357
80	0xbe24bdb0	-0.16087985
81	0xbe882f97	-0.26598808
82	0x3e5e9b2d	0.21738882
83	0xbf091793	-0.53551596
84	0x3e7a7236	0.2445763
85	0x3eb2dfe7	0.3493645
86	0x3eba1cb1	0.36350015
87	0x3da77dc1	0.081782825
88	0x3e56c489	0.2097341
89	0x3d5f785d	0.054558147
90	0x3ea52936	0.32258004
91	0xbecf55fe	-0.40495294
92	0xbec94ff1	-0.39318803
93	0x3d87c442	0.0662923
94	0x3ed2e7ba	0.41192418
95	0x3ec4fb2e	0.38472885
96	0x3ec46e60	0.3836546
97	0x3ebea4e4	0.37235177
98	0x3ecbe030	0.3981948
99	0x3efc6e70	0.49303007
100	0xbd8bfa33	-0.06834831
101	0xbe61ddb7	-0.22057234
102	0x3e50524a	0.20343891
103	0x3f0f7239	0.56033665
104	0xbe2d44e0	-0.16920805
105	0x3ee04648	0.4380362
106	0xbe29513b	-0.16534893
107	0xbeedf379	-0.46474817
108	0xbbaa94b1	-0.0052057137
109	0xbe82d675	-0.25554243
110	0xbea48763	-0.32134542
111	0x3ead6630	0.33867025
112	0x3dbeaa45	0.0930982
113	0x3e123b20	0.14280367
114	0x3e94a7d2	0.29034287
115	0xbeb4282c	-0.351869
116	0xbd51bff4	-0.05120845
117	0xbd6e0840	-0.058113337
118	0xbe80a141	-0.25123027
119	0x3eb729c8	0.35774064
120	0xbdd01004	-0.10159305
121	0xbefd04ef	-0.49417827
122	0x3ec40e00	0.3829193
123	0x3e9df8be	0.30853838
124	0xbe94fd26	-0.29099387
125	0x3e6805da	0.22658482
126	0x3f0812a6	0.53153455
127	0xbe1d0ac1	-0.15336134
128	0x3e5c78d8	0.21530473
129	0xbe5b75e9	-0.21431698
130	0x3f0f6b90	0.560235
131	0x3d327846	0.043571733
132	0x3e39a7aa	0.18130365
133	0xbef680d8	-0.48145175
134	0xbe536d9e	-0.20647284
135	0xbf061e92	-0.52390397
136	0xbe8a51cd	-0.27015534
137	0x3f0663bb	0.52495927
138	0xbe7b814e	-0.24561045
139	0xbe289fe9	-0.16467251
140	0x3ebca797	0.3684661
141	0x3edfa116	0.43677586
142	0x3ed0ba03	0.40766916
143	0x3ead686d	0.33868733
144	0xbdc571f7	-0.09640878
145	0xbcd4e45c	-0.025987796
146	0x3ead832e	0.33889145
147	0x3ef12a19	0.4710243
148	0x3de5ca76	0.11220257
149	0xbed3eeba	-0.4139307
150	0xbe8e074a	-0.27739936
151	0x3dc12863	0.09431531
152	0xbd89a164	-0.06720236
153	0x3e863ed7	0.26219818
154	0x3c596c61	0.013270468
155	0xbe7a5e7b	-0.24450104
156	0x3c817935	0.015804866
157	0xbe8bfcfe	-0.27341455
158	0xbeaa8e2d	-0.33311597
159	0xbeb7983b	-0.3585833
160	0xbeb5361b	-0.35392842
161	0x3f060a1d	0.5235918
162	0xbdaac490	-0.083382726
163	0xbe4f1141	-0.20221426
164	0xbdcd8d5c	-0.10036728
165	0xbde5d8e2	-0.11223008
166	0xbe1e0e4d	-0.15435143
167	0xbe270d43	-0.16313653
168	0xbe514fee	-0.20440647
169	0xbee68394	-0.4502226
170	0xbc90dad9	-0.01768248
171	0xbf102032	-0.56299126
172	0xbe830944	-0.25593007
173	0x3efcc598	0.49369502
174	0xbe34505a	-0.17608777
175	0xbedf2db2	-0.4358955
176	0xbe88eece	-0.26744694
177	0x3dac1221	0.08401895
178	0x3eed2fd7	0.4632556
179	0xbe34c39f	-0.17652749
180	0xbd9f5d8d	-0.07781515
181	0xbc6381ed	-0.013885957
182	0x3e91cf66	0.28478545
183	0xbee36d3c	-0.44419277
184	0xbef97ba1	-0.48727134
185	0xbef05dfc	-0.46946704
186	0xbe55e243	-0.20887093
187	0xbea3e8a8	-0.3201344
188	0xbf014aaf	-0.50504583
189	0x3e4776a1	0.19478847
190	0x3f0e2dc6	0.55538595
191	0x3d80a76c	0.06281933

weight f4 [64]
0	0x3f7a0890	0.97669315
1	0x3f80fb0e	1.0076616
2	0x3f7f8f1c	0.9982774
3	0x3f7c0091	0.98438364
4	0x3f7616e3	0.9612867
5	0x3f7a5351	0.9778338
6	0x3f7cb04c	0.9870651
7	0x3f7fcb58	0.9991965
8	0x3f807f47	1.0038842
9	0x3f863452	1.0484717
10	0x3f80b834	1.0056214
11	0x3f7c88fc	0.9864652
12	0x3f7d9ef3	0.9907066
13	0x3f7a7bf4	0.9784539
14	0x3f803b84	1.0018163
15	0x3f7c3e0c	0.98532176
16	0x3f810f4c	1.0082793
17	0x3f859775	1.0436846
18	0x3f7b465d	0.9815424
19	0x3f7fb930	0.9989195
20	0x3f7e624f	0.99368757
21	0x3f807590	1.0035877
22	0x3f7def80	0.99193573
23	0x3f8060e1	1.0029565
24	0x3f7e3102	0.9929353
25	0x3f79a30f	0.9751443
26	0x3f77b86c	0.9676578
27	0x3f77f8f3	0.9686424
28	0x3f7c261f	0.9849567
29	0x3f8049df	1.0022544
30	0x3f79aaaa	0.9752604
31	0x3f77e32b	0.96831006
32	0x3f7cc963	0.9874479
33	0x3f7f012d	0.9961117
34	0x3f774a34	0.965976
35	0x3f7a91bc	0.97878623
36	0x3f7db71b	0.9910752
37	0x3f7f3fa5	0.9970649
38	0x3f802b82	1.0013278
39	0x3f7d9e7b	0.99069947
40	0x3f7fbe66	0.998999
41	0x3f81ffdd	1.0156208
42	0x3f7fe299	0.99955136
43	0x3f7aecbb	0.9801747
44	0x3f7ca585	0.9869006
45	0x3f80e0d2	1.006861
46	0x3f7b8487	0.98249096
47	0x3f781679	0.9690929
48	0x3f7f1247	0.99637264
49	0x3f7cef1e	0.98802364
50	0x3f7cf05c	0.9880426
51	0x3f800624	1.0001874
52	0x3f7cf107	0.9880528
53	0x3f8090c8	1.0044184
54	0x3f7f619b	0.9975831
55	0x3f7d582e	0.98962677
56	0x3f7fc0c9	0.9990354
57	0x3f8001f7	1.00006
58	0x3f80417e	1.0019987
59	0x3f795fa9	0.9741159
60	0x3f7e76a7	0.993998
61	0x3f7e383a	0.99304545
62	0x3f7f871b	0.9981553
63	0x3f7b3f2b	0.9814326

bias f4 [64]
0	0xb9bf0837	-0.0003643648
1	0x3be49bf9	0.006976601
2	0xbb54d688	-0.0032476503
3	0xbca26ddd	-0.019827778
4	0xbbff815e	-0.007797404
5	0xbd0edcde	-0.034878604
6	0xbb4849d6	-0.0030561588
7	0xbc035da1	-0.008017928
8	0xbbdfec66	-0.006833601
9	0x3dfbc1ee	0.122928485
10	0x3bc466e0	0.005993709
11	0xbd0583d2	-0.032596417
12	0xbaa3bffd	-0.001249313
13	0x3bf31e2e	0.007419369
14	0x3cfe6df4	0.03105829
15	0x3c01410b	0.007889043
16	0x3cf36fa8	0.029716328
17	0x3de7516d	0.112948276
18	0xbcabad7b	-0.020956745
19	0x38594612	5.180209e-05
20	0x3bf9f6e1	0.007628307
21	0xbc84c8db	-0.016209057
22	0xbb8bcf28	-0.0042666383
23	0xbc92c488	-0.017915979
24	0xbbfb85d0	-0.007675864
25	0x3a85260e	0.0010158436
26	0xbcec265f	-0.02882689
27	0xbc13d1db	-0.009022201
28	0xbcdc7d0d	-0.026915098
29	0xbc2846bd	-0.010270772
30	0xbccc5f50	-0.024947792
31	0xbc860163	-0.016358083
32	0xbbe0b2c0	-0.006857246
33	0xbcccff4b	-0.025024077
34	0xbc021ffa	-0.007942194
35	0xbd09b1a2	-0.03361667
36	0x3b323749	0.0027193597
37	0xbb8ee553	-0.0043608337
38	0x3bd72148	0.0065652467
39	0xbca9d2b0	-0.020730346
40	0xbc9f894d	-0.01947465
41	0x3b8a9fff	0.004230499
42	0x3b2e89e0	0.0026632473
43	0xba5e9bd5	-0.0008491849
44	0xbcca022b	-0.024659237
45	0xbae1fd89	-0.0017241697
46	0xbd0465bd	-0.032323588
47	0xbb6ca7bb	-0.0036110717
48	0x3b1fe44f	0.0024397557
49	0xbb50f754	-0.00318857
50	0x3bb2498b	0.005440896
51	0x3d450375	0.048099
52	0xbc8ba7bb	-0.017047754
53	0xbc5f2abd	-0.013621029
54	0x3ae57393	0.0017505757
55	0xbc460b3e	-0.012087641
56	0xbc0490c5	-0.008091156
57	0xbcacc7d6	-0.021091383
58	0xbc1570d9	-0.009121143
59	0xbcbcdac4	-0.023053534
60	0xbc5b3d1f	-0.013381272
61	0xbc0d25be	-0.0086149555
62	0x3bc2d677	0.0059459764
63	0xbc5167dc	-0.01278111

running_mean f4 [64]
0	0x4643d750	12533.828
1	0x46a943e7	21665.951
2	0xc5004419	-2052.256
3	0x473177c7	45431.777
4	0x46917a62	18621.191
5	0xc6938b03	-18885.506
6	0xc5f1f429	-7742.52
7	0xc71c2535	-39973.207
8	0xc693a283	-18897.256
9	0x4317c3a3	151.7642
10	0xc5d10cd7	-6689.605
11	0xc71710a8	-38672.656
12	0xc64d68d7	-13146.21
13	0x47396e17	47470.09
14	0x43b4fd77	361.9802
15	0xc6dd6171	-28336.72
16	0xc44b7944	-813.8948
17	0x436f1ba2	239.10794
18	0xc6cebe30	-26463.094
19	0x4748cf98	51407.594
20	0xc71993f6	-39315.96
21	0xc3f73e48	-494.48657
22	0xc69288e0	-18756.438
23	0x4702ebc5	33515.77
24	0x4735c167	46529.402
25	0x46a9cbb4	21733.852
26	0x43e12e84	450.3634
27	0x468b9d3a	17870.613
28	0x46e3da76	29165.23
29	0x4687d6fc	17387.492
30	0xc7035bf9	-33627.973
31	0x4705fb58	34299.344
32	0x46f1afc8	30935.89
33	0xc5b214aa	-5698.583
34	0x47349c86	46236.523
35	0xc657c5cb	-13809.448
36	0xc6a60468	-21250.203
37	0x45fe6286	8140.3154
38	0xc6e330ff	-29080.498
39	0xc6a2d143	-20840.63
40	0xc71f6495	-40804.582
41	0xc6bbb3c6	-24025.887
42	0xc64473b8	-12572.93
43	0x4735f2cf	46578.81
44	0xc71c1241	-39954.254
45	0xc6adfe1a	-22271.05
46	0xc652adcb	-13483.448
47	0x47050cd6	34060.836
48	0xc4fd2693	-2025.2054
49	0x46106d70	9243.359
50	0x45f6f476	7902.5576
51	0x44874ddd	1082.4332
52	0xc6b20459	-22786.174
53	0xc6e46e36	-29239.105
54	0xc68321c1	-16784.877
55	0xc6487d28	-12831.289
56	0xc7123b70	-37435.438
57	0xc6a49501	-21066.502
58	0xc70d9304	-36243.016
59	0x4716da5b	38618.355
60	0xc4645966	-913.39685
61	0xc71ddaa4	-40410.64
62	0xc6d0067c	-26627.242
63	0x47341f74	46111.453

running_var f4 [64]
0	0x4c751098	6.424227e+07
1	0x4d3713b1	1.9197006e+08
2	0x49d2a4ae	1.7255898e+06
3	0x4e49c0cd	8.4621395e+08
4	0x4d070b21	1.4160334e+08
5	0x4d0b6c0c	1.4619462e+08
6	0x4bbad886	2.4490252e+07
7	0x4e1bdda9	6.537488e+08
8	0x4d0aff66	1.457496e+08
9	0x4624785a	10526.088
10	0x4b8b3773	1.8247398e+07
11	0x4e11fd51	6.123244e+08
12	0x4c86a90b	7.060079e+07
13	0x4e5bb5f8	9.2153395e+08
14	0x47ac23e0	88135.75
15	0x4d9ca301	3.2849104e+08
16	0x48960c2b	307297.34
17	0x4748c15b	51393.355
18	0x4d890bba	2.874059e+08
19	0x4e810365	1.0822417e+09
20	0x4e170e70	6.3357645e+08
21	0x47c96c63	103128.77
22	0x4d092166	1.4379171e+08
23	0x4ddb0368	4.593042e+08
24	0x4e533e15	8.860153e+08
25	0x4d3835d0	1.931584e+08
26	0x47b80a0d	94228.1
27	0x4cfa566d	1.31249e+08
28	0x4da5dde9	3.4784797e+08
29	0x4cebf0ec	1.2370109e+08
30	0x4ddc6ba5	4.6225526e+08
31	0x4de56419	4.810678e+08
32	0x4dba7f47	3.9111293e+08
33	0x4b4a32e4	1.32513e+07
34	0x4e50a70c	8.751521e+08
35	0x4c9460ef	7.7793144e+07
36	0x4d2ff56b	1.8450603e+08
37	0x4bcfe954	2.7251368e+07
38	0x4da503fa	3.4606266e+08
39	0x4d29fc78	1.7824346e+08
40	0x4e22accb	6.823083e+08
41	0x4d619e45	2.3657787e+08
42	0x4c775e5a	6.4846184e+07
43	0x4e53d0ca	8.8841894e+08
44	0x4e1bb9a7	6.5315885e+08
45	0x4d4231c9	2.0362766e+08
46	0x4c8e4762	7.459509e+07
47	0x4de25064	4.746149e+08
48	0x49d0df3b	1.7110794e+06
49	0x4c063f7d	3.5192308e+07
50	0x4bc38839	2.5628786e+07
51	0x48f533c4	502174.12
52	0x4d4a66f8	2.1223411e+08
53	0x4da749af	3.50828e+08
54	0x4cdbc365	1.1521924e+08
55	0x4c805f13	6.7303576e+07
56	0x4e08d178	5.738573e+08
57	0x4d2db420	1.8214144e+08
58	0x4e001b86	5.3732186e+08
59	0x4e11c036	6.1132326e+08
60	0x48d1db54	429786.62
61	0x4e1f21d1	6.674484e+08
62	0x4d8a174f	2.8959792e+08
63	0x4e4f8d14	8.7053235e+08

weight f4 [128, 64, 1]
0	0xbc031a89	-0.008001932
1	0xbd561685	-0.05226757
2	0x3cb4f6b0	0.022090286
3	0xbd9f28b1	-0.07771433
4	0xbaa353bb	-0.0012460867
5	0xbd8b2346	-0.06793837
6	0x3da920bd	0.082581975
7	0xbdc16975	-0.094439425
8	0x3d07ad64	0.033124343
9	0x3d071162	0.032975562
10	0x3df25109	0.118318625
11	0x3dfc9665	0.12333373
12	0xbdd53d60	-0.10412097
13	0xbdd71455	-0.10501925
14	0x3d916007	0.07098394
15	0x3db04663	0.08607175
16	0x3c35f7da	0.011106456
17	0xbe2453ab	-0.16047542
18	0x3e005525	0.1253248
19	0x3d3472df	0.044054862
20	0xbdd9c8fa	-0.10634036
21	0x3d793a59	0.06084666
22	0x3d8fc140	0.070192814
23	0x3d8885f2	0.06666173
24	0xbdb67b0e	-0.089101896
25	0x3c2ffe50	0.010741785
26	0xbba76f21	-0.005109683
27	0xbe032754	-0.12807971
28	0x3d07daa8	0.03316751
29	0x3b61216d	0.0034352199
30	0xbde0e423	-0.109810136
31	0x3daf25c6	0.085521266
32	0x3dd6f33f	0.10495614
33	0x3ca5d580	0.020243406
34	0x3dce50e7	0.10074025
35	0x3dcbf5ce	0.09958993
36	0x3d907d60	0.070551634
37	0xbe08e6cf	-0.13369296
38	0x3e03fdc3	0.12889771
39	0x3c561bab	0.01306812
40	0x3d074f70	0.033034742
41	0x3dc74cc8	0.09731442
42	0x3d961cbb	0.07329699
43	0xbd44424d	-0.04791479
44	0xbde4e2d1	-0.11176074
45	0xbd808652	-0.062756196
46	0xbd8ee4a7	-0.06977206
47	0x3d588f48	0.05287102
48	0x3d000b5d	0.031260837
49	0x3c6904c0	0.014222324
50	0xbd7cbac0	-0.061701536
51	0xbd9b0aae	-0.07570396
52	0xbd81113a	-0.06302114
53	0x3c912513	0.017717874
54	0xbcbd26bf	-0.023089765
55	0xbdd3f75d	-0.10349915
56	0xbc752725	-0.014962946
57	0xbdded567	-0.10880547
58	0xbdbb4c93	-0.09145465
59	0xbdb92392	-0.090399876
60	0x3d5b699e	0.05356752
61	0x3d3aa50a	0.04556755
62	0xbd219279	-0.039446328
63	0x3bbf4b21	0.0058378135
64	0x3b692a79	0.0035578294
65	0x3d8f0444	0.069832355
66	0x3db4d55d	0.08829758
67	0xbc8eb05c	-0.01741808
68	0x3dddc0aa	0.108277634
69	0x3b6b072a	0.0035862424
70	0x3d145463	0.03621329
71	0x3c3ad5d2	0.011403518
72	0x3dae7204	0.085178405
73	0xbd4181ac	-0.047242805
74	0x3de5ffab	0.112304054
75	0x3df1d76f	0.11808669
76	0x3e12d035	0.14337237
77	0x3dc5129c	0.0962269
78	0xbd451591	-0.04811627
79	0xbdbd1a75	-0.09233562
80	0xbcd17fe7	-0.025573684
81	0xbcac28d4	-0.021015562
82	0xbd4721c9	-0.048616204
83	0xbdab94a6	-0.08377962
84	0xbc9f0c55	-0.01941506
85	0xbd90958a	-0.07059772
86	0xbdb029fc	-0.08601758
87	0x3d14b93f	0.036309477
88	0x3d17072b	0.03687207
89	0x3de2dbaf	0.110770576
90	0x3e2370ea	0.15961042
91	0xbdfea5c6	-0.124339625
92	0x3cbe6ee6	0.02324624
93	0x3ded142f	0.11576115
94	0x3df75293	0.12076297
95	0xbdf72138	-0.12066883
96	0x3de2dd2b	0.11077341
97	0x3d4eaba3	0.050456654
98	0xbca9d402	-0.020730976
99	0xbba95d57	-0.0051685977
100	0x3d946418	0.07245654
101	0xbd64e5cd	-0.055883218
102	0xbdab6b78	-0.083701074
103	0xbda413fc	-0.08011624
104	0x3d622822	0.055214055
105	0x3dcf3a15	0.101185
106	0xbd46e97b	-0.048562508
107	0xbc376ab6	-0.011194875
108	0x3bc5945a	0.006029648
109	0x3df4c30e	0.11951266
110	0x3c1a14ae	0.0094043445
111	0xbda1abd8	-0.07894105
112	0x3bcc0657	0.0062263417
113	0xbc1f2dc6	-0.009715503
114	0xbc7936fe	-0.015210865
115	0xbda849ab	-0.08217176
116	0x3e068920	0.13138247
117	0x3db0e73c	0.086378545
118	0x3d51c062	0.05120886
119	0xbd3c005e	-0.045898788
120	0x3d72ae09	0.059248004
121	0xbc60969d	-0.013707784
122	0x3d2b6c19	0.041851137
123	0xbdbcff93	-0.092284344
124	0x3ddea875	0.108719744
125	0x3d7459ba	0.059655882
126	0xbd40840b	-0.047000926
127	0x3c8e964d	0.017405653
128	0x3c9aabd9	0.018880771
129	0x3c07318c	0.008251559
130	0xbd45594a	-0.048180856
131	0xbd4f5058	-0.05061373
132	0x3deb8dc4	0.11501649
133	0xbd540fd3	-0.051772904
134	0x3dd62ba3	0.10457542
135	0xbd6b2947	-0.057412412
136	0xbe01190e	-0.12607214
137	0x3db021dc	0.08600208
138	0xbde9e1a7	-0.11419993
139	0xbdcc2609	-0.09968192
140	0x3db2b78c	0.08726415
141	0x3deb7823	0.11497524
142	0x3c5df3f4	0.0135469325
143	0x3d8e8f67	0.069609456
144	0x3df727fd	0.12068174
145	0x3c2995e4	0.010350678
146	0xbbce2709	-0.0062912744
147	0xba9de6fc	-0.0012046988
148	0x3d4290d1	0.04750139
149	0x3d5275b3	0.051381778
150	0xbca5a154	-0.020218529
151	0x3d8f8634	0.07008019
152	0xbd919ab5	-0.07109586
153	0x3ceed21c	0.029152922
154	0x3dbf74b3	0.093484305
155	0xbe01a16d	-0.12659235
156	0xbde52432	-0.11188544
157	0xbafdf901	-0.0019376577
158	0xbcc4f976	-0.024044733
159	0xbd14ca24	-0.03632559
160	0xbbef65d0	-0.007305838
161	0x3c852e4a	0.016257424
162	0xbce4c050	-0.027923733
163	0x3d17b5c1	0.03703857
164	0xbd1b122c	-0.037859127
165	0x3d60ccde	0.054882877
166	0x3bbc8d66	0.0057541607
167	0x3d6b8ae1	0.057505492
168	0xbd178141	-0.0369885
169	0x3d892e15	0.066982426
170	0xbddd161d	-0.107952334
171	0x3cbde84b	0.023182055
172	0xbe07cf3e	-0.1326265
173	0xbce8e6e3	-0.028430408
174	0xbdb279c7	-0.087146334
175	0xbdd66236	-0.10467951
176	0xbd896bc4	-0.06710008
177	0x3d3ba92b	0.045815628
178	0xbd92cb3c	-0.0716767
179	0x3b917ab4	0.004439676
180	0xbcb28a72	-0.021794531
181	0x3d38ec3c	0.045147166
182	0xbdea7113	-0.114473484
183	0xbc511043	-0.012760225
184	0xbdbf8cf6	-0.09353058
185	0xbd9c2ba5	-0.07625512
186	0xbd435221	-0.047685746
187	0x3daf0a9a	0.08546944
188	0xbe02adce	-0.12761614
189	0xbb4ab2d2	-0.003092934
190	0xbe02e229	-0.12781586
191	0xb97d38c5	-0.00024149109
192	0xbdcd885c	-0.10035774
193	0x3dfc86bf	0.12330388
194	0xbdc5ca1e	-0.096576914
195	0x3d4758ff	0.048668858
196	0xbd010033	-0.03149433
197	0x3d32b573	0.043630075
198	0x3d1777bd	0.036979426
199	0xbd9d0a11	-0.07667936
200	0xbd90d916	-0.07072656
201	0x3cdce36e	0.026963916
202	0x3d9b1798	0.075728595
203	0x3dff55a2	0.12467505
204	0xbd224858	-0.039619774
205	0x3d9400de	0.07226728
206	0xbd673281	-0.05644465
207	0xbda0574a	-0.07829149
208	0x3df03a48	0.11729866
209	0xbe1e8820	-0.15481615
210	0x3dbc610a	0.09198196
211	0x3d197765	0.03746738
212	0xbdcde149	-0.10052735
213	0x3d292cc5	0.04130246
214	0xbcb016a4	-0.02149517
215	0xbd3c4699	-0.045965765
216	0xbdcc72ff	-0.09982871
217	0x3d2ad0aa	0.041702904
218	0xbdc40537	-0.09571307
219	0x3dc3bcee	0.0955752
220	0x3dbb837f	0.0915594
221	0xbd0c59d0	-0.03426534
222	0x3dbcfba6	0.09227686
223	0xbcbd3e0b	-0.023100873
224	0xbd983fce	-0.07434045
225	0xbbffc8d5	-0.0078059235
226	0x3da61f5a	0.081114486
227	0xbd6fde25	-0.058561463
228	0x3d5c6b29	0.053813133
229	0x3d489967	0.04897442
230	0xbd2fd748	-0.042929918
231	0xbc47b790	-0.012189761
232	0x3d1d1e86	0.038359188
233	0xbd1c2f6b	-0.03813116
234	0xbdde819c	-0.10864565
235	0x3d9458ae	0.07243477
236	0x3d89a3b6	0.067206785
237	0xbd8c0336	-0.0683655
238	0xbda3925a	-0.07986899
239	0xbd542879	-0.05179641
240	0x3dd76a5c	0.10518333
241	0xbdb1cbff	-0.08681487
242	0x3da7500a	0.08169563
243	0x3d34b0b7	0.04411384
244	0x3cbfa8be	0.023395892
245	0xbd734e2d	-0.059400726
246	0xbdc3272f	-0.09528958
247	0xbde7c280	-0.11316395
248	0xbda934cf	-0.082620256
249	0xbda7372f	-0.08164822
250	0xbd132dbb	-0.035932284
251	0xbd387d78	-0.04504153
252	0x3a0ea204	0.00054410123
253	0xbc8e3387	-0.017358555
254	0x3ddd9089	0.108185835
255	0xbd9b8624	-0.07593945

weight f4 [128]
0	0x3f801c27	1.0008591
1	0x3f78e44c	0.97223353
2	0x3f76f05c	0.9646051
3	0x3f7e00c7	0.99219936
4	0x3f71eb34	0.94499516
5	0x3f72344b	0.9461104
6	0x3f760cc3	0.9611322
7	0x3f837ad5	1.027186
8	0x3f7eae37	0.9948458
9	0x3f7828a7	0.9693703
10	0x3f76d512	0.9641887
11	0x3f792fce	0.9733857
12	0x3f7bb03d	0.98315793
13	0x3f76ff22	0.9648305
14	0x3f82bce8	1.02139
15	0x3f84731a	1.0347626
16	0x3f7fb3cf	0.9988374
17	0x3f8349f7	1.0256947
18	0x3f7814e2	0.96906865
19	0x3f782e57	0.9694571
20	0x3f75733c	0.9587896
21	0x3f7cb3f2	0.98712075
22	0x3f7902fc	0.9727018
23	0x3f74234f	0.95366377
24	0x3f7502a0	0.9570713
25	0x3f788e25	0.97091895
26	0x3f814faf	1.0102443
27	0x3f80ddcc	1.0067687
28	0x3f772b1f	0.9655017
29	0x3f720c4a	0.9455
30	0x3f76556f	0.9622411
31	0x3f72190f	0.94569486
32	0x3f793878	0.9735179
33	0x3f80de10	1.0067768
34	0x3f7bf3ef	0.9841909
35	0x3f8044d7	1.0021008
36	0x3f737217	0.9509596
37	0x3f7e6850	0.9937792
38	0x3f84335d	1.0328175
39	0x3f7d6d66	0.98995054
40	0x3f790c72	0.97284615
41	0x3f8408a1	1.0315133
42	0x3f87c9bb	1.0608438
43	0x3f72fa32	0.9491302
44	0x3f79468c	0.9737327
45	0x3f84a4d4	1.0362802
46	0x3f7d21d6	0.98879755
47	0x3f745d96	0.954553
48	0x3f76e197	0.9643797
49	0x3f7d03b3	0.9883377
50	0x3f7ee85b	0.99573296
51	0x3f7a35db	0.97738427
52	0x3f7a6086	0.97803533
53	0x3f76bdcd	0.96383363
54	0x3f7ca026	0.9868187
55	0x3f74d35e	0.9563502
56	0x3f8404ce	1.0313966
57	0x3f787afe	0.9706267
58	0x3f6cd30d	0.9250954
59	0x3f759749	0.9593397
60	0x3f758e9a	0.9592072
61	0x3f896c50	1.0736179
62	0x3f80b30f	1.0054644
63	0x3f7f7461	0.99786955
64	0x3f733198	0.9499755
65	0x3f7b65eb	0.9820239
66	0x3f767662	0.9627439
67	0x3f78e35b	0.97221917
68	0x3f7956cb	0.9739806
69	0x3f7fd7fb	0.99938935
70	0x3f74161c	0.95346236
71	0x3f82917b	1.0200647
72	0x3f7b3479	0.9812694
73	0x3f7f0ba6	0.9962715
74	0x3f7ffc27	0.9999413
75	0x3f765452	0.9622241
76	0x3f7dd3e6	0.99151456
77	0x3f707a8e	0.93937004
78	0x3f814ac5	1.0100943
79	0x3f70ed92	0.94112504
80	0x3f81573b	1.0104746
81	0x3f7cd326	0.98759687
82	0x3f7cde8c	0.9877708
83	0x3f7aa14d	0.97902375
84	0x3f75dcc5	0.9603999
85	0x3f8300f3	1.0234665
86	0x3f73e84d	0.9527634
87	0x3f7dd8fe	0.9915923
88	0x3f799d4c	0.9750564
89	0x3f7ce981	0.987938
90	0x3f7430fa	0.9538723
91	0x3f7e4f4d	0.99339753
92	0x3f79dc49	0.97601753
93	0x3f78af78	0.97142744
94	0x3f7bc154	0.9834187
95	0x3f7a0bb3	0.976741
96	0x3f7e278d	0.992791
97	0x3f77f0eb	0.96851987
98	0x3f799fee	0.9750966
99	0x3f7bf2a0	0.9841709
100	0x3f757242	0.9587747
101	0x3f768d95	0.9630979
102	0x3f82cccc	1.0218749
103	0x3f87efb5	1.0620028
104	0x3f8d20e7	1.1025666
105	0x3f703bb5	0.93841106
106	0x3f7c1f19	0.9848495
107	0x3f7ec4fd	0.9951933
108	0x3f7b4a84	0.98160577
109	0x3f6d7593	0.9275753
110	0x3f79b930	0.975482
111	0x3f85d308	1.0455027
112	0x3f75dc7e	0.9603957
113	0x3f794073	0.97363967
114	0x3f735f66	0.9506744
115	0x3f770b43	0.9650156
116	0x3f78944f	0.971013
117	0x3f831858	1.0241804
118	0x3f77f5be	0.9685935
119	0x3f83be48	1.0292444
120	0x3f8a409f	1.0800971
121	0x3f7a2cd5	0.9772466
122	0x3f8a8198	1.0820799
123	0x3f871155	1.0552164
124	0x3f87b58f	1.0602282
125	0x3f749a8d	0.95548326
126	0x3f78213c	0.9692571
127	0x3f7614ea	0.9612566

bias f4 [128]
0	0x3cf1857f	0.029482601
1	0xbd25d8f7	-0.040490117
2	0xbc338e3a	-0.010959202
3	0xbb2a024d	-0.0025941313
4	0xbc9dea02	-0.019276623
5	0xbd77c59a	-0.060491182
6	0xbd539269	-0.0516533
7	0x3c92c212	0.017914806
8	0xbb8b14ad	-0.004244408
9	0xbc3bc667	-0.011460877
10	0xbd00f9e7	-0.031488325
11	0xbc96980e	-0.018383052
12	0xbcb00108	-0.021484867
13	0xbd6d7a9a	-0.05797825
14	0x3d052eb7	0.032515254
15	0x3c09c79f	0.00840941
16	0xbc295b2f	-0.010336681
17	0x3c48b1ab	0.012249391
18	0xbd36a5f7	-0.04459187
19	0xbd535170	-0.051591337
20	0xbc45ce9e	-0.012073187
21	0xbc7eda4c	-0.015554976
22	0xbc869a79	-0.01643108
23	0xbcfd06e0	-0.030887067
24	0xbd50d69c	-0.050985917
25	0xbcf630ef	-0.03005263
26	0x3c5775c2	0.013150634
27	0xbc3f4468	-0.011674024
28	0xbbf74ffd	-0.007547377
29	0xbd388685	-0.045050163
30	0xbd332e25	-0.04374518
31	0xbd044c1c	-0.032299146
32	0xbd28c408	-0.041202575
33	0x3c854901	0.016270163
34	0xbd3a58e5	-0.045494933
35	0xbcba8ff7	-0.022773726
36	0xbd197127	-0.037461426
37	0xbccf710e	-0.025322463
38	0xba957c21	-0.0011404791
39	0xbd00ecf5	-0.03147598
40	0xbcab4a57	-0.020909471
41	0xbb2dd54f	-0.0026524847
42	0x3ca40acd	0.020024681
43	0xbd2aa7fb	-0.041664105
44	0xbb97b2da	-0.004629475
45	0x3c9444af	0.018099157
46	0xbc9541ef	-0.018219916
47	0xbd02fc0e	-0.03197866
48	0xbcb6706d	-0.022270406
49	0xbd826dcb	-0.063685976
50	0xbc932e0b	-0.017966291
51	0xbd0e44c2	-0.03473354
52	0xbcc0db7f	-0.023542164
53	0xbd27388b	-0.040825408
54	0xbcd5c8b5	-0.026096681
55	0xbd1aff7c	-0.037841305
56	0xba6a2256	-0.0008931508
57	0xbcffb241	-0.031212928
58	0xbd74c832	-0.059761234
59	0xbcaacbe1	-0.02084917
60	0xbd0dfb86	-0.0346637
61	0x3d011412	0.03151328
62	0xbb4196e0	-0.0029539391
63	0x3aaa28ee	0.0012982169
64	0xbd583b77	-0.052791085
65	0xbc3816c0	-0.011235893
66	0xbd333c7a	-0.043758847
67	0xbba00811	-0.004883774
68	0xbb964465	-0.00458579
69	0xbc17bba8	-0.009261049
70	0xbd5d5fd0	-0.054046452
71	0x3be363a2	0.0069393674
72	0xbc99a8c5	-0.018757233
73	0xbc80ac64	-0.015707202
74	0xbd3bdf0a	-0.045867004
75	0xbd2c545d	-0.042072643
76	0xbcd7ce9d	-0.026343638
77	0xbd1f9714	-0.03896244
78	0x3a20cdb5	0.00061341684
79	0xbd2adb8d	-0.041713286
80	0x3b68dd6b	0.0035532366
81	0xbd102d73	-0.035199594
82	0xbc71f2c3	-0.014767352
83	0xbd0fe612	-0.03513152
84	0xbd2727c6	-0.040809415
85	0x3a89b89c	0.0010507288
86	0xbc9d55e8	-0.019206002
87	0xbcb47334	-0.02202759
88	0xbd08e5ef	-0.033422407
89	0xbcb798a9	-0.022411661
90	0xbd39b77b	-0.045340996
91	0xbcdffd83	-0.027342563
92	0xbcde2594	-0.027117528
93	0xbd19faaa	-0.037592568
94	0xbcb85c58	-0.02250497
95	0xbc8d8e44	-0.017279752
96	0x3c45e524	0.012078557
97	0xbce26031	-0.027633758
98	0xbd099736	-0.03359147
99	0xbcc86b36	-0.024465185
100	0xbd1896c5	-0.03725316
101	0xbd1368f4	-0.035988763
102	0xbc168fed	-0.009189588
103	0x3d96a8fc	0.0735645
104	0x3dad980c	0.08476266
105	0xbd3e5484	-0.04646732
106	0xbd286df4	-0.041120484
107	0xbcd9bdd9	-0.026579784
108	0xbd0317b2	-0.03200502
109	0xbd997b2a	-0.07494195
110	0xbc007af0	-0.007841811
111	0x3c729cb6	0.014807871
112	0xbd10d25f	-0.035356876
113	0xbd417bc6	-0.04723718
114	0xbd037dc2	-0.032102354
115	0xbccf553a	-0.025309194
116	0xbcb62c86	-0.022238027
117	0x3baf0ba5	0.0053419643
118	0xbd15fce0	-0.036618114
119	0x39c906ed	0.00038342868
120	0x3baa1891	0.005190917
121	0xbca69d59	-0.020338701
122	0x3d3f1851	0.04665405
123	0x3cc1c02b	0.023651203
124	0x3c9a86a7	0.018863035
125	0xbd8240fb	-0.0636005
126	0xbced86aa	-0.028994877
127	0xbd823294	-0.06357303

running_mean f4 [128]
0	0xbd8e0d2a	-0.069361046
1	0x3ed3a13c	0.4133395
2	0xbe9c0cf3	-0.3047863
3	0xbe4b25ff	-0.19838713
4	0xbee0aebb	-0.4388331
5	0xbe28e69f	-0.16494225
6	0x3eecc20a	0.4624179
7	0xbe304f58	-0.17217767
8	0xbe0ca1b2	-0.13733557
9	0xbea18b6b	-0.3155168
10	0x3ace0e8e	0.001572089
11	0xbead50bf	-0.33850667
12	0x3f2ca333	0.6743652
13	0x3e8dd0c3	0.27698335
14	0xbe70c385	-0.23512085
15	0xbde1b90f	-0.11021625
16	0xbe8dcc93	-0.2769514
17	0xbe9509de	-0.2910909
18	0x3e8b8748	0.2725165
19	0x3eed9ac8	0.4640715
20	0xbf06a5c0	-0.52596664
21	0xbe3264f8	-0.17421329
22	0xbe8f4cdd	-0.2798833
23	0xbf3c840d	-0.73638994
24	0x3eb85bfb	0.36007676
25	0xbec9b174	-0.39393198
26	0xbe3723c3	-0.17884736
27	0xbe39b564	-0.18135601
28	0xbf36b094	-0.71363187
29	0xbee67626	-0.45012015
30	0xbec044f1	-0.37552598
31	0xbf18f892	-0.5975429
32	0x3eed7390	0.4637723
33	0xbe46001b	-0.19335978
34	0x3ed5ee00	0.41783142
35	0x3f1071c6	0.56423604
36	0xbe9039d6	-0.28169125
37	0x3f1d0f1a	0.6135117
38	0xbe4cbc8e	-0.19993803
39	0xbe093e5a	-0.13402691
40	0xbe977f5f	-0.29589364
41	0xbe6730a6	-0.22577152
42	0xbe855e59	-0.26048544
43	0xbeb0c7f2	-0.34527546
44	0xbe5f76fb	-0.21822731
45	0xbe559227	-0.20856534
46	0xbe0aa33a	-0.13538828
47	0xbe50bb0a	-0.2038385
48	0xbef9094f	-0.48639914
49	0x3e855437	0.26040813
50	0xbedcd651	-0.4313226
51	0x3f3d9355	0.74052936
52	0x3f1699dc	0.5882852
53	0x3cac30ac	0.021019302
54	0xbe76976a	-0.24081197
55	0xbe6b1862	-0.2295852
56	0xbe89e4dc	-0.26932418
57	0xbdc2933d	-0.0950074
58	0xbf117611	-0.5682078
59	0xbe4c07bc	-0.19924825
60	0xbefcc4d7	-0.49368927
61	0xbe628585	-0.22121246
62	0xbcb422fd	-0.02198934
63	0xbe83256a	-0.25614482
64	0xbe1f7d08	-0.1557504
65	0xbe7ef96d	-0.24899836
66	0x3ed62939	0.41828325
67	0xbef3f209	-0.47645596
68	0xbeeccd97	-0.46250603
69	0xbdd7f479	-0.10544676
70	0xbe8b2f6a	-0.27184612
71	0xbe5e6377	-0.2171763
72	0x3ecd52b2	0.40102154
73	0x3e2b211c	0.16711849
74	0xbe455643	-0.19271187
75	0x3e977cb0	0.29587317
76	0x3e77ecc6	0.24211416
77	0xbeeebe2a	-0.4662946
78	0xbe4dfb89	-0.20115484
79	0xbf0df66d	-0.5545414
80	0xbe2279aa	-0.15866724
81	0x3f505514	0.8137982
82	0x3bf3cb0e	0.0074399775
83	0x3ee21957	0.44159958
84	0xbee966df	-0.45586297
85	0xbe4e8d0a	-0.2017099
86	0xbea27a2d	-0.31733838
87	0xbeabf2fa	-0.33583814
88	0x3f0c185a	0.5472466
89	0x3ef51132	0.4786468
90	0xbf096c31	-0.5368071
91	0x3e8cb4a5	0.2748157
92	0x3e82b69e	0.2552995
93	0xbea944c4	-0.33060277
94	0x3e9cc819	0.30621412
95	0x3bae19be	0.0053131273
96	0xbe124e3a	-0.14287654
97	0xbe462608	-0.19350445
98	0x3e8c90b0	0.27454138
99	0xbe4f7c3e	-0.20262238
100	0xbeaee15e	-0.34156317
101	0xbca98deb	-0.020697555
102	0xbe1f4027	-0.15551816
103	0xbe32bff8	-0.17456043
104	0xbdd3adab	-0.10335859
105	0xbec42de4	-0.38316262
106	0x3e9d597a	0.30732328
107	0x3ed23713	0.41057643
108	0x3edb396a	0.4281724
109	0x3c839796	0.016063493
110	0xbeaedf50	-0.3415475
111	0xbc7d71f1	-0.01546906
112	0xbe89b43f	-0.2689533
113	0x3ef197e5	0.471862
114	0xbe90577c	-0.28191745
115	0xbf10f39d	-0.56621724
116	0xbedf500d	-0.4361576
117	0xbe01f1a8	-0.12689841
118	0xbee2a147	-0.4426367
119	0x3c3fad2e	0.011699004
120	0xbde1ab42	-0.11018993
121	0xbe60d18d	-0.21954937
122	0xbe4ed185	-0.20197113
123	0xbe0e5369	-0.13899006
124	0xbe0c5326	-0.13703594
125	0x3e4f8580	0.2026577
126	0x3f1820ca	0.5942503
127	0x3f075498	0.52863455

running_var f4 [128]
0	0x3df34097	0.11877554
1	0x3edec2d1	0.43508008
2	0x3ee8455d	0.4536542
3	0x3d67f632	0.056631275
4	0x3efececf	0.49767157
5	0x3f087738	0.53306913
6	0x3efdc075	0.49560896
7	0x3d60942d	0.05482881
8	0x3d058e89	0.032606635
9	0x3e24054c	0.16017646
10	0x3e0a6818	0.13516271
11	0x3f058e00	0.521698
12	0x3fcc792d	1.597448
13	0x3f05dd1f	0.5229053
14	0x3dcd6b13	0.100301884
15	0x3ccf7712	0.025325332
16	0x3e455493	0.19270544
17	0x3df0127a	0.11722274
18	0x3e977e91	0.2958875
19	0x3f935ecc	1.1513305
20	0x3fa45e94	1.2841363
21	0x3cb7c84f	0.022434382
22	0x3f00e355	0.5034688
23	0x3fa74fd9	1.3071243
24	0x3e982260	0.29713726
25	0x3f24d2c0	0.6438408
26	0x3d17beed	0.037047315
27	0x3d425a20	0.04744923
28	0x3f8ed01d	1.1157261
29	0x3f05d927	0.52284473
30	0x3e126dd0	0.14299703
31	0x3f594b12	0.84880173
32	0x3ee9087e	0.45514292
33	0x3e42b32b	0.1901366
34	0x3eb1f264	0.34755242
35	0x3f38da96	0.72208536
36	0x3e9c5f3c	0.30541408
37	0x3ee46c1d	0.44613734
38	0x3dd39aff	0.103322975
39	0x3d99c333	0.075079344
40	0x3eea46e7	0.4575722
41	0x3d0dbf64	0.034606352
42	0x3e1c4023	0.15258841
43	0x3f0af39e	0.5427798
44	0x3dbd9849	0.09257562
45	0x3d48e26f	0.04904407
46	0x3d43583e	0.047691576
47	0x3e5ebc6c	0.21751565
48	0x3edb78d2	0.42865616
49	0x3e9a74bf	0.30167195
50	0x3e2a6e87	0.16643725
51	0x3f193ac5	0.598553
52	0x3f16c92b	0.5890071
53	0x3f1d892c	0.6153743
54	0x3de84339	0.11340947
55	0x3d0d7f20	0.034545064
56	0x3e262668	0.16225588
57	0x3f0bae9c	0.5456331
58	0x3f90de07	1.1317757
59	0x3e696af7	0.2279471
60	0x3f067bdd	0.5253275
61	0x3ce2671a	0.027637053
62	0x3d3ccee6	0.04609575
63	0x3e4358ab	0.19076793
64	0x3dd8303f	0.10556077
65	0x3e4966a6	0.19668064
66	0x3ead8294	0.33888686
67	0x3ef96708	0.4871142
68	0x3f1a0ec0	0.60178757
69	0x3ca88740	0.020572305
70	0x3e24ef83	0.16106991
71	0x3e535d78	0.20641124
72	0x3ec6e138	0.38843703
73	0x3e7579b3	0.23972206
74	0x3cba0a12	0.02270988
75	0x3e9f0330	0.3105712
76	0x3da95ef7	0.08270066
77	0x3f369088	0.7131429
78	0x3d9e5372	0.0773076
79	0x3fa7b2f7	1.3101491
80	0x3d2d2621	0.04227269
81	0x3fb12429	1.383916
82	0x3df2db95	0.11858288
83	0x3e8a709d	0.27039042
84	0x3ec87571	0.391521
85	0x3db8931c	0.09012434
86	0x3e88e843	0.26739702
87	0x3d8a8c2f	0.06765019
88	0x3ec92330	0.39284658
89	0x3f2a762f	0.66586584
90	0x3f2db487	0.6785359
91	0x3ec2d9f4	0.3805691
92	0x3da74f29	0.081693955
93	0x3e63ad54	0.22234088
94	0x3e51455c	0.20436615
95	0x3d26174f	0.040549573
96	0x3d83bcc9	0.06432492
97	0x3f0ee74d	0.55821687
98	0x3e955bb9	0.2917154
99	0x3eaabbed	0.333465
100	0x3e718474	0.23585683
101	0x3eda6f6e	0.4266314
102	0x3d8deb88	0.0692969
103	0x3dc9ea45	0.098591365
104	0x3da08ef4	0.07839766
105	0x3f0b4957	0.5440878
106	0x3dfa4eb2	0.12222041
107	0x3e9f0425	0.3105785
108	0x3eb98267	0.36232302
109	0x3e724ac3	0.23661332
110	0x3df0c875	0.11756984
111	0x3d48190a	0.048852004
112	0x3f08a3d1	0.53374964
113	0x3f1e7b61	0.6190701
114	0x3e61bab2	0.22043875
115	0x3f5c19f2	0.8597709
116	0x3f56694d	0.83754426
117	0x3d745f9e	0.0596615
118	0x3fa45707	1.2839059
119	0x3d0817ef	0.03322595
120	0x3d40eb88	0.04709962
121	0x3ec36bcb	0.38168177
122	0x3de96f7e	0.113982186
123	0x3dedc361	0.11609531
124	0x3dd4ff9a	0.10400315
125	0x3e29f232	0.16596296
126	0x3eaaf29d	0.33388224
127	0x3f26c89e	0.6514987

weight f4 [256, 128, 1]
0	0x3da51c32	0.080620185
1	0x3cc39e7c	0.023879282
2	0xbccc2e2e	-0.024924364
3	0xbbe4278a	-0.0069627212
4	0xbdeedfa2	-0.11663748
5	0xbd9ed6d4	-0.07755819
6	0xbd51ce5d	-0.051222194
7	0xbd4eab05	-0.050456066
8	0xbc30d7bf	-0.010793625
9	0x3da1089f	0.078629725
10	0xbd65b1d3	-0.05607779
11	0x3d539f28	0.051665455
12	0x3d76637b	0.060153466
13	0xbcb85984	-0.022503622
14	0x3cbaa5be	0.02278411
15	0xbcaae24b	-0.020859858
16	0x3d9cae5e	0.076504454
17	0x3c9c69c2	0.019093398
18	0x3c11c5ea	0.008897284
19	0x3cd324fe	0.025774475
20	0x3be9c6cc	0.007134294
21	0x3cb1cb32	0.021703336
22	0x3ca173ac	0.019708477
23	0xbc0915d8	-0.008367024
24	0x3d8e2df4	0.069423586
25	0xbd973d6d	-0.07384763
26	0x3dc20064	0.09472731
27	0x3c3a3783	0.011365774
28	0xbd7c1ba2	-0.06154979
29	0x3d22a3a4	0.03970684
30	0x3d17e07c	0.03707932
31	0xbd993d67	-0.07482415
32	0x3c371fc1	0.011177004
33	0x3be77425	0.007063406
34	0x3da37dbe	0.07982968
35	0xbd9d4290	-0.076787114
36	0x3d9d0a24	0.0766795
37	0x3ccb2edc	0.024802618
38	0xbd9910ca	-0.074739054
39	0xbdca7bc3	-0.09886887
40	0x3d37083d	0.04468559
41	0x3d14536f	0.03621238
42	0x3c4a6101	0.012352229
43	0xbcf06aa4	-0.029347725
44	0xbd86e4dc	-0.0658662
45	0x3ce71fdd	0.028213436
46	0xbc5e3b39	-0.0135639245
47	0x3d6ec189	0.05829004
48	0x3dba7d5f	0.09105944
49	0x3cea1421	0.028574051
50	0x3dad454b	0.08460482
51	0x3d444765	0.04791965
52	0x3d32f6d4	0.043692425
53	0x3ce1316a	0.027489383
54	0x3d223d5a	0.03960929
55	0xbda679e6	-0.08128719
56	0xbdb0a2fa	-0.08624835
57	0xbb0c0627	-0.0021365972
58	0x3d50713b	0.050889235
59	0xbd63f335	-0.055651862
60	0x3b974b51	0.0046171327
61	0xbe0717c5	-0.13192661
62	0xbcb8ff0d	-0.022582555
63	0x3c7d8055	0.015472491
64	0x3b963f22	0.0045851627
65	0xbd08d9ea	-0.033410944
66	0xbd796169	-0.060883913
67	0xbcc41d46	-0.02393974
68	0x3d22983c	0.039695963
69	0xbda4bc9f	-0.08043789
70	0xbd34e260	-0.0441612
71	0x3c878f2e	0.016547766
72	0xbda125b6	-0.07868521
73	0x3da646e8	0.08118993
74	0xbdc2fa36	-0.0952038
75	0x3d157bb3	0.036494922
76	0x3d1af9c1	0.03783584
77	0xbd38556f	-0.04500335
78	0xbbd683c4	-0.0065464694
79	0xbd31f3e4	-0.043445483
80	0xbdb6ea1e	-0.08931373
81	0x3dbafdc3	0.091304325
82	0xbd6a4c3b	-0.057201605
83	0x3c069e60	0.0082164705
84	0x3d002d23	0.031293046
85	0x3d167e13	0.036741327
86	0x3ce7334d	0.028222704
87	0x3bb2ced3	0.0054567843
88	0x3d98b434	0.07456246
89	0x3d06d59f	0.03291857
90	0x3dabf9c3	0.08397248
91	0xbd965e3a	-0.07342191
92	0xbce9ad14	-0.028524913
93	0x3c1cc05d	0.009567347
94	0xbcf0b3e8	-0.029382661
95	0x3ced60e0	0.028976858
96	0x3cbce64b	0.023059031
97	0xbc658725	-0.014009272
98	0xbd584ecf	-0.052809533
99	0xbdcb18df	-0.09916853
100	0x3d9fef16	0.07809274
101	0xbd9ea668	-0.07746583
102	0xbd882b45	-0.06648878
103	0xbd7f2b05	-0.062296886
104	0xbddbbe4c	-0.107296556
105	0x3da709ac	0.08156142
106	0x3c2f64b8	0.010705166
107	0xbc894d13	-0.016760385
108	0x3d5e5429	0.05427948
109	0x3d4c52c4	0.04988362
110	0x3db0fc36	0.086418554
111	0xbcf4ef4a	-0.029899258
112	0x3d3fa47c	0.046787724
113	0x3d91bc10	0.07115948
114	0xbd85241f	-0.0650103
115	0xbb94a6e2	-0.0045364955
116	0x3b1189b1	0.0022207315
117	0xbc28122c	-0.010258239
118	0xbcc8bbda	-0.024503637
119	0xbc09b2f2	-0.00840448
120	0xbdb338c6	-0.08751063
121	0x3cc6a359	0.024247812
122	0xbd9f91b2	-0.07791461
123	0xbe0bac52	-0.13639954
124	0xbe19e0a3	-0.15027098
125	0x3cf63eeb	0.030059299
126	0xbd92be14	-0.07165161
127	0x3d84db4c	0.0648714
128	0x3cf92c4b	0.030416628
129	0xbd86500e	-0.06558238
130	0xbdd876bb	-0.10569521
131	0x3d328cc4	0.043591276
132	0x3d04f48c	0.03245978
133	0xbda559ac	-0.08073744
134	0x3d545dc8	0.05184725
135	0xbd00612a	-0.031342663
136	0x3c4c7d3b	0.012481029
137	0x3ce86dba	0.028372634
138	0x3dac922c	0.084263176
139	0xbb86bffd	-0.0041122423
140	0x3c238284	0.009979848
141	0x3d250967	0.04029217
142	0x3b32752e	0.002723049
143	0x3dc3ed1c	0.095667094
144	0xbced0b89	-0.028936164
145	0xbc07ebf3	-0.008296001
146	0xbd96750d	-0.073465444
147	0xbd93dba1	-0.07219625
148	0x3cac34d8	0.021021292
149	0xbdb4f91c	-0.08836576
150	0xbdca3d35	-0.098749556
151	0x3d3d529f	0.04622137
152	0x3ce64d66	0.028113078
153	0x3cc7a25f	0.024369417
154	0x3d1de9b0	0.03855294
155	0xbbb17fda	-0.0054168524
156	0xbcabcfa0	-0.020973027
157	0xbd7c6844	-0.061622873
158	0xbc607721	-0.013700278
159	0x3ce3dd42	0.027815465
160	0xbd4fd9e7	-0.050744917
161	0xbace8e63	-0.0015758987
162	0x3cbc2c91	0.02297047
163	0x3d709285	0.058733482
164	0xbd5ef65c	-0.054434165
165	0x3db11317	0.08646219
166	0xbd87f6b6	-0.06638853
167	0xbc277a85	-0.010222082
168	0x3ceab9c7	0.028653039
169	0x3d1e6a8c	0.03867583
170	0x3c112e6d	0.008861166
171	0xbcce563a	-0.0251876
172	0x3d048604	0.03235437
173	0xbde3782a	-0.11106904
174	0x3d6c23c8	0.05765131
175	0xb978e937	-0.00023738002
176	0x3c61e875	0.013788332
177	0xbc137a9f	-0.009001403
178	0xbda1ad18	-0.07894343
179	0x3d6567dc	0.05600725
180	0x3d14b6ff	0.03630733
181	0x3dc7fd8b	0.09765156
182	0x3d7ed5a1	0.06221545
183	0x3d1eeef4	0.038802102
184	0xbd97d2d8	-0.07413262
185	0xbd900419	-0.070320316
186	0x3c1b7bc0	0.0094899535
187	0x3cbb318b	0.022850772
188	0xbd1dca2d	-0.038522888
189	0xbdf08817	-0.11744707
190	0xbcd55ca3	-0.02604515
191	0x3d07d80e	0.03316503
192	0x3d350051	0.044189755
193	0x3d538bd2	0.051647015
194	0xbda118a5	-0.07866029
195	0xbdc2fa62	-0.09520413
196	0x3d988dd2	0.07448925
197	0x3d9e0426	0.07715635
198	0x3ccadc8a	0.024763364
199	0xbd44c0ce	-0.048035435
200	0x3d5d61e3	0.05404843
201	0x3c9925b7	0.018694742
202	0xbd9d6afb	-0.076864205
203	0xbd6100b9	-0.05493233
204	0xbd68fdd1	-0.056882683
205	0xbc8ab494	-0.01693181
206	0xbe01297d	-0.12613483
207	0x3d1d301c	0.03837596
208	0x3d1343e5	0.03595342
209	0xbd04f8e4	-0.032463923
210	0x3dae812f	0.085207336
211	0x366993c2	3.4805712e-06
212	0xbdf85cb0	-0.12127054
213	0x3d3b3433	0.045704078
214	0xbd565b57	-0.052333202
215	0xbd5db0bb	-0.05412362
216	0xbcaffb92	-0.021482263
217	0x3dbbc768	0.09168893
218	0xbc8cce6a	-0.01718827
219	0xbd914480	-0.070931435
220	0xbd55e843	-0.052223455
221	0xbd7ed2e0	-0.062212825
222	0xbbcbee7e	-0.006223499
223	0xbd866b75	-0.065634646
224	0x3bc45bc2	0.0059923837
225	0xbd203b0c	-0.03911881
226	0x3d10b6fe	0.035330765
227	0xbd983c83	-0.07433417
228	0xbd2f816e	-0.042848043
229	0xbd9dd14d	-0.077059366
230	0xbe0f58b2	-0.13998678
231	0xbd7009b2	-0.058602996
232	0xbded4ae1	-0.11586548
233	0xbbb665b0	-0.0055663213
234	0xbd443900	-0.047905922
235	0xbcb86ba6	-0.022512268
236	0x3b896182	0.004192532
237	0xbc93f602	-0.018061642
238	0x3c83fad6	0.016110819
239	0x3dbfbca8	0.09362155
240	0xbd585d84	-0.05282356
241	0x3d898c7b	0.06716248
242	0x3ce6cb24	0.028173037
243	0xbd97966c	-0.074017376
244	0xbd84e8e7	-0.06489735
245	0x3da60db3	0.08108082
246	0x3d049b33	0.032374572
247	0x3d43528d	0.04768615
248	0xbd8b3860	-0.06797862
249	0x3db1176a	0.08647044
250	0xbd46b391	-0.04851109
251	0xbd3cfaba	-0.04613755
252	0x3aac6c54	0.0013154843
253	0xbd36dfe3	-0.04464711
254	0xbd8753f7	-0.06607812
255	0xbcadc519	-0.021212148

weight f4 [256]
0	0x3f83e470	1.0304089
1	0x3f884904	1.0647283
2	0x3f81d89a	1.0144227
3	0x3f7e15f5	0.99252254
4	0x3f863f7b	1.0488123
5	0x3f87bbdc	1.0604205
6	0x3f8591ed	1.0435158
7	0x3f830766	1.0236633
8	0x3f860e15	1.0473047
9	0x3f840f51	1.0317174
10	0x3f8886e2	1.0666163
11	0x3f82056c	1.0157905
12	0x3f85a26c	1.0440192
13	0x3f898818	1.0744658
14	0x3f88f8ce	1.0700929
15	0x3f88fe78	1.0702658
16	0x3f886975	1.0657183
17	0x3f877af8	1.0584402
18	0x3f87a03e	1.0595777
19	0x3f841e22	1.0321696
20	0x3f84d863	1.0378536
21	0x3f839427	1.0279588
22	0x3f89f6df	1.0778464
23	0x3f88518f	1.064989
24	0x3f879b52	1.0594275
25	0x3f8381bb	1.0273966
26	0x3f89c465	1.076306
27	0x3f828cfb	1.0199274
28	0x3f891c70	1.0711803
29	0x3f88d7b0	1.0690823
30	0x3f82c015	1.0214869
31	0x3f880c68	1.0628786
32	0x3f82792f	1.0193232
33	0x3f830248	1.0235071
34	0x3f86bfb1	1.052725
35	0x3f83e34b	1.0303739
36	0x3f85fcae	1.0467737
37	0x3f8411b1	1.0317899
38	0x3f878ae3	1.058926
39	0x3f87eddf	1.0619467
40	0x3f8978d9	1.0740005
41	0x3f856b5f	1.0423392
42	0x3f856907	1.0422677
43	0x3f8822d1	1.0635625
44	0x3f8531e7	1.0405854
45	0x3f819c77	1.0125874
46	0x3f801584	1.0006566
47	0x3f86b70b	1.052461
48	0x3f84dcb4	1.0379853
49	0x3f82de73	1.0224136
50	0x3f858b42	1.0433123
51	0x3f836065	1.0263792
52	0x3f838ad3	1.0276741
53	0x3f834d34	1.0257936
54	0x3f86c193	1.0527824
55	0x3f85fbb7	1.0467442
56	0x3f82b62a	1.0211842
57	0x3f85f98f	1.0466784
58	0x3f828a73	1.0198501
59	0x3f86692f	1.050085
60	0x3f890365	1.0704161
61	0x3f88f962	1.0701106
62	0x3f85c801	1.0451661
63	0x3f820d14	1.0160241
64	0x3f84c2a0	1.0371895
65	0x3f84301a	1.032718
66	0x3f857bd1	1.0428411
67	0x3f81a750	1.0129185
68	0x3f84bb82	1.0369723
69	0x3f860d73	1.0472854
70	0x3f830b8d	1.02379
71	0x3f82d8a1	1.022236
72	0x3f8186c3	1.0119251
73	0x3f83090f	1.023714
74	0x3f82172b	1.016332
75	0x3f851fc6	1.0400321
76	0x3f88909d	1.0669132
77	0x3f89a553	1.0753578
78	0x3f85da97	1.0457333
79	0x3f8712fb	1.0552667
80	0x3f87e505	1.0616766
81	0x3f839b81	1.0281831
82	0x3f82511c	1.0181003
83	0x3f8431c7	1.0327691
84	0x3f86b452	1.0523779
85	0x3f831207	1.0239877
86	0x3f892d1e	1.0716894
87	0x3f86df69	1.0536929
88	0x3f83e5d6	1.0304515
89	0x3f8821c6	1.0635307
90	0x3f883f28	1.0644274
91	0x3f8293b9	1.0201331
92	0x3f82c38c	1.0215926
93	0x3f88ca1d	1.068668
94	0x3f8936db	1.0719866
95	0x3f886111	1.0654622
96	0x3f85ea76	1.0462177
97	0x3f83d961	1.0300714
98	0x3f89164c	1.070993
99	0x3f8915bf	1.0709761
100	0x3f88102e	1.0629938
101	0x3f87d7a8	1.0612688
102	0x3f82d32a	1.0220692
103	0x3f840c4d	1.0316254
104	0x3f83b0bf	1.0288314
105	0x3f8a751b	1.0816988
106	0x3f864a3d	1.0491406
107	0x3f884562	1.0646174
108	0x3f831461	1.0240594
109	0x3f885dd0	1.0653629
110	0x3f869e04	1.0516973
111	0x3f81fbfe	1.0155027
112	0x3f8599c9	1.0437557
113	0x3f88252a	1.0636342
114	0x3f842ee2	1.0326807
115	0x3f86c4e8	1.0528841
116	0x3f8868c8	1.0656977
117	0x3f840b4d	1.0315949
118	0x3f841e0c	1.032167
119	0x3f8480be	1.0351789
120	0x3f88d143	1.0688862
121	0x3f8a3565	1.0797545
122	0x3f84e231	1.0381528
123	0x3f865f32	1.0497801
124	0x3f829c0d	1.0203873
125	0x3f84c627	1.0372971
126	0x3f89021a	1.0703766
127	0x3f8854a5	1.0650831
128	0x3f86d434	1.0533509
129	0x3f87d8df	1.0613059
130	0x3f824d5c	1.0179858
131	0x3f833ca6	1.0252883
132	0x3f846f7b	1.0346521
133	0x3f88b997	1.0681638
134	0x3f83ece8	1.0306673
135	0x3f817d1d	1.0116307
136	0x3f8a7416	1.0816677
137	0x3f85853d	1.0431286
138	0x3f83f81d	1.0310093
139	0x3f82ff9d	1.0234257
140	0x3f823e33	1.0175232
141	0x3f83eb7b	1.0306238
142	0x3f82b3de	1.0211141
143	0x3f8879d2	1.0662177
144	0x3f882799	1.0637084
145	0x3f88b1f2	1.0679305
146	0x3f87de7f	1.0614775
147	0x3f88fc06	1.0701911
148	0x3f812e80	1.0092316
149	0x3f8a044d	1.0782562
150	0x3f88f426	1.0699508
151	0x3f8985bd	1.0743939
152	0x3f830dd5	1.0238596
153	0x3f82cafb	1.0218195
154	0x3f88ab41	1.0677263
155	0x3f8342a8	1.0254717
156	0x3f86d546	1.0533836
157	0x3f8247f6	1.0178211
158	0x3f86898f	1.051073
159	0x3f8897e4	1.0671353
160	0x3f7beb88	0.9840627
161	0x3f839a9b	1.0281557
162	0x3f82eb64	1.0228086
163	0x3f83e2fc	1.0303645
164	0x3f87121e	1.0552404
165	0x3f85d5ee	1.0455911
166	0x3f80bc01	1.0057374
167	0x3f862803	1.0480961
168	0x3f829911	1.0202962
169	0x3f830c82	1.0238192
170	0x3f878d70	1.0590038
171	0x3f8a4677	1.0802754
172	0x3f891cbe	1.0711896
173	0x3f862bbb	1.0482095
174	0x3f88ac69	1.0677615
175	0x3f869bd5	1.0516306
176	0x3f81ad76	1.0131061
177	0x3f895887	1.0730141
178	0x3f82cf96	1.02196
179	0x3f83d481	1.0299226
180	0x3f84050a	1.0314038
181	0x3f88b482	1.0680087
182	0x3f8736e9	1.0563632
183	0x3f84f96d	1.0388619
184	0x3f7d2261	0.98880583
185	0x3f82e069	1.0224735
186	0x3f883dfa	1.0643914
187	0x3f8317ee	1.0241678
188	0x3f83a92e	1.0286005
189	0x3f855713	1.0417198
190	0x3f852ea3	1.0404857
191	0x3f8b5d58	1.0887861
192	0x3f81ffec	1.0156226
193	0x3f8645ba	1.0490029
194	0x3f82b0d1	1.021021
195	0x3f82947a	1.0201561
196	0x3f8230aa	1.0171101
197	0x3f839e9b	1.0282778
198	0x3f869a92	1.0515921
199	0x3f854659	1.0412093
200	0x3f87eac4	1.061852
201	0x3f84a86d	1.03639
202	0x3f86d248	1.0532923
203	0x3f8a43b1	1.0801908
204	0x3f81f1a4	1.0151868
205	0x3f891eda	1.071254
206	0x3f88ca52	1.0686743
207	0x3f89aebe	1.0756452
208	0x3f883c0e	1.0643327
209	0x3f87dbc5	1.0613943
210	0x3f845525	1.0338484
211	0x3f82aac6	1.0208366
212	0x3f8764d1	1.0577642
213	0x3f838d66	1.0277526
214	0x3f8a0354	1.0782266
215	0x3f83adb6	1.0287387
216	0x3f8822ec	1.0635657
217	0x3f83cade	1.0296285
218	0x3f830422	1.0235636
219	0x3f882daa	1.0638936
220	0x3f83b9e4	1.0291104
221	0x3f885eac	1.0653892
222	0x3f8288ef	1.0198039
223	0x3f89c5d9	1.0763503
224	0x3f8983be	1.074333
225	0x3f84f40b	1.0386976
226	0x3f83b125	1.0288435
227	0x3f87bfa3	1.0605358
228	0x3f848108	1.0351877
229	0x3f89e0e2	1.0771754
230	0x3f873283	1.056229
231	0x3f850c95	1.0394465
232	0x3f83963c	1.0280223
233	0x3f87f871	1.0622693
234	0x3f856064	1.0420041
235	0x3f85d8a9	1.0456744
236	0x3f87a64d	1.0597626
237	0x3f876d60	1.0580254
238	0x3f8731ed	1.0562111
239	0x3f83def7	1.0302418
240	0x3f8797bd	1.0593182
241	0x3f88ab96	1.0677364
242	0x3f872d0e	1.0560625
243	0x3f87abcb	1.0599302
244	0x3f87d0fc	1.0610652
245	0x3f83a544	1.028481
246	0x3f83c46d	1.0294319
247	0x3f889ab0	1.0672207
248	0x3f887475	1.066054
249	0x3f84dfe9	1.0380832
250	0x3f7f9316	0.9983381
251	0x3f873b6b	1.0565008
252	0x3f842f88	1.0327005
253	0x3f86c4d1	1.0528814
254	0x3f8489d9	1.0354568
255	0x3f88f4c7	1.06997
